name: "deepano_face_landmarknet"
layer {
  name: "data"
  type: "faceAnnoData"
  top: "data"
  top: "label"
  include {
		phase: TEST
  }
    transform_param {
	    scale: 0.007843
	    mean_value: 127.5
	    mean_value: 127.5
	    mean_value: 127.5
	    resize_param {
		    prob: 1.0
		    resize_mode: WARP
		    height: 96
		    width: 96
		    interp_mode: LINEAR
	    }
    }
    data_param {
		source: "../../../../../dataset/facedata/mtfl/lmdb/mtfl_testing_lmdb/"
		batch_size: 1
		backend: LMDB
	}
}
layer {
    bottom: "data"
    top: "conv1"
    name: "conv1"
    type: "Convolution"
    convolution_param {
        num_output: 64
        kernel_size: 7
        pad: 3
        stride: 2
        weight_filler {
            type: "msra"
        }
        bias_term: false

    }
}

layer {
    bottom: "conv1"
    top: "conv1"
    name: "bn_conv1"
    type: "BatchNorm"
    batch_norm_param {
      moving_average_fraction: 0.9 
    }
}

layer {
    bottom: "conv1"
    top: "conv1"
    name: "scale_conv1"
    type: "Scale"
    scale_param {
        bias_term: true
    }
}

layer {
    bottom: "conv1"
    top: "conv1"
    name: "conv1_relu"
    type: "ReLU"
}

layer {
    bottom: "conv1"
    top: "pool1"
    name: "pool1"
    type: "Pooling"
    pooling_param {
        kernel_size: 3
        stride: 2
        pool: MAX
    }
}

layer {
    bottom: "pool1"
    top: "res2a_branch1"
    name: "res2a_branch1"
    type: "Convolution"
    convolution_param {
        num_output: 64
        kernel_size: 1
        pad: 0
        stride: 1
        weight_filler {
            type: "msra"
        }
        bias_term: false

    }
}

layer {
    bottom: "res2a_branch1"
    top: "res2a_branch1"
    name: "bn2a_branch1"
    type: "BatchNorm"
    batch_norm_param {
      moving_average_fraction: 0.9 
    }
    
}

layer {
    bottom: "res2a_branch1"
    top: "res2a_branch1"
    name: "scale2a_branch1"
    type: "Scale"
    scale_param {
        bias_term: true
    }
}

layer {
    bottom: "pool1"
    top: "res2a_branch2a"
    name: "res2a_branch2a"
    type: "Convolution"
    convolution_param {
        num_output: 64
        kernel_size: 3
        pad: 1
        stride: 1
        weight_filler {
            type: "msra"
        }
        bias_term: false

    }
}

layer {
    bottom: "res2a_branch2a"
    top: "res2a_branch2a"
    name: "bn2a_branch2a"
    type: "BatchNorm"
    batch_norm_param {
      moving_average_fraction: 0.9 
    }
    
}

layer {
    bottom: "res2a_branch2a"
    top: "res2a_branch2a"
    name: "scale2a_branch2a"
    type: "Scale"
    scale_param {
        bias_term: true
    }
}

layer {
    bottom: "res2a_branch2a"
    top: "res2a_branch2a"
    name: "res2a_branch2a_relu"
    type: "ReLU"
}

layer {
    bottom: "res2a_branch2a"
    top: "res2a_branch2b"
    name: "res2a_branch2b"
    type: "Convolution"
    convolution_param {
        num_output: 64
        kernel_size: 3
        pad: 1
        stride: 1
        weight_filler {
            type: "msra"
        }
        bias_term: false

    }
}

layer {
    bottom: "res2a_branch2b"
    top: "res2a_branch2b"
    name: "bn2a_branch2b"
    type: "BatchNorm"
    batch_norm_param {
      moving_average_fraction: 0.9 
    }
    
}

layer {
    bottom: "res2a_branch2b"
    top: "res2a_branch2b"
    name: "scale2a_branch2b"
    type: "Scale"
    scale_param {
        bias_term: true
    }
}

layer {
    bottom: "res2a_branch1"
    bottom: "res2a_branch2b"
    top: "res2a"
    name: "res2a"
    type: "Eltwise"
    eltwise_param {
        operation: SUM
    }
}

layer {
    bottom: "res2a"
    top: "res2a"
    name: "res2a_relu"
    type: "ReLU"
}

layer {
    bottom: "res2a"
    top: "res2b_branch2a"
    name: "res2b_branch2a"
    type: "Convolution"
    convolution_param {
        num_output: 64
        kernel_size: 3
        pad: 1
        stride: 1
        weight_filler {
            type: "msra"
        }
        bias_term: false

    }
}

layer {
    bottom: "res2b_branch2a"
    top: "res2b_branch2a"
    name: "bn2b_branch2a"
    type: "BatchNorm"
    batch_norm_param {
      moving_average_fraction: 0.9 
    }
    
}

layer {
    bottom: "res2b_branch2a"
    top: "res2b_branch2a"
    name: "scale2b_branch2a"
    type: "Scale"
    scale_param {
        bias_term: true
    }
}

layer {
    bottom: "res2b_branch2a"
    top: "res2b_branch2a"
    name: "res2b_branch2a_relu"
    type: "ReLU"
}

layer {
    bottom: "res2b_branch2a"
    top: "res2b_branch2b"
    name: "res2b_branch2b"
    type: "Convolution"
    convolution_param {
        num_output: 64
        kernel_size: 3
        pad: 1
        stride: 1
        weight_filler {
            type: "msra"
        }
        bias_term: false

    }
}

layer {
    bottom: "res2b_branch2b"
    top: "res2b_branch2b"
    name: "bn2b_branch2b"
    type: "BatchNorm"
    batch_norm_param {
      moving_average_fraction: 0.9 
    }
    
}

layer {
    bottom: "res2b_branch2b"
    top: "res2b_branch2b"
    name: "scale2b_branch2b"
    type: "Scale"
    scale_param {
        bias_term: true
    }
}

layer {
    bottom: "res2a"
    bottom: "res2b_branch2b"
    top: "res2b"
    name: "res2b"
    type: "Eltwise"
    eltwise_param {
        operation: SUM
    }
}

layer {
    bottom: "res2b"
    top: "res2b"
    name: "res2b_relu"
    type: "ReLU"
}

layer {
    bottom: "res2b"
    top: "res3a_branch1"
    name: "res3a_branch1"
    type: "Convolution"
    convolution_param {
        num_output: 128
        kernel_size: 1
        pad: 0
        stride: 2
        weight_filler {
            type: "msra"
        }
        bias_term: false

    }
}

layer {
    bottom: "res3a_branch1"
    top: "res3a_branch1"
    name: "bn3a_branch1"
    type: "BatchNorm"
    batch_norm_param {
      moving_average_fraction: 0.9 
    }
    
}

layer {
    bottom: "res3a_branch1"
    top: "res3a_branch1"
    name: "scale3a_branch1"
    type: "Scale"
    scale_param {
        bias_term: true
    }
}

layer {
    bottom: "res2b"
    top: "res3a_branch2a"
    name: "res3a_branch2a"
    type: "Convolution"
    convolution_param {
        num_output: 128
        kernel_size: 3
        pad: 1
        stride: 2
        weight_filler {
            type: "msra"
        }
        bias_term: false

    }
}

layer {
    bottom: "res3a_branch2a"
    top: "res3a_branch2a"
    name: "bn3a_branch2a"
    type: "BatchNorm"
    batch_norm_param {
      moving_average_fraction: 0.9 
    }
    
}

layer {
    bottom: "res3a_branch2a"
    top: "res3a_branch2a"
    name: "scale3a_branch2a"
    type: "Scale"
    scale_param {
        bias_term: true
    }
}

layer {
    bottom: "res3a_branch2a"
    top: "res3a_branch2a"
    name: "res3a_branch2a_relu"
    type: "ReLU"
}

layer {
    bottom: "res3a_branch2a"
    top: "res3a_branch2b"
    name: "res3a_branch2b"
    type: "Convolution"
    convolution_param {
        num_output: 128
        kernel_size: 3
        pad: 1
        stride: 1
        weight_filler {
            type: "msra"
        }
        bias_term: false

    }
}

layer {
    bottom: "res3a_branch2b"
    top: "res3a_branch2b"
    name: "bn3a_branch2b"
    type: "BatchNorm"
    batch_norm_param {
      moving_average_fraction: 0.9 
    }
    
}

layer {
    bottom: "res3a_branch2b"
    top: "res3a_branch2b"
    name: "scale3a_branch2b"
    type: "Scale"
    scale_param {
        bias_term: true
    }
}

layer {
    bottom: "res3a_branch1"
    bottom: "res3a_branch2b"
    top: "res3a"
    name: "res3a"
    type: "Eltwise"
    eltwise_param {
        operation: SUM
    }
}

layer {
    bottom: "res3a"
    top: "res3a"
    name: "res3a_relu"
    type: "ReLU"
}

layer {
    bottom: "res3a"
    top: "res3b_branch2a"
    name: "res3b_branch2a"
    type: "Convolution"
    convolution_param {
        num_output: 128
        kernel_size: 3
        pad: 1
        stride: 1
        weight_filler {
            type: "msra"
        }
        bias_term: false

    }
}

layer {
    bottom: "res3b_branch2a"
    top: "res3b_branch2a"
    name: "bn3b_branch2a"
    type: "BatchNorm"
    batch_norm_param {
      moving_average_fraction: 0.9 
    }
    
}

layer {
    bottom: "res3b_branch2a"
    top: "res3b_branch2a"
    name: "scale3b_branch2a"
    type: "Scale"
    scale_param {
        bias_term: true
    }
}

layer {
    bottom: "res3b_branch2a"
    top: "res3b_branch2a"
    name: "res3b_branch2a_relu"
    type: "ReLU"
}

layer {
    bottom: "res3b_branch2a"
    top: "res3b_branch2b"
    name: "res3b_branch2b"
    type: "Convolution"
    convolution_param {
        num_output: 128
        kernel_size: 3
        pad: 1
        stride: 1
        weight_filler {
            type: "msra"
        }
        bias_term: false

    }
}

layer {
    bottom: "res3b_branch2b"
    top: "res3b_branch2b"
    name: "bn3b_branch2b"
    type: "BatchNorm"
    batch_norm_param {
      moving_average_fraction: 0.9 
    }
    
}

layer {
    bottom: "res3b_branch2b"
    top: "res3b_branch2b"
    name: "scale3b_branch2b"
    type: "Scale"
    scale_param {
        bias_term: true
    }
}

layer {
    bottom: "res3a"
    bottom: "res3b_branch2b"
    top: "res3b"
    name: "res3b"
    type: "Eltwise"
    eltwise_param {
        operation: SUM
    }
}

layer {
    bottom: "res3b"
    top: "res3b"
    name: "res3b_relu"
    type: "ReLU"
}

layer {
    bottom: "res3b"
    top: "res4a_branch1"
    name: "res4a_branch1"
    type: "Convolution"
    convolution_param {
        num_output: 256
        kernel_size: 1
        pad: 0
        stride: 2
        weight_filler {
            type: "msra"
        }
        bias_term: false

    }
}

layer {
    bottom: "res4a_branch1"
    top: "res4a_branch1"
    name: "bn4a_branch1"
    type: "BatchNorm"
    batch_norm_param {
      moving_average_fraction: 0.9 
    }
    
}

layer {
    bottom: "res4a_branch1"
    top: "res4a_branch1"
    name: "scale4a_branch1"
    type: "Scale"
    scale_param {
        bias_term: true
    }
}

layer {
    bottom: "res3b"
    top: "res4a_branch2a"
    name: "res4a_branch2a"
    type: "Convolution"
    convolution_param {
        num_output: 256
        kernel_size: 3
        pad: 1
        stride: 2
        weight_filler {
            type: "msra"
        }
        bias_term: false

    }
}

layer {
    bottom: "res4a_branch2a"
    top: "res4a_branch2a"
    name: "bn4a_branch2a"
    type: "BatchNorm"
    batch_norm_param {
      moving_average_fraction: 0.9 
    }
    
}

layer {
    bottom: "res4a_branch2a"
    top: "res4a_branch2a"
    name: "scale4a_branch2a"
    type: "Scale"
    scale_param {
        bias_term: true
    }
}

layer {
    bottom: "res4a_branch2a"
    top: "res4a_branch2a"
    name: "res4a_branch2a_relu"
    type: "ReLU"
}

layer {
    bottom: "res4a_branch2a"
    top: "res4a_branch2b"
    name: "res4a_branch2b"
    type: "Convolution"
    convolution_param {
        num_output: 256
        kernel_size: 3
        pad: 1
        stride: 1
        weight_filler {
            type: "msra"
        }
        bias_term: false

    }
}

layer {
    bottom: "res4a_branch2b"
    top: "res4a_branch2b"
    name: "bn4a_branch2b"
    type: "BatchNorm"
    batch_norm_param {
      moving_average_fraction: 0.9 
    }
    
}

layer {
    bottom: "res4a_branch2b"
    top: "res4a_branch2b"
    name: "scale4a_branch2b"
    type: "Scale"
    scale_param {
        bias_term: true
    }
}

layer {
    bottom: "res4a_branch1"
    bottom: "res4a_branch2b"
    top: "res4a"
    name: "res4a"
    type: "Eltwise"
    eltwise_param {
        operation: SUM
    }
}

layer {
    bottom: "res4a"
    top: "res4a"
    name: "res4a_relu"
    type: "ReLU"
}

layer {
    bottom: "res4a"
    top: "res4b_branch2a"
    name: "res4b_branch2a"
    type: "Convolution"
    convolution_param {
        num_output: 256
        kernel_size: 3
        pad: 1
        stride: 1
        weight_filler {
            type: "msra"
        }
        bias_term: false

    }
}

layer {
    bottom: "res4b_branch2a"
    top: "res4b_branch2a"
    name: "bn4b_branch2a"
    type: "BatchNorm"
    batch_norm_param {
      moving_average_fraction: 0.9 
    }
    
}

layer {
    bottom: "res4b_branch2a"
    top: "res4b_branch2a"
    name: "scale4b_branch2a"
    type: "Scale"
    scale_param {
        bias_term: true
    }
}

layer {
    bottom: "res4b_branch2a"
    top: "res4b_branch2a"
    name: "res4b_branch2a_relu"
    type: "ReLU"
}

layer {
    bottom: "res4b_branch2a"
    top: "res4b_branch2b"
    name: "res4b_branch2b"
    type: "Convolution"
    convolution_param {
        num_output: 256
        kernel_size: 3
        pad: 1
        stride: 1
        weight_filler {
            type: "msra"
        }
        bias_term: false

    }
}

layer {
    bottom: "res4b_branch2b"
    top: "res4b_branch2b"
    name: "bn4b_branch2b"
    type: "BatchNorm"
    batch_norm_param {
      moving_average_fraction: 0.9 
    }
    
}

layer {
    bottom: "res4b_branch2b"
    top: "res4b_branch2b"
    name: "scale4b_branch2b"
    type: "Scale"
    scale_param {
        bias_term: true
    }
}

layer {
    bottom: "res4a"
    bottom: "res4b_branch2b"
    top: "res4b"
    name: "res4b"
    type: "Eltwise"
    eltwise_param {
        operation: SUM
    }
}

layer {
    bottom: "res4b"
    top: "res4b"
    name: "res4b_relu"
    type: "ReLU"
}

layer {
    bottom: "res4b"
    top: "res5a_branch1"
    name: "res5a_branch1"
    type: "Convolution"
    convolution_param {
        num_output: 512
        kernel_size: 1
        pad: 0
        stride: 2
        weight_filler {
            type: "msra"
        }
        bias_term: false

    }
}

layer {
    bottom: "res5a_branch1"
    top: "res5a_branch1"
    name: "bn5a_branch1"
    type: "BatchNorm"
    batch_norm_param {
      moving_average_fraction: 0.9 
    }
    
}

layer {
    bottom: "res5a_branch1"
    top: "res5a_branch1"
    name: "scale5a_branch1"
    type: "Scale"
    scale_param {
        bias_term: true
    }
}

layer {
    bottom: "res4b"
    top: "res5a_branch2a"
    name: "res5a_branch2a"
    type: "Convolution"
    convolution_param {
        num_output: 512
        kernel_size: 3
        pad: 1
        stride: 2
        weight_filler {
            type: "msra"
        }
        bias_term: false

    }
}

layer {
    bottom: "res5a_branch2a"
    top: "res5a_branch2a"
    name: "bn5a_branch2a"
    type: "BatchNorm"
    batch_norm_param {
      moving_average_fraction: 0.9 
    }
    
}

layer {
    bottom: "res5a_branch2a"
    top: "res5a_branch2a"
    name: "scale5a_branch2a"
    type: "Scale"
    scale_param {
        bias_term: true
    }
}

layer {
    bottom: "res5a_branch2a"
    top: "res5a_branch2a"
    name: "res5a_branch2a_relu"
    type: "ReLU"
}

layer {
    bottom: "res5a_branch2a"
    top: "res5a_branch2b"
    name: "res5a_branch2b"
    type: "Convolution"
    convolution_param {
        num_output: 512
        kernel_size: 3
        pad: 1
        stride: 1
        weight_filler {
            type: "msra"
        }
        bias_term: false

    }
}

layer {
    bottom: "res5a_branch2b"
    top: "res5a_branch2b"
    name: "bn5a_branch2b"
    type: "BatchNorm"
    batch_norm_param {
      moving_average_fraction: 0.9 
    }
    
}

layer {
    bottom: "res5a_branch2b"
    top: "res5a_branch2b"
    name: "scale5a_branch2b"
    type: "Scale"
    scale_param {
        bias_term: true
    }
}

layer {
    bottom: "res5a_branch1"
    bottom: "res5a_branch2b"
    top: "res5a"
    name: "res5a"
    type: "Eltwise"
    eltwise_param {
        operation: SUM
    }
}

layer {
    bottom: "res5a"
    top: "res5a"
    name: "res5a_relu"
    type: "ReLU"
}

layer {
    bottom: "res5a"
    top: "res5b_branch2a"
    name: "res5b_branch2a"
    type: "Convolution"
    convolution_param {
        num_output: 512
        kernel_size: 3
        pad: 1
        stride: 1
        weight_filler {
            type: "msra"
        }
        bias_term: false

    }
}

layer {
    bottom: "res5b_branch2a"
    top: "res5b_branch2a"
    name: "bn5b_branch2a"
    type: "BatchNorm"
    batch_norm_param {
      moving_average_fraction: 0.9 
    }
    
}

layer {
    bottom: "res5b_branch2a"
    top: "res5b_branch2a"
    name: "scale5b_branch2a"
    type: "Scale"
    scale_param {
        bias_term: true
    }
}

layer {
    bottom: "res5b_branch2a"
    top: "res5b_branch2a"
    name: "res5b_branch2a_relu"
    type: "ReLU"
}

layer {
    bottom: "res5b_branch2a"
    top: "res5b_branch2b"
    name: "res5b_branch2b"
    type: "Convolution"
    convolution_param {
        num_output: 512
        kernel_size: 3
        pad: 1
        stride: 1
        weight_filler {
            type: "msra"
        }
        bias_term: false

    }
}

layer {
    bottom: "res5b_branch2b"
    top: "res5b_branch2b"
    name: "bn5b_branch2b"
    type: "BatchNorm"
    batch_norm_param {
      moving_average_fraction: 0.9 
    }
    
}

layer {
    bottom: "res5b_branch2b"
    top: "res5b_branch2b"
    name: "scale5b_branch2b"
    type: "Scale"
    scale_param {
        bias_term: true
    }
}

layer {
    bottom: "res5a"
    bottom: "res5b_branch2b"
    top: "res5b"
    name: "res5b"
    type: "Eltwise"
    eltwise_param {
        operation: SUM
    }
}

layer {
    bottom: "res5b"
    top: "res5b"
    name: "res5b_relu"
    type: "ReLU"
}
####################gender#############################
layer {
  name: "conv_5_4_attri"
  type: "Convolution"
  bottom: "res5b"
  top: "conv_5_4_attri"
  param {
    lr_mult: 1
    decay_mult: 1
  }
  param {
    lr_mult: 2
    decay_mult: 1
  }
  convolution_param {
    num_output: 256
    kernel_size: 3
    stride: 2
    pad: 0
     weight_filler {
      type: "xavier"
	}
    bias_filler {
      type: "constant"
      value: 0
    }
  }
}
layer {
	name: "conv_5_4_attri/bn"
	type: "BatchNorm"
	bottom: "conv_5_4_attri"
	top: "conv_5_4_attri"
	param {
		lr_mult: 0
		decay_mult: 0
	}
	param {
		lr_mult: 0
		decay_mult: 0
	}
	param {
		lr_mult: 0
		decay_mult: 0
	}
}
layer {
	name: "conv_5_4_attri/scale"
	type: "Scale"
	bottom: "conv_5_4_attri"
	top: "conv_5_4_attri"
	param {
		lr_mult: 1.0
		decay_mult: 0.0
	}
	param {
		lr_mult: 2.0
		decay_mult: 0.0
	}
	scale_param {
		filler {
			value: 1
		}
		bias_term: true
		bias_filler {
			type: "constant"
			value: 0
		}
	}
}
layer {
	name: "conv_5_4_attri/relu"
	type: "ReLU"
	bottom: "conv_5_4_attri"
	top: "conv_5_4_attri"
}

layer {
  name: "conv_5_4_1_attri"
  type: "Convolution"
  bottom: "res5b"
  top: "conv_5_4_1_attri"
  param {
    lr_mult: 1
    decay_mult: 1
  }
  param {
    lr_mult: 2
    decay_mult: 1
  }
  convolution_param {
    num_output: 256
    kernel_size: 3
    stride: 2
    pad: 0
     weight_filler {
      type: "xavier"
	}
    bias_filler {
      type: "constant"
      value: 0
    }
  }
}
layer {
	name: "conv_5_4_1_attri/bn"
	type: "BatchNorm"
	bottom: "conv_5_4_1_attri"
	top: "conv_5_4_1_attri"
	param {
		lr_mult: 0
		decay_mult: 0
	}
	param {
		lr_mult: 0
		decay_mult: 0
	}
	param {
		lr_mult: 0
		decay_mult: 0
	}
}
layer {
	name: "conv_5_4_1_attri/scale"
	type: "Scale"
	bottom: "conv_5_4_1_attri"
	top: "conv_5_4_1_attri"
	param {
		lr_mult: 1.0
		decay_mult: 0.0
	}
	param {
		lr_mult: 2.0
		decay_mult: 0.0
	}
	scale_param {
		filler {
			value: 1
		}
		bias_term: true
		bias_filler {
			type: "constant"
			value: 0
		}
	}
}
layer {
	name: "conv_5_4_1_attri/relu"
	type: "ReLU"
	bottom: "conv_5_4_1_attri"
	top: "conv_5_4_1_attri"
}

####
layer {
  name: "conv6_gender_fds_1"
  type: "InnerProduct"
  bottom: "conv_5_4_attri"
  top: "conv6_gender_fds_1"
  param {
    lr_mult: 1
    decay_mult: 1
  }
  param {
    lr_mult: 2
    decay_mult: 1
  }
  inner_product_param {
  	#kernel_size: 1
	num_output: 96
    weight_filler {
      type: "xavier"
	}
    bias_filler {
      type: "constant"
      value: 0
    }
  }
}
layer {
	name: "conv6_gender_fds_1/relu"
	type: "ReLU"
	bottom: "conv6_gender_fds_1"
	top: "conv6_gender_fds_1"
}
layer {
  name: "conv6_gender_fds_2"
  type: "InnerProduct"
  bottom: "conv6_gender_fds_1"
  top: "conv6_gender_fds_2"
  param {
    lr_mult: 1
    decay_mult: 1
  }
  param {
    lr_mult: 2
    decay_mult: 1
  }
  inner_product_param {
  	#kernel_size: 1
	num_output: 32
    weight_filler {
      type: "xavier"
	}
    bias_filler {
      type: "constant"
      value: 0
    }
  }
}
layer {
	name: "conv6_gender_fds_2/relu"
	type: "ReLU"
	bottom: "conv6_gender_fds_2"
	top: "conv6_gender_fds_2"
}

layer {
  name: "conv6_gender"
  type: "InnerProduct"
  bottom: "conv6_gender_fds_2"
  top: "conv6_gender"
  param {
    lr_mult: 1
    decay_mult: 1
  }
  param {
    lr_mult: 2
    decay_mult: 1
  }
  inner_product_param {
    #kernel_size: 1
	num_output: 2
    weight_filler {
      type: "xavier"
	}
    bias_filler {
      type: "constant"
      value: 0
    }
  }
}
###################glasses################################
layer {
  name: "conv6_glasses_fds_1"
  type: "InnerProduct"
  bottom: "conv_5_4_1_attri"
  top: "conv6_glasses_fds_1"
  param {
    lr_mult: 1
    decay_mult: 1
  }
  param {
    lr_mult: 2
    decay_mult: 1
  }
  inner_product_param {
  	#kernel_size: 1
	num_output: 96
    weight_filler {
      type: "xavier"
	}
    bias_filler {
      type: "constant"
      value: 0
    }
  }
}
layer {
	name: "conv6_glasses_fds_1/relu"
	type: "ReLU"
	bottom: "conv6_glasses_fds_1"
	top: "conv6_glasses_fds_1"
}
layer {
  name: "conv6_glasses_fds_2"
  type: "InnerProduct"
  bottom: "conv6_glasses_fds_1"
  top: "conv6_glasses_fds_2"
  param {
    lr_mult: 1
    decay_mult: 1
  }
  param {
    lr_mult: 2
    decay_mult: 1
  }
  inner_product_param {
  	#kernel_size: 1
	num_output: 32
    weight_filler {
      type: "xavier"
	}
    bias_filler {
      type: "constant"
      value: 0
    }
  }
}
layer {
	name: "conv6_glasses_fds_2/relu"
	type: "ReLU"
	bottom: "conv6_glasses_fds_2"
	top: "conv6_glasses_fds_2"
}
layer {
  name: "conv6_glasses"
  type: "InnerProduct"
  bottom: "conv6_glasses_fds_2"
  top: "conv6_glasses"
  param {
    lr_mult: 1
    decay_mult: 1
  }
  param {
    lr_mult: 2
    decay_mult: 1
  }
  inner_product_param {
    #kernel_size: 1
	num_output: 2
    weight_filler {
      type: "xavier"
	}
    bias_filler {
      type: "constant"
      value: 0
    }
  }
}


####################landmark###########################
layer {
  name: "conv_5_3_4"
  type: "Convolution"
  bottom: "res5b"
  top: "conv_5_3_4"
  param {
    lr_mult: 1
    decay_mult: 1
  }
  param {
    lr_mult: 2
    decay_mult: 1
  }
  convolution_param {
    num_output: 256
    kernel_size: 1
    stride: 1
    pad: 0
     weight_filler {
      type: "xavier"
	}
    bias_filler {
      type: "constant"
      value: 0
    }
  }
}
layer {
	name: "conv_5_3_4/bn"
	type: "BatchNorm"
	bottom: "conv_5_3_4"
	top: "conv_5_3_4"
	param {
		lr_mult: 0
		decay_mult: 0
	}
	param {
		lr_mult: 0
		decay_mult: 0
	}
	param {
		lr_mult: 0
		decay_mult: 0
	}
}
layer {
	name: "conv_5_3_4/scale"
	type: "Scale"
	bottom: "conv_5_3_4"
	top: "conv_5_3_4"
	param {
		lr_mult: 1.0
		decay_mult: 0.0
	}
	param {
		lr_mult: 2.0
		decay_mult: 0.0
	}
	scale_param {
		filler {
			value: 1
		}
		bias_term: true
		bias_filler {
			type: "constant"
			value: 0
		}
	}
}
layer {
	name: "conv_5_3_4/relu"
	type: "ReLU"
	bottom: "conv_5_3_4"
	top: "conv_5_3_4"
}
layer {
  name: "conv6_landmark_fds_1"
  type: "InnerProduct"
  bottom: "conv_5_3_4"
  top: "conv6_landmark_fds_1"
  param {
    lr_mult: 1
    decay_mult: 1
  }
  param {
    lr_mult: 2
    decay_mult: 1
  }
  inner_product_param {
  	#kernel_size: 1
	num_output: 512
    weight_filler {
      type: "xavier"
	}
    bias_filler {
      type: "constant"
      value: 0
    }
  }
}
layer {
	name: "conv6_landmark_fds_1/relu"
	type: "ReLU"
	bottom: "conv6_landmark_fds_1"
	top: "conv6_landmark_fds_1"
}
layer {
  name: "conv6_landmark_fds_2"
  type: "InnerProduct"
  bottom: "conv6_landmark_fds_1"
  top: "conv6_landmark_fds_2"
  param {
    lr_mult: 1
    decay_mult: 1
  }
  param {
    lr_mult: 2
    decay_mult: 1
  }
  inner_product_param {
  	#kernel_size: 1
	num_output: 64
    weight_filler {
      type: "xavier"
	}
    bias_filler {
      type: "constant"
      value: 0
    }
  }
}
layer {
	name: "conv6_landmark_fds_2/relu"
	type: "ReLU"
	bottom: "conv6_landmark_fds_2"
	top: "conv6_landmark_fds_2"
}
layer {
  name: "conv6_landmark"
  type: "InnerProduct"
  bottom: "conv6_landmark_fds_2"
  top: "conv6_landmark"
  param {
    lr_mult: 1
    decay_mult: 1
  }
  param {
    lr_mult: 2
    decay_mult: 1
  }
  inner_product_param {
  	#kernel_size: 1
	num_output: 10
    weight_filler {
      type: "xavier"
	}
    bias_filler {
      type: "constant"
      value: 0
    }
  }
}

layer {
  name: "conv6_gender"
  type: "Softmax"
  bottom: "conv6_gender"
  top: "conv6_gender"
  softmax_param {
	    axis: 1
  }
}
layer {
  name: "conv6_glasses"
  type: "Softmax"
  bottom: "conv6_glasses"
  top: "conv6_glasses"
  softmax_param {
	    axis: 1
  }
}
layer {
  name: "multiface_output"
  type: "Concat"
  bottom: "conv6_landmark"
  bottom: "conv6_gender"
  bottom: "conv6_glasses"
  top: "multiface_output"
  concat_param {
		axis: 1
  }
  include {
		phase: TEST
	}
}
layer{
    name: "faceeval_output"
    type: "FaceEvaluate"
    bottom: "multiface_output"
    bottom: "label"
    top: "faceeval_output"
    include {
		phase: TEST
	}
    face_evaluate_param{
        facetype: FACE_5_TYPE
        facepoints: 5
        num_gender: 2
        num_glasses:2
    }
}

