name: "DeepanoFace"
layer {
	name: "data"
	type: "AnnotatedData"
	top: "data"
	top: "label"
	include {
		phase: TEST
	}
	transform_param {
		scale: 0.007843
		mean_value: 103.94
		mean_value: 116.78
		mean_value: 123.68
		resize_param {
			prob: 1.0
			resize_mode: WARP
			height: 320
			width: 320
			interp_mode: LINEAR
		}
	}
	data_param {
		source: "../../../../../dataset/facedata/wider_face/lmdb/wider_face_wider_val_lmdb/"
		batch_size: 1
		backend: LMDB
	}
	annotated_data_param {
		batch_sampler {
		}
		label_map_file: "../labelmap_face.prototxt"
	}
}
layer {
	name: "conv0"
	type: "Convolution"
	bottom: "data"
	top: "conv0"
	param {
		lr_mult: 1.0
		decay_mult: 1.0
	}
	convolution_param {
		num_output: 64
		bias_term: false
		pad: 1
		kernel_size: 3
		stride: 2
		weight_filler {
			type: "msra"
		}
	}
}
layer {
	name: "conv0/bn"
	type: "BatchNorm"
	bottom: "conv0"
	top: "conv0"
	param {
		lr_mult: 0
		decay_mult: 0
	}
	param {
		lr_mult: 0
		decay_mult: 0
	}
	param {
		lr_mult: 0
		decay_mult: 0
	}
}
layer {
	name: "conv0/scale"
	type: "Scale"
	bottom: "conv0"
	top: "conv0"
	param {
		lr_mult: 1.0
		decay_mult: 0.0
	}
	param {
		lr_mult: 2.0
		decay_mult: 0.0
	}
	scale_param {
		filler {
			value: 1
		}
		bias_term: true
		bias_filler {
			value: 0
		}
	}
}
layer {
	name: "conv0/relu"
	type: "ReLU"
	bottom: "conv0"
	top: "conv0"
}
layer {
	name: "conv1/dw"
	type: "Convolution"
	bottom: "conv0"
	top: "conv1/dw"
	param {
		lr_mult: 1.0
		decay_mult: 1.0
	}
	convolution_param {
		num_output: 64
		bias_term: false
		pad: 1
		kernel_size: 3
		group: 64
		engine: CAFFE
		weight_filler {
			type: "msra"
		}
	}
}
layer {
	name: "conv1/dw/bn"
	type: "BatchNorm"
	bottom: "conv1/dw"
	top: "conv1/dw"
	param {
		lr_mult: 0
		decay_mult: 0
	}
	param {
		lr_mult: 0
		decay_mult: 0
	}
	param {
		lr_mult: 0
		decay_mult: 0
	}
}
layer {
	name: "conv1/dw/scale"
	type: "Scale"
	bottom: "conv1/dw"
	top: "conv1/dw"
	param {
		lr_mult: 1.0
		decay_mult: 0.0
	}
	param {
		lr_mult: 2.0
		decay_mult: 0.0
	}
	scale_param {
		filler {
			value: 1
		}
		bias_term: true
		bias_filler {
			value: 0
		}
	}
}
layer {
	name: "conv1/dw/relu"
	type: "ReLU"
	bottom: "conv1/dw"
	top: "conv1/dw"
}
layer {
	name: "conv1"
	type: "Convolution"
	bottom: "conv1/dw"
	top: "conv1"
	param {
		lr_mult: 1.0
		decay_mult: 1.0
	}
	convolution_param {
		num_output: 64
		bias_term: false
		kernel_size: 1
		weight_filler {
			type: "msra"
		}
	}
}
layer {
	name: "conv1/bn"
	type: "BatchNorm"
	bottom: "conv1"
	top: "conv1"
	param {
		lr_mult: 0
		decay_mult: 0
	}
	param {
		lr_mult: 0
		decay_mult: 0
	}
	param {
		lr_mult: 0
		decay_mult: 0
	}
}
layer {
	name: "conv1/scale"
	type: "Scale"
	bottom: "conv1"
	top: "conv1"
	param {
		lr_mult: 1.0
		decay_mult: 0.0
	}
	param {
		lr_mult: 2.0
		decay_mult: 0.0
	}
	scale_param {
		filler {
			value: 1
		}
		bias_term: true
		bias_filler {
			value: 0
		}
	}
}
layer {
	name: "conv1/relu"
	type: "ReLU"
	bottom: "conv1"
	top: "conv1"
}
layer {
	name: "conv2/dw"
	type: "Convolution"
	bottom: "conv1"
	top: "conv2/dw"
	param {
		lr_mult: 1.0
		decay_mult: 1.0
	}
	convolution_param {
		num_output: 64
		bias_term: false
		pad: 1
		kernel_size: 3
		stride: 2
		group: 64
		engine: CAFFE
		weight_filler {
			type: "msra"
		}
	}
}
layer {
	name: "conv2/dw/bn"
	type: "BatchNorm"
	bottom: "conv2/dw"
	top: "conv2/dw"
	param {
		lr_mult: 0
		decay_mult: 0
	}
	param {
		lr_mult: 0
		decay_mult: 0
	}
	param {
		lr_mult: 0
		decay_mult: 0
	}
}
layer {
	name: "conv2/dw/scale"
	type: "Scale"
	bottom: "conv2/dw"
	top: "conv2/dw"
	param {
		lr_mult: 1.0
		decay_mult: 0.0
	}
	param {
		lr_mult: 2.0
		decay_mult: 0.0
	}
	scale_param {
		filler {
			value: 1
		}
		bias_term: true
		bias_filler {
			value: 0
		}
	}
}
layer {
	name: "conv2/dw/relu"
	type: "ReLU"
	bottom: "conv2/dw"
	top: "conv2/dw"
}
layer {
	name: "conv2"
	type: "Convolution"
	bottom: "conv2/dw"
	top: "conv2"
	param {
		lr_mult: 1.0
		decay_mult: 1.0
	}
	convolution_param {
		num_output: 128
		bias_term: false
		kernel_size: 1
		weight_filler {
			type: "msra"
		}
	}
}
layer {
	name: "conv2/bn"
	type: "BatchNorm"
	bottom: "conv2"
	top: "conv2"
	param {
		lr_mult: 0
		decay_mult: 0
	}
	param {
		lr_mult: 0
		decay_mult: 0
	}
	param {
		lr_mult: 0
		decay_mult: 0
	}
}
layer {
	name: "conv2/scale"
	type: "Scale"
	bottom: "conv2"
	top: "conv2"
	param {
		lr_mult: 1.0
		decay_mult: 0.0
	}
	param {
		lr_mult: 2.0
		decay_mult: 0.0
	}
	scale_param {
		filler {
			value: 1
		}
		bias_term: true
		bias_filler {
			value: 0
		}
	}
}
layer {
	name: "conv2/relu"
	type: "ReLU"
	bottom: "conv2"
	top: "conv2"
}
layer {
	name: "conv3/dw"
	type: "Convolution"
	bottom: "conv2"
	top: "conv3/dw"
	param {
		lr_mult: 1.0
		decay_mult: 1.0
	}
	convolution_param {
		num_output: 128
		bias_term: false
		pad: 1
		kernel_size: 3
		group: 128
		engine: CAFFE
		weight_filler {
			type: "msra"
		}
	}
}
layer {
	name: "conv3/dw/bn"
	type: "BatchNorm"
	bottom: "conv3/dw"
	top: "conv3/dw"
	param {
		lr_mult: 0
		decay_mult: 0
	}
	param {
		lr_mult: 0
		decay_mult: 0
	}
	param {
		lr_mult: 0
		decay_mult: 0
	}
}
layer {
	name: "conv3/dw/scale"
	type: "Scale"
	bottom: "conv3/dw"
	top: "conv3/dw"
	param {
		lr_mult: 1.0
		decay_mult: 0.0
	}
	param {
		lr_mult: 2.0
		decay_mult: 0.0
	}
	scale_param {
		filler {
			value: 1
		}
		bias_term: true
		bias_filler {
			value: 0
		}
	}
}
layer {
	name: "conv3/dw/relu"
	type: "ReLU"
	bottom: "conv3/dw"
	top: "conv3/dw"
}
layer {
	name: "conv3"
	type: "Convolution"
	bottom: "conv3/dw"
	top: "conv3"
	param {
		lr_mult: 1.0
		decay_mult: 1.0
	}
	convolution_param {
		num_output: 128
		bias_term: false
		kernel_size: 1
		weight_filler {
			type: "msra"
		}
	}
}
layer {
	name: "conv3/bn"
	type: "BatchNorm"
	bottom: "conv3"
	top: "conv3"
	param {
		lr_mult: 0
		decay_mult: 0
	}
	param {
		lr_mult: 0
		decay_mult: 0
	}
	param {
		lr_mult: 0
		decay_mult: 0
	}
}
layer {
	name: "conv3/scale"
	type: "Scale"
	bottom: "conv3"
	top: "conv3"
	param {
		lr_mult: 1.0
		decay_mult: 0.0
	}
	param {
		lr_mult: 2.0
		decay_mult: 0.0
	}
	scale_param {
		filler {
			value: 1
		}
		bias_term: true
		bias_filler {
			value: 0
		}
	}
}
layer {
	name: "conv3/relu"
	type: "ReLU"
	bottom: "conv3"
	top: "conv3"
}
layer {
	name: "conv4/dw"
	type: "Convolution"
	bottom: "conv3"
	top: "conv4/dw"
	param {
		lr_mult: 1.0
		decay_mult: 1.0
	}
	convolution_param {
		num_output: 128
		bias_term: false
		pad: 1
		kernel_size: 3
		stride: 2
		group: 128
		engine: CAFFE
		weight_filler {
			type: "msra"
		}
	}
}
layer {
	name: "conv4/dw/bn"
	type: "BatchNorm"
	bottom: "conv4/dw"
	top: "conv4/dw"
	param {
		lr_mult: 0
		decay_mult: 0
	}
	param {
		lr_mult: 0
		decay_mult: 0
	}
	param {
		lr_mult: 0
		decay_mult: 0
	}
}
layer {
	name: "conv4/dw/scale"
	type: "Scale"
	bottom: "conv4/dw"
	top: "conv4/dw"
	param {
		lr_mult: 1.0
		decay_mult: 0.0
	}
	param {
		lr_mult: 2.0
		decay_mult: 0.0
	}
	scale_param {
		filler {
			value: 1
		}
		bias_term: true
		bias_filler {
			value: 0
		}
	}
}
layer {
	name: "conv4/dw/relu"
	type: "ReLU"
	bottom: "conv4/dw"
	top: "conv4/dw"
}
layer {
	name: "conv4"
	type: "Convolution"
	bottom: "conv4/dw"
	top: "conv4"
	param {
		lr_mult: 1.0
		decay_mult: 1.0
	}
	convolution_param {
		num_output: 256
		bias_term: false
		kernel_size: 1
		weight_filler {
			type: "msra"
		}
	}
}
layer {
	name: "conv4/bn"
	type: "BatchNorm"
	bottom: "conv4"
	top: "conv4"
	param {
		lr_mult: 0
		decay_mult: 0
	}
	param {
		lr_mult: 0
		decay_mult: 0
	}
	param {
		lr_mult: 0
		decay_mult: 0
	}
}
layer {
	name: "conv4/scale"
	type: "Scale"
	bottom: "conv4"
	top: "conv4"
	param {
		lr_mult: 1.0
		decay_mult: 0.0
	}
	param {
		lr_mult: 2.0
		decay_mult: 0.0
	}
	scale_param {
		filler {
			value: 1
		}
		bias_term: true
		bias_filler {
			value: 0
		}
	}
}
layer {
	name: "conv4/relu"
	type: "ReLU"
	bottom: "conv4"
	top: "conv4"
}
layer {
	name: "conv5/dw"
	type: "Convolution"
	bottom: "conv4"
	top: "conv5/dw"
	param {
		lr_mult: 1.0
		decay_mult: 1.0
	}
	convolution_param {
		num_output: 256
		bias_term: false
		pad: 1
		kernel_size: 3
		group: 256
		engine: CAFFE
		weight_filler {
			type: "msra"
		}
	}
}
layer {
	name: "conv5/dw/bn"
	type: "BatchNorm"
	bottom: "conv5/dw"
	top: "conv5/dw"
	param {
		lr_mult: 0
		decay_mult: 0
	}
	param {
		lr_mult: 0
		decay_mult: 0
	}
	param {
		lr_mult: 0
		decay_mult: 0
	}
}
layer {
	name: "conv5/dw/scale"
	type: "Scale"
	bottom: "conv5/dw"
	top: "conv5/dw"
	param {
		lr_mult: 1.0
		decay_mult: 0.0
	}
	param {
		lr_mult: 2.0
		decay_mult: 0.0
	}
	scale_param {
		filler {
			value: 1
		}
		bias_term: true
		bias_filler {
			value: 0
		}
	}
}
layer {
	name: "conv5/dw/relu"
	type: "ReLU"
	bottom: "conv5/dw"
	top: "conv5/dw"
}
layer {
	name: "conv5"
	type: "Convolution"
	bottom: "conv5/dw"
	top: "conv5"
	param {
		lr_mult: 1.0
		decay_mult: 1.0
	}
	convolution_param {
		num_output: 256
		bias_term: false
		kernel_size: 1
		weight_filler {
			type: "msra"
		}
	}
}
layer {
	name: "conv5/bn"
	type: "BatchNorm"
	bottom: "conv5"
	top: "conv5"
	param {
		lr_mult: 0
		decay_mult: 0
	}
	param {
		lr_mult: 0
		decay_mult: 0
	}
	param {
		lr_mult: 0
		decay_mult: 0
	}
}
layer {
	name: "conv5/scale"
	type: "Scale"
	bottom: "conv5"
	top: "conv5"
	param {
		lr_mult: 1.0
		decay_mult: 0.0
	}
	param {
		lr_mult: 2.0
		decay_mult: 0.0
	}
	scale_param {
		filler {
			value: 1
		}
		bias_term: true
		bias_filler {
			value: 0
		}
	}
}
layer {
	name: "conv5/relu"
	type: "ReLU"
	bottom: "conv5"
	top: "conv5"
}
layer {
	name: "conv6/dw"
	type: "Convolution"
	bottom: "conv5"
	top: "conv6/dw"
	param {
		lr_mult: 1.0
		decay_mult: 1.0
	}
	convolution_param {
		num_output: 256
		bias_term: false
		pad: 1
		kernel_size: 3
		stride: 2
		group: 256
		engine: CAFFE
		weight_filler {
			type: "msra"
		}
	}
}
layer {
	name: "conv6/dw/bn"
	type: "BatchNorm"
	bottom: "conv6/dw"
	top: "conv6/dw"
	param {
		lr_mult: 0
		decay_mult: 0
	}
	param {
		lr_mult: 0
		decay_mult: 0
	}
	param {
		lr_mult: 0
		decay_mult: 0
	}
}
layer {
	name: "conv6/dw/scale"
	type: "Scale"
	bottom: "conv6/dw"
	top: "conv6/dw"
	param {
		lr_mult: 1.0
		decay_mult: 0.0
	}
	param {
		lr_mult: 2.0
		decay_mult: 0.0
	}
	scale_param {
		filler {
			value: 1
		}
		bias_term: true
		bias_filler {
			value: 0
		}
	}
}
layer {
	name: "conv6/dw/relu"
	type: "ReLU"
	bottom: "conv6/dw"
	top: "conv6/dw"
}
layer {
	name: "conv6"
	type: "Convolution"
	bottom: "conv6/dw"
	top: "conv6"
	param {
		lr_mult: 1.0
		decay_mult: 1.0
	}
	convolution_param {
		num_output: 256
		bias_term: false
		kernel_size: 1
		weight_filler {
			type: "msra"
		}
	}
}
layer {
	name: "conv6/bn"
	type: "BatchNorm"
	bottom: "conv6"
	top: "conv6"
	param {
		lr_mult: 0
		decay_mult: 0
	}
	param {
		lr_mult: 0
		decay_mult: 0
	}
	param {
		lr_mult: 0
		decay_mult: 0
	}
}
layer {
	name: "conv6/scale"
	type: "Scale"
	bottom: "conv6"
	top: "conv6"
	param {
		lr_mult: 1.0
		decay_mult: 0.0
	}
	param {
		lr_mult: 2.0
		decay_mult: 0.0
	}
	scale_param {
		filler {
			value: 1
		}
		bias_term: true
		bias_filler {
			value: 0
		}
	}
}
layer {
	name: "conv6/relu"
	type: "ReLU"
	bottom: "conv6"
	top: "conv6"
}
layer {
	name: "conv7/dw"
	type: "Convolution"
	bottom: "conv6"
	top: "conv7/dw"
	param {
		lr_mult: 1.0
		decay_mult: 1.0
	}
	convolution_param {
		num_output: 256
		bias_term: false
		pad: 1
		kernel_size: 3
		group: 256
		engine: CAFFE
		weight_filler {
			type: "msra"
		}
	}
}
layer {
	name: "conv7/dw/bn"
	type: "BatchNorm"
	bottom: "conv7/dw"
	top: "conv7/dw"
	param {
		lr_mult: 0
		decay_mult: 0
	}
	param {
		lr_mult: 0
		decay_mult: 0
	}
	param {
		lr_mult: 0
		decay_mult: 0
	}
}
layer {
	name: "conv7/dw/scale"
	type: "Scale"
	bottom: "conv7/dw"
	top: "conv7/dw"
	param {
		lr_mult: 1.0
		decay_mult: 0.0
	}
	param {
		lr_mult: 2.0
		decay_mult: 0.0
	}
	scale_param {
		filler {
			value: 1
		}
		bias_term: true
		bias_filler {
			value: 0
		}
	}
}
layer {
	name: "conv7/dw/relu"
	type: "ReLU"
	bottom: "conv7/dw"
	top: "conv7/dw"
}
layer {
	name: "conv7"
	type: "Convolution"
	bottom: "conv7/dw"
	top: "conv7"
	param {
		lr_mult: 1.0
		decay_mult: 1.0
	}
	convolution_param {
		num_output: 256
		bias_term: false
		kernel_size: 1
		weight_filler {
			type: "msra"
		}
	}
}
layer {
	name: "conv7/bn"
	type: "BatchNorm"
	bottom: "conv7"
	top: "conv7"
	param {
		lr_mult: 0
		decay_mult: 0
	}
	param {
		lr_mult: 0
		decay_mult: 0
	}
	param {
		lr_mult: 0
		decay_mult: 0
	}
}
layer {
	name: "conv7/scale"
	type: "Scale"
	bottom: "conv7"
	top: "conv7"
	param {
		lr_mult: 1.0
		decay_mult: 0.0
	}
	param {
		lr_mult: 2.0
		decay_mult: 0.0
	}
	scale_param {
		filler {
			value: 1
		}
		bias_term: true
		bias_filler {
			value: 0
		}
	}
}
layer {
	name: "conv7/relu"
	type: "ReLU"
	bottom: "conv7"
	top: "conv7"
}
layer {
	name: "conv8/dw"
	type: "Convolution"
	bottom: "conv7"
	top: "conv8/dw"
	param {
		lr_mult: 1.0
		decay_mult: 1.0
	}
	convolution_param {
		num_output: 256
		bias_term: false
		pad: 1
		kernel_size: 3
		group: 256
		engine: CAFFE
		weight_filler {
			type: "msra"
		}
	}
}
layer {
	name: "conv8/dw/bn"
	type: "BatchNorm"
	bottom: "conv8/dw"
	top: "conv8/dw"
	param {
		lr_mult: 0
		decay_mult: 0
	}
	param {
		lr_mult: 0
		decay_mult: 0
	}
	param {
		lr_mult: 0
		decay_mult: 0
	}
}
layer {
	name: "conv8/dw/scale"
	type: "Scale"
	bottom: "conv8/dw"
	top: "conv8/dw"
	param {
		lr_mult: 1.0
		decay_mult: 0.0
	}
	param {
		lr_mult: 2.0
		decay_mult: 0.0
	}
	scale_param {
		filler {
			value: 1
		}
		bias_term: true
		bias_filler {
			value: 0
		}
	}
}
layer {
	name: "conv8/dw/relu"
	type: "ReLU"
	bottom: "conv8/dw"
	top: "conv8/dw"
}
layer {
	name: "conv8"
	type: "Convolution"
	bottom: "conv8/dw"
	top: "conv8"
	param {
		lr_mult: 1.0
		decay_mult: 1.0
	}
	convolution_param {
		num_output: 256
		bias_term: false
		kernel_size: 1
		weight_filler {
			type: "msra"
		}
	}
}
layer {
	name: "conv8/bn"
	type: "BatchNorm"
	bottom: "conv8"
	top: "conv8"
	param {
		lr_mult: 0
		decay_mult: 0
	}
	param {
		lr_mult: 0
		decay_mult: 0
	}
	param {
		lr_mult: 0
		decay_mult: 0
	}
}
layer {
	name: "conv8/scale"
	type: "Scale"
	bottom: "conv8"
	top: "conv8"
	param {
		lr_mult: 1.0
		decay_mult: 0.0
	}
	param {
		lr_mult: 2.0
		decay_mult: 0.0
	}
	scale_param {
		filler {
			value: 1
		}
		bias_term: true
		bias_filler {
			value: 0
		}
	}
}
layer {
	name: "conv8/relu"
	type: "ReLU"
	bottom: "conv8"
	top: "conv8"
}
layer {
	name: "conv8_block0"
	type: "Eltwise"
	bottom: "conv8"
	bottom: "conv6"
	top: "conv8_block0"
	eltwise_param {
	operation: SUM
	}
}
layer {
	name: "conv8_block0/bn"
	type: "BatchNorm"
	bottom: "conv8_block0"
	top: "conv8_block0"
	param {
		lr_mult: 0
		decay_mult: 0
	}
	param {
		lr_mult: 0
		decay_mult: 0
	}
	param {
		lr_mult: 0
		decay_mult: 0
	}
}
layer {
	name: "conv8_block0/scale"
	type: "Scale"
	bottom: "conv8_block0"
	top: "conv8_block0"
	param {
		lr_mult: 1.0
		decay_mult: 0.0
	}
	param {
		lr_mult: 2.0
		decay_mult: 0.0
	}
	scale_param {
		filler {
			value: 1
		}
		bias_term: true
		bias_filler {
			value: 0
		}
	}
}
layer {
	name: "conv8_block0/relu"
	type: "ReLU"
	bottom: "conv8_block0"
	top: "conv8_block0"
}
layer {
	name: "conv9/dw"
	type: "Convolution"
	bottom: "conv8_block0"
	top: "conv9/dw"
	param {
		lr_mult: 1.0
		decay_mult: 1.0
	}
	convolution_param {
		num_output: 256
		bias_term: false
		pad: 1
		kernel_size: 3
		group: 256
		engine: CAFFE
		weight_filler {
			type: "msra"
		}
	}
}
layer {
	name: "conv9/dw/bn"
	type: "BatchNorm"
	bottom: "conv9/dw"
	top: "conv9/dw"
	param {
		lr_mult: 0
		decay_mult: 0
	}
	param {
		lr_mult: 0
		decay_mult: 0
	}
	param {
		lr_mult: 0
		decay_mult: 0
	}
}
layer {
	name: "conv9/dw/scale"
	type: "Scale"
	bottom: "conv9/dw"
	top: "conv9/dw"
	param {
		lr_mult: 1.0
		decay_mult: 0.0
	}
	param {
		lr_mult: 2.0
		decay_mult: 0.0
	}
	scale_param {
		filler {
			value: 1
		}
		bias_term: true
		bias_filler {
			value: 0
		}
	}
}
layer {
	name: "conv9/dw/relu"
	type: "ReLU"
	bottom: "conv9/dw"
	top: "conv9/dw"
}
layer {
	name: "conv9"
	type: "Convolution"
	bottom: "conv9/dw"
	top: "conv9"
	param {
		lr_mult: 1.0
		decay_mult: 1.0
	}
	convolution_param {
		num_output: 256
		bias_term: false
		kernel_size: 1
		weight_filler {
			type: "msra"
		}
	}
}
layer {
	name: "conv9/bn"
	type: "BatchNorm"
	bottom: "conv9"
	top: "conv9"
	param {
		lr_mult: 0
		decay_mult: 0
	}
	param {
		lr_mult: 0
		decay_mult: 0
	}
	param {
		lr_mult: 0
		decay_mult: 0
	}
}
layer {
	name: "conv9/scale"
	type: "Scale"
	bottom: "conv9"
	top: "conv9"
	param {
		lr_mult: 1.0
		decay_mult: 0.0
	}
	param {
		lr_mult: 2.0
		decay_mult: 0.0
	}
	scale_param {
		filler {
			value: 1
		}
		bias_term: true
		bias_filler {
			value: 0
		}
	}
}
layer {
	name: "conv9/relu"
	type: "ReLU"
	bottom: "conv9"
	top: "conv9"
}
layer {
	name: "conv10_1/dw"
	type: "Convolution"
	bottom: "conv9"
	top: "conv10_1/dw"
	param {
		lr_mult: 1.0
		decay_mult: 1.0
	}
	convolution_param {
		num_output: 256
		bias_term: false
		pad: 1
		kernel_size: 3
		group: 256
		engine: CAFFE
		weight_filler {
			type: "msra"
		}
	}
}
layer {
	name: "conv10_1/dw/bn"
	type: "BatchNorm"
	bottom: "conv10_1/dw"
	top: "conv10_1/dw"
	param {
		lr_mult: 0
		decay_mult: 0
	}
	param {
		lr_mult: 0
		decay_mult: 0
	}
	param {
		lr_mult: 0
		decay_mult: 0
	}
}
layer {
	name: "conv10_1/dw/scale"
	type: "Scale"
	bottom: "conv10_1/dw"
	top: "conv10_1/dw"
	param {
		lr_mult: 1.0
		decay_mult: 0.0
	}
	param {
		lr_mult: 2.0
		decay_mult: 0.0
	}
	scale_param {
		filler {
			value: 1
		}
		bias_term: true
		bias_filler {
			value: 0
		}
	}
}
layer {
	name: "conv10_1/dw/relu"
	type: "ReLU"
	bottom: "conv10_1/dw"
	top: "conv10_1/dw"
}
layer {
	name: "conv10_1"
	type: "Convolution"
	bottom: "conv10_1/dw"
	top: "conv10_1"
	param {
		lr_mult: 1.0
		decay_mult: 1.0
	}
	convolution_param {
		num_output: 256
		bias_term: false
		kernel_size: 1
		weight_filler {
			type: "msra"
		}
	}
}
layer {
	name: "conv10_1/bn"
	type: "BatchNorm"
	bottom: "conv10_1"
	top: "conv10_1"
	param {
		lr_mult: 0
		decay_mult: 0
	}
	param {
		lr_mult: 0
		decay_mult: 0
	}
	param {
		lr_mult: 0
		decay_mult: 0
	}
}
layer {
	name: "conv10_1/scale"
	type: "Scale"
	bottom: "conv10_1"
	top: "conv10_1"
	param {
		lr_mult: 1.0
		decay_mult: 0.0
	}
	param {
		lr_mult: 2.0
		decay_mult: 0.0
	}
	scale_param {
		filler {
			value: 1
		}
		bias_term: true
		bias_filler {
			value: 0
		}
	}
}
layer {
	name: "conv10_1/relu"
	type: "ReLU"
	bottom: "conv10_1"
	top: "conv10_1"
}
layer {
	name: "conv10_block1"
	type: "Eltwise"
	bottom: "conv10_1"
	bottom: "conv8_block0"
	top: "conv10_block1"
	eltwise_param {
		operation: SUM
	}
}
layer {
	name: "conv10_block1/relu"
	type: "ReLU"
	bottom: "conv10_block1"
	top: "conv10_block1"
}
layer {
	name: "conv10/dw"
	type: "Convolution"
	bottom: "conv10_block1"
	top: "conv10/dw"
	param {
		lr_mult: 1.0
		decay_mult: 1.0
	}
	convolution_param {
		num_output: 256
		bias_term: false
		pad: 1
		kernel_size: 3
		group: 256
		engine: CAFFE
		weight_filler {
			type: "msra"
		}
	}
}
layer {
	name: "conv10/dw/bn"
	type: "BatchNorm"
	bottom: "conv10/dw"
	top: "conv10/dw"
	param {
		lr_mult: 0
		decay_mult: 0
	}
	param {
		lr_mult: 0
		decay_mult: 0
	}
	param {
		lr_mult: 0
		decay_mult: 0
	}
}
layer {
	name: "conv10/dw/scale"
	type: "Scale"
	bottom: "conv10/dw"
	top: "conv10/dw"
	param {
		lr_mult: 1.0
		decay_mult: 0.0
	}
	param {
		lr_mult: 2.0
		decay_mult: 0.0
	}
	scale_param {
		filler {
			value: 1
		}
		bias_term: true
		bias_filler {
			value: 0
		}
	}
}
layer {
	name: "conv10/dw/relu"
	type: "ReLU"
	bottom: "conv10/dw"
	top: "conv10/dw"
}
layer {
	name: "conv10"
	type: "Convolution"
	bottom: "conv10/dw"
	top: "conv10"
	param {
		lr_mult: 1.0
		decay_mult: 1.0
	}
	convolution_param {
		num_output: 256
		bias_term: false
		kernel_size: 1
		weight_filler {
			type: "msra"
		}
	}
}
layer {
	name: "conv10/bn"
	type: "BatchNorm"
	bottom: "conv10"
	top: "conv10"
	param {
		lr_mult: 0
		decay_mult: 0
	}
	param {
		lr_mult: 0
		decay_mult: 0
	}
	param {
		lr_mult: 0
		decay_mult: 0
	}
}
layer {
	name: "conv10/scale"
	type: "Scale"
	bottom: "conv10"
	top: "conv10"
	param {
		lr_mult: 1.0
		decay_mult: 0.0
	}
	param {
		lr_mult: 2.0
		decay_mult: 0.0
	}
	scale_param {
		filler {
			value: 1
		}
		bias_term: true
		bias_filler {
			value: 0
		}
	}
}
layer {
	name: "conv10/relu"
	type: "ReLU"
	bottom: "conv10"
	top: "conv10"
}
layer {
	name: "conv11/dw"
	type: "Convolution"
	bottom: "conv10"
	top: "conv11/dw"
	param {
		lr_mult: 1.0
		decay_mult: 1.0
	}
	convolution_param {
		num_output: 256
		bias_term: false
		pad: 1
		kernel_size: 3
		group: 256
		engine: CAFFE
		weight_filler {
			type: "msra"
		}
	}
}
layer {
	name: "conv11/dw/bn"
	type: "BatchNorm"
	bottom: "conv11/dw"
	top: "conv11/dw"
	param {
		lr_mult: 0
		decay_mult: 0
	}
	param {
		lr_mult: 0
		decay_mult: 0
	}
	param {
		lr_mult: 0
		decay_mult: 0
	}
}
layer {
	name: "conv11/dw/scale"
	type: "Scale"
	bottom: "conv11/dw"
	top: "conv11/dw"
	param {
		lr_mult: 1.0
		decay_mult: 0.0
	}
	param {
		lr_mult: 2.0
		decay_mult: 0.0
	}
	scale_param {
		filler {
			value: 1
		}
		bias_term: true
		bias_filler {
			value: 0
		}
	}
}
layer {
	name: "conv11/dw/relu"
	type: "ReLU"
	bottom: "conv11/dw"
	top: "conv11/dw"
}
layer {
	name: "conv11_1"
	type: "Convolution"
	bottom: "conv11/dw"
	top: "conv11_1"
	param {
		lr_mult: 1.0
		decay_mult: 1.0
	}
	convolution_param {
		num_output: 256
		bias_term: false
		kernel_size: 1
		weight_filler {
			type: "msra"
		}
	}
}
layer {
	name: "conv11_1/bn"
	type: "BatchNorm"
	bottom: "conv11_1"
	top: "conv11_1"
	param {
		lr_mult: 0
		decay_mult: 0
	}
	param {
		lr_mult: 0
		decay_mult: 0
	}
	param {
		lr_mult: 0
		decay_mult: 0
	}
}
layer {
	name: "conv11_1/scale"
	type: "Scale"
	bottom: "conv11_1"
	top: "conv11_1"
	param {
		lr_mult: 1.0
		decay_mult: 0.0
	}
	param {
		lr_mult: 2.0
		decay_mult: 0.0
	}
	scale_param {
		filler {
			value: 1
		}
		bias_term: true
		bias_filler {
			value: 0
		}
	}
}
layer {
	name: "conv11_1/relu"
	type: "ReLU"
	bottom: "conv11_1"
	top: "conv11_1"
}
layer {
	name: "conv11_1_block2"
	type: "Eltwise"
	bottom: "conv11_1"
	bottom: "conv10_block1"
	top: "conv11_1_block2"
	eltwise_param {
		operation: SUM
	}
}
layer {
	name: "conv11"
	type: "Convolution"
	bottom: "conv11_1_block2"
	top: "conv11"
	param {
		lr_mult: 1.0
		decay_mult: 1.0
	}
	convolution_param {
		num_output: 256
		bias_term: false
		kernel_size: 1
		weight_filler {
			type: "msra"
		}
	}
}
layer {
	name: "conv11/bn"
	type: "BatchNorm"
	bottom: "conv11"
	top: "conv11"
	param {
		lr_mult: 0
		decay_mult: 0
	}
	param {
		lr_mult: 0
		decay_mult: 0
	}
	param {
		lr_mult: 0
		decay_mult: 0
	}
}
layer {
	name: "conv11/scale"
	type: "Scale"
	bottom: "conv11"
	top: "conv11"
	param {
		lr_mult: 1.0
		decay_mult: 0.0
	}
	param {
		lr_mult: 2.0
		decay_mult: 0.0
	}
	scale_param {
		filler {
			value: 1
		}
		bias_term: true
		bias_filler {
			value: 0
		}
	}
}
layer {
	name: "conv11/relu"
	type: "ReLU"
	bottom: "conv11"
	top: "conv11"
}
layer {
	name: "conv12/dw"
	type: "Convolution"
	bottom: "conv11"
	top: "conv12/dw"
	param {
		lr_mult: 1.0
		decay_mult: 1.0
	}
	convolution_param {
		num_output: 256
		bias_term: false
		pad: 1
		kernel_size: 3
		stride: 2
		group: 256
		engine: CAFFE
		weight_filler {
			type: "msra"
		}
	}
}
layer {
	name: "conv12/dw/bn"
	type: "BatchNorm"
	bottom: "conv12/dw"
	top: "conv12/dw"
	param {
		lr_mult: 0
		decay_mult: 0
	}
	param {
		lr_mult: 0
		decay_mult: 0
	}
	param {
		lr_mult: 0
		decay_mult: 0
	}
}
layer {
	name: "conv12/dw/scale"
	type: "Scale"
	bottom: "conv12/dw"
	top: "conv12/dw"
	param {
		lr_mult: 1.0
		decay_mult: 0.0
	}
	param {
		lr_mult: 2.0
		decay_mult: 0.0
	}
	scale_param {
		filler {
			value: 1
		}
		bias_term: true
		bias_filler {
			value: 0
		}
	}
}
layer {
	name: "conv12/dw/relu"
	type: "ReLU"
	bottom: "conv12/dw"
	top: "conv12/dw"
}
layer {
	name: "conv12"
	type: "Convolution"
	bottom: "conv12/dw"
	top: "conv12"
	param {
		lr_mult: 1.0
		decay_mult: 1.0
	}
	convolution_param {
		num_output: 256
		bias_term: false
		kernel_size: 1
		weight_filler {
			type: "msra"
		}
	}
}
layer {
	name: "conv12/bn"
	type: "BatchNorm"
	bottom: "conv12"
	top: "conv12"
	param {
		lr_mult: 0
		decay_mult: 0
	}
	param {
		lr_mult: 0
		decay_mult: 0
	}
	param {
		lr_mult: 0
		decay_mult: 0
	}
}
layer {
	name: "conv12/scale"
	type: "Scale"
	bottom: "conv12"
	top: "conv12"
	param {
		lr_mult: 1.0
		decay_mult: 0.0
	}
	param {
		lr_mult: 2.0
		decay_mult: 0.0
	}
	scale_param {
		filler {
			value: 1
		}
		bias_term: true
		bias_filler {
			value: 0
		}
	}
}
layer {
	name: "conv12/relu"
	type: "ReLU"
	bottom: "conv12"
	top: "conv12"
}
layer {
	name: "conv13/dw"
	type: "Convolution"
	bottom: "conv12"
	top: "conv13/dw"
	param {
		lr_mult: 1.0
		decay_mult: 1.0
	}
	convolution_param {
		num_output: 256
		bias_term: false
		pad: 1
		kernel_size: 3
		group: 256
		engine: CAFFE
		weight_filler {
			type: "msra"
		}
	}
}
layer {
	name: "conv13/dw/bn"
	type: "BatchNorm"
	bottom: "conv13/dw"
	top: "conv13/dw"
	param {
		lr_mult: 0
		decay_mult: 0
	}
	param {
		lr_mult: 0
		decay_mult: 0
	}
	param {
		lr_mult: 0
		decay_mult: 0
	}
}
layer {
	name: "conv13/dw/scale"
	type: "Scale"
	bottom: "conv13/dw"
	top: "conv13/dw"
	param {
		lr_mult: 1.0
		decay_mult: 0.0
	}
	param {
		lr_mult: 2.0
		decay_mult: 0.0
	}
	scale_param {
		filler {
			value: 1
		}
		bias_term: true
		bias_filler {
			value: 0
		}
	}
}
layer {
	name: "conv13/dw/relu"
	type: "ReLU"
	bottom: "conv13/dw"
	top: "conv13/dw"
}
layer {
	name: "conv13_block2_conv"
	type: "Convolution"
	bottom: "conv11_1_block2"
	top: "conv13_block2_conv"
	param {
		lr_mult: 1.0
		decay_mult: 1.0
	}
	convolution_param {
		num_output: 256
		bias_term: false
		kernel_size: 3
		stride: 2
		pad:1
		weight_filler {
			type: "msra"
		}
	}
}
layer {
	name: "conv13_block2_conv/bn"
	type: "BatchNorm"
	bottom: "conv13_block2_conv"
	top: "conv13_block2_conv"
	param {
		lr_mult: 0
		decay_mult: 0
	}
	param {
		lr_mult: 0
		decay_mult: 0
	}
	param {
		lr_mult: 0
		decay_mult: 0
	}
}
layer {
	name: "conv13_block2_conv/scale"
	type: "Scale"
	bottom: "conv13_block2_conv"
	top: "conv13_block2_conv"
	param {
		lr_mult: 1.0
		decay_mult: 0.0
	}
	param {
		lr_mult: 2.0
		decay_mult: 0.0
	}
	scale_param {
		filler {
			value: 1
		}
		bias_term: true
		bias_filler {
			value: 0
		}
	}
}
layer {
	name: "conv13_block2_conv/relu"
	type: "ReLU"
	bottom: "conv13_block2_conv"
	top: "conv13_block2_conv"
}
layer {
	name: "conv13_block3"
	type: "Eltwise"
	bottom: "conv13/dw"
	bottom: "conv13_block2_conv"
	top: "conv13_block3"
	eltwise_param {
		operation: SUM
	}
}
layer {
	name: "conv13"
	type: "Convolution"
	bottom: "conv13_block3"
	top: "conv13"
	param {
		lr_mult: 1.0
		decay_mult: 1.0
	}
	convolution_param {
		num_output: 256
		bias_term: false
		kernel_size: 1
		weight_filler {
			type: "msra"
		}
	}
}
layer {
	name: "conv13/bn"
	type: "BatchNorm"
	bottom: "conv13"
	top: "conv13"
	param {
		lr_mult: 0
		decay_mult: 0
	}
	param {
		lr_mult: 0
		decay_mult: 0
	}
	param {
		lr_mult: 0
		decay_mult: 0
	}
}
layer {
	name: "conv13/scale"
	type: "Scale"
	bottom: "conv13"
	top: "conv13"
	param {
		lr_mult: 1.0
		decay_mult: 0.0
	}
	param {
		lr_mult: 2.0
		decay_mult: 0.0
	}
	scale_param {
		filler {
			value: 1
		}
		bias_term: true
		bias_filler {
			value: 0
		}
	}
}
layer {
	name: "conv13/relu"
	type: "ReLU"
	bottom: "conv13"
	top: "conv13"
}
layer {
	name: "conv14_1"
	type: "Convolution"
	bottom: "conv13"
	top: "conv14_1"
	param {
		lr_mult: 1.0
		decay_mult: 1.0
	}
	convolution_param {
		num_output: 256
		bias_term: false
		kernel_size: 1
		weight_filler {
			type: "msra"
		}
	}
}
layer {
	name: "conv14_1/bn"
	type: "BatchNorm"
	bottom: "conv14_1"
	top: "conv14_1"
	param {
		lr_mult: 0
		decay_mult: 0
	}
	param {
		lr_mult: 0
		decay_mult: 0
	}
	param {
		lr_mult: 0
		decay_mult: 0
	}
}
layer {
	name: "conv14_1/scale"
	type: "Scale"
	bottom: "conv14_1"
	top: "conv14_1"
	param {
		lr_mult: 1.0
		decay_mult: 0.0
	}
	param {
		lr_mult: 2.0
		decay_mult: 0.0
	}
	scale_param {
		filler {
			value: 1
		}
		bias_term: true
		bias_filler {
			value: 0
		}
	}
}
layer {
	name: "conv14_1/relu"
	type: "ReLU"
	bottom: "conv14_1"
	top: "conv14_1"
}
layer {
	name: "conv14_2"
	type: "Convolution"
	bottom: "conv14_1"
	top: "conv14_2"
	param {
		lr_mult: 1.0
		decay_mult: 1.0
	}
	convolution_param {
		num_output: 256
		bias_term: false
		pad: 1
		kernel_size: 3
		stride: 2
		weight_filler {
			type: "msra"
		}
	}
}
layer {
	name: "conv14_2/bn"
	type: "BatchNorm"
	bottom: "conv14_2"
	top: "conv14_2"
	param {
		lr_mult: 0
		decay_mult: 0
	}
	param {
		lr_mult: 0
		decay_mult: 0
	}
	param {
		lr_mult: 0
		decay_mult: 0
	}
}
layer {
	name: "conv14_2/scale"
	type: "Scale"
	bottom: "conv14_2"
	top: "conv14_2"
	param {
		lr_mult: 1.0
		decay_mult: 0.0
	}
	param {
		lr_mult: 2.0
		decay_mult: 0.0
	}
	scale_param {
		filler {
			value: 1
		}
		bias_term: true
		bias_filler {
			value: 0
		}
	}
}
layer {
	name: "conv14_2/relu"
	type: "ReLU"
	bottom: "conv14_2"
	top: "conv14_2"
}
layer {
	name: "conv15_1"
	type: "Convolution"
	bottom: "conv14_2"
	top: "conv15_1"
	param {
		lr_mult: 1.0
		decay_mult: 1.0
	}
	convolution_param {
		num_output: 128
		bias_term: false
		kernel_size: 1
		weight_filler {
			type: "msra"
		}
	}
}
layer {
	name: "conv15_1/bn"
	type: "BatchNorm"
	bottom: "conv15_1"
	top: "conv15_1"
	param {
		lr_mult: 0
		decay_mult: 0
	}
	param {
		lr_mult: 0
		decay_mult: 0
	}
	param {
		lr_mult: 0
		decay_mult: 0
	}
}
layer {
	name: "conv15_1/scale"
	type: "Scale"
	bottom: "conv15_1"
	top: "conv15_1"
	param {
		lr_mult: 1.0
		decay_mult: 0.0
	}
	param {
		lr_mult: 2.0
		decay_mult: 0.0
	}
	scale_param {
		filler {
			value: 1
		}
		bias_term: true
		bias_filler {
			value: 0
		}
	}
}
layer {
	name: "conv15_1/relu"
	type: "ReLU"
	bottom: "conv15_1"
	top: "conv15_1"
}
layer {
	name: "conv15_2"
	type: "Convolution"
	bottom: "conv15_1"
	top: "conv15_2"
	param {
		lr_mult: 1.0
		decay_mult: 1.0
	}
	convolution_param {
		num_output: 256
		bias_term: false
		pad: 1
		kernel_size: 3
		stride: 2
		weight_filler {
			type: "msra"
		}
	}
}
layer {
	name: "conv15_2/bn"
	type: "BatchNorm"
	bottom: "conv15_2"
	top: "conv15_2"
	param {
		lr_mult: 0
		decay_mult: 0
	}
	param {
		lr_mult: 0
		decay_mult: 0
	}
	param {
		lr_mult: 0
		decay_mult: 0
	}
}
layer {
	name: "conv15_2/scale"
	type: "Scale"
	bottom: "conv15_2"
	top: "conv15_2"
	param {
		lr_mult: 1.0
		decay_mult: 0.0
	}
	param {
		lr_mult: 2.0
		decay_mult: 0.0
	}
	scale_param {
		filler {
			value: 1
		}
		bias_term: true
		bias_filler {
			value: 0
		}
	}
}
layer {
	name: "conv15_2/relu"
	type: "ReLU"
	bottom: "conv15_2"
	top: "conv15_2"
}
layer {
	name: "conv16_1"
	type: "Convolution"
	bottom: "conv15_2"
	top: "conv16_1"
	param {
		lr_mult: 1.0
		decay_mult: 1.0
	}
	convolution_param {
		num_output: 128
		bias_term: false
		kernel_size: 1
		weight_filler {
			type: "msra"
		}
	}
}
layer {
	name: "conv16_1/bn"
	type: "BatchNorm"
	bottom: "conv16_1"
	top: "conv16_1"
	param {
		lr_mult: 0
		decay_mult: 0
	}
	param {
		lr_mult: 0
		decay_mult: 0
	}
	param {
		lr_mult: 0
		decay_mult: 0
	}
}
layer {
	name: "conv16_1/scale"
	type: "Scale"
	bottom: "conv16_1"
	top: "conv16_1"
	param {
		lr_mult: 1.0
		decay_mult: 0.0
	}
	param {
		lr_mult: 2.0
		decay_mult: 0.0
	}
	scale_param {
		filler {
			value: 1
		}
		bias_term: true
		bias_filler {
			value: 0
		}
	}
}
layer {
	name: "conv16_1/relu"
	type: "ReLU"
	bottom: "conv16_1"
	top: "conv16_1"
}
layer {
	name: "conv16_2"
	type: "Convolution"
	bottom: "conv16_1"
	top: "conv16_2"
	param {
		lr_mult: 1.0
		decay_mult: 1.0
	}
	convolution_param {
		num_output: 256
		bias_term: false
		pad: 1
		kernel_size: 3
		stride: 1
		weight_filler {
			type: "msra"
		}
	}
}
layer {
	name: "conv16_2/bn"
	type: "BatchNorm"
	bottom: "conv16_2"
	top: "conv16_2"
	param {
		lr_mult: 0
		decay_mult: 0
	}
	param {
		lr_mult: 0
		decay_mult: 0
	}
	param {
		lr_mult: 0
		decay_mult: 0
	}
}
layer {
	name: "conv16_2/scale"
	type: "Scale"
	bottom: "conv16_2"
	top: "conv16_2"
	param {
		lr_mult: 1.0
		decay_mult: 0.0
	}
	param {
		lr_mult: 2.0
		decay_mult: 0.0
	}
	scale_param {
		filler {
			value: 1
		}
		bias_term: true
		bias_filler {
			value: 0
		}
	}
}
layer {
	name: "conv16_2/relu"
	type: "ReLU"
	bottom: "conv16_2"
	top: "conv16_2"
}
layer {
	name: "conv17_1"
	type: "Convolution"
	bottom: "conv16_2"
	top: "conv17_1"
	param {
		lr_mult: 1.0
		decay_mult: 1.0
	}
	convolution_param {
		num_output: 128
		bias_term: false
		kernel_size: 1
		weight_filler {
			type: "msra"
		}
	}
}
layer {
	name: "conv17_1/bn"
	type: "BatchNorm"
	bottom: "conv17_1"
	top: "conv17_1"
	param {
		lr_mult: 0
		decay_mult: 0
	}
	param {
		lr_mult: 0
		decay_mult: 0
	}
	param {
		lr_mult: 0
		decay_mult: 0
	}
}
layer {
	name: "conv17_1/scale"
	type: "Scale"
	bottom: "conv17_1"
	top: "conv17_1"
	param {
		lr_mult: 1.0
		decay_mult: 0.0
	}
	param {
		lr_mult: 2.0
		decay_mult: 0.0
	}
	scale_param {
		filler {
			value: 1
		}
		bias_term: true
		bias_filler {
			value: 0
		}
	}
}
layer {
	name: "conv17_1/relu"
	type: "ReLU"
	bottom: "conv17_1"
	top: "conv17_1"
}
layer {
	name: "conv17_2"
	type: "Convolution"
	bottom: "conv17_1"
	top: "conv17_2"
	param {
		lr_mult: 1.0
		decay_mult: 1.0
	}
	convolution_param {
		num_output: 128
		bias_term: false
		pad: 1
		kernel_size: 3
		stride: 1
		weight_filler {
			type: "msra"
		}
	}
}
layer {
	name: "conv17_2/bn"
	type: "BatchNorm"
	bottom: "conv17_2"
	top: "conv17_2"
	param {
		lr_mult: 0
		decay_mult: 0
	}
	param {
		lr_mult: 0
		decay_mult: 0
	}
	param {
		lr_mult: 0
		decay_mult: 0
	}
}
layer {
	name: "conv17_2/scale"
	type: "Scale"
	bottom: "conv17_2"
	top: "conv17_2"
	param {
		lr_mult: 1.0
		decay_mult: 0.0
	}
	param {
		lr_mult: 2.0
		decay_mult: 0.0
	}
	scale_param {
		filler {
			value: 1
		}
		bias_term: true
		bias_filler {
			value: 0
		}
	}
}
layer {
	name: "conv17_2/relu"
	type: "ReLU"
	bottom: "conv17_2"
	top: "conv17_2"
}
#######################################################################
#                             modeule one                             #
#######################################################################
##########################LFPN MOUDLE#######################
layer{
	name: "conv11_1_block2_lfpn"
	type: "Convolution"
	bottom: "conv11_1_block2"
	top: "conv11_1_block2_lfpn"
	param {
		lr_mult: 1
		decay_mult: 1
	}
	param {
		lr_mult: 2
		decay_mult: 1
	}
	convolution_param {
		num_output: 256
		kernel_size: 1
		stride: 1
		weight_filler {
			type: "xavier"
		}
		bias_filler {
			type: "constant"
			value: 0
		}
	}
}
layer {
	name: "conv11_1_block2_lfpn/bn"
	type: "BatchNorm"
	bottom: "conv11_1_block2_lfpn"
	top: "conv11_1_block2_lfpn"
	param {
		lr_mult: 0
		decay_mult: 0
	}
	param {
		lr_mult: 0
		decay_mult: 0
	}
	param {
		lr_mult: 0
		decay_mult: 0
	}
}
layer {
	name: "conv11_1_block2_lfpn/scale"
	type: "Scale"
	bottom: "conv11_1_block2_lfpn"
	top: "conv11_1_block2_lfpn"
	param {
		lr_mult: 1.0
		decay_mult: 0.0
	}
	param {
		lr_mult: 2.0
		decay_mult: 0.0
	}
	scale_param {
		filler {
			value: 1
		}
		bias_term: true
		bias_filler {
			value: 0
		}
	}
}
layer {
	name: "conv11_1_block2_lfpn/relu"
	type: "ReLU"
	bottom: "conv11_1_block2_lfpn"
	top: "conv11_1_block2_lfpn"
}

layer{
	name: "conv11_1_block2_lfpn/dec"
	type: "Deconvolution"
	bottom: "conv11_1_block2_lfpn"
	top: "conv11_1_block2_lfpn/dec"
	param {
		lr_mult: 1
		decay_mult: 1
	}
	param {
		lr_mult: 2
		decay_mult: 1
	}
	convolution_param {
		num_output: 256
		kernel_size: 4
		stride: 2
		pad: 1
		weight_filler {
			type: "xavier"
		}
		bias_filler {
			type: "constant"
			value: 0
		}
	}
}
layer {
	name: "conv11_1_block2_lfpn/dec/bn"
	type: "BatchNorm"
	bottom: "conv11_1_block2_lfpn/dec"
	top: "conv11_1_block2_lfpn/dec"
	param {
		lr_mult: 0
		decay_mult: 0
	}
	param {
		lr_mult: 0
		decay_mult: 0
	}
	param {
		lr_mult: 0
		decay_mult: 0
	}
}
layer {
	name: "conv11_1_block2_lfpn/dec/scale"
	type: "Scale"
	bottom: "conv11_1_block2_lfpn/dec"
	top: "conv11_1_block2_lfpn/dec"
	param {
		lr_mult: 1.0
		decay_mult: 0.0
	}
	param {
		lr_mult: 2.0
		decay_mult: 0.0
	}
	scale_param {
		filler {
			value: 1
		}
		bias_term: true
		bias_filler {
			value: 0
		}
	}
}
layer {
	name: "conv11_1_block2_lfpn/dec/relu"
	type: "ReLU"
	bottom: "conv11_1_block2_lfpn/dec"
	top: "conv11_1_block2_lfpn/dec"
}
layer{
	name: "conv5_lfpn"
	type: "Convolution"
	bottom: "conv5"
	top: "conv5_lfpn"
	param {
		lr_mult: 1
		decay_mult: 1
	}
	param {
		lr_mult: 2
		decay_mult: 1
	}
	convolution_param {
		num_output: 256
		kernel_size: 1
		stride: 1
		weight_filler {
			type: "xavier"
		}
		bias_filler {
			type: "constant"
			value: 0
		}
	}
}
layer {
	name: "conv5_lfpn/bn"
	type: "BatchNorm"
	bottom: "conv5_lfpn"
	top: "conv5_lfpn"
	param {
		lr_mult: 0
		decay_mult: 0
	}
	param {
		lr_mult: 0
		decay_mult: 0
	}
	param {
		lr_mult: 0
		decay_mult: 0
	}
}
layer {
	name: "conv5_lfpn/scale"
	type: "Scale"
	bottom: "conv5_lfpn"
	top: "conv5_lfpn"
	param {
		lr_mult: 1.0
		decay_mult: 0.0
	}
	param {
		lr_mult: 2.0
		decay_mult: 0.0
	}
	scale_param {
		filler {
			value: 1
		}
		bias_term: true
		bias_filler {
			value: 0
		}
	}
}
layer {
	name: "conv5_lfpn/relu"
	type: "ReLU"
	bottom: "conv5_lfpn"
	top: "conv5_lfpn"
}
layer{
	name: "lfpn_1/eltwise"
	type: "Eltwise"
	bottom: "conv11_1_block2_lfpn/dec"
	bottom: "conv5_lfpn"
	top: "lfpn_1_moudle"
	eltwise_param {
		operation: SUM
	}
}
#################context moudle####################
layer{
	name: "lfpn_1_moudle_cpm_3_3"
	type: "Convolution"
	bottom: "lfpn_1_moudle"
	top: "lfpn_1_moudle_cpm_3_3"
	param {
		lr_mult: 1
		decay_mult: 1
	}
	param {
		lr_mult: 2
		decay_mult: 1
	}
	convolution_param {
		num_output: 256
		kernel_size: 3
		stride: 1
		pad: 1
		weight_filler {
			type: "xavier"
		}
		bias_filler {
			type: "constant"
			value: 0
		}
	}
}
layer {
	name: "lfpn_1_moudle_cpm_3_3/bn"
	type: "BatchNorm"
	bottom: "lfpn_1_moudle_cpm_3_3"
	top: "lfpn_1_moudle_cpm_3_3"
	param {
		lr_mult: 0
		decay_mult: 0
	}
	param {
		lr_mult: 0
		decay_mult: 0
	}
	param {
		lr_mult: 0
		decay_mult: 0
	}
}
layer {
	name: "lfpn_1_moudle_cpm_3_3/scale"
	type: "Scale"
	bottom: "lfpn_1_moudle_cpm_3_3"
	top: "lfpn_1_moudle_cpm_3_3"
	param {
		lr_mult: 1.0
		decay_mult: 0.0
	}
	param {
		lr_mult: 2.0
		decay_mult: 0.0
	}
	scale_param {
		filler {
			value: 1
		}
		bias_term: true
		bias_filler {
			value: 0
		}
	}
}
layer {
	name: "lfpn_1_moudle_cpm_3_3/relu"
	type: "ReLU"
	bottom: "lfpn_1_moudle_cpm_3_3"
	top: "lfpn_1_moudle_cpm_3_3"
}
layer{
	name: "lfpn_1_moudle_cpm_3_3_one_channel"
	type: "Convolution"
	bottom: "lfpn_1_moudle_cpm_3_3"
	top: "lfpn_1_moudle_cpm_3_3_one_channel"
	param {
		lr_mult: 1
		decay_mult: 1
	}
	param {
		lr_mult: 2
		decay_mult: 1
	}
	convolution_param {
		num_output: 128
		kernel_size: 3
		stride: 1
		pad: 1
		weight_filler {
			type: "xavier"
		}
		bias_filler {
			type: "constant"
			value: 0
		}
	}
}
layer {
	name: "lfpn_1_moudle_cpm_3_3_one_channel/bn"
	type: "BatchNorm"
	bottom: "lfpn_1_moudle_cpm_3_3_one_channel"
	top: "lfpn_1_moudle_cpm_3_3_one_channel"
	param {
		lr_mult: 0
		decay_mult: 0
	}
	param {
		lr_mult: 0
		decay_mult: 0
	}
	param {
		lr_mult: 0
		decay_mult: 0
	}
}
layer {
	name: "lfpn_1_moudle_cpm_3_3_one_channel/scale"
	type: "Scale"
	bottom: "lfpn_1_moudle_cpm_3_3_one_channel"
	top: "lfpn_1_moudle_cpm_3_3_one_channel"
	param {
		lr_mult: 1.0
		decay_mult: 0.0
	}
	param {
		lr_mult: 2.0
		decay_mult: 0.0
	}
	scale_param {
		filler {
			value: 1
		}
		bias_term: true
		bias_filler {
			value: 0
		}
	}
}
layer {
	name: "lfpn_1_moudle_cpm_3_3_one_channel/relu"
	type: "ReLU"
	bottom: "lfpn_1_moudle_cpm_3_3_one_channel"
	top: "lfpn_1_moudle_cpm_3_3_one_channel"
}
#####
layer{
	name: "lfpn_1_moudle_cpm_3_3_two_channel"
	type: "Convolution"
	bottom: "lfpn_1_moudle_cpm_3_3"
	top: "lfpn_1_moudle_cpm_3_3_two_channel"
	param {
		lr_mult: 1
		decay_mult: 1
	}
	param {
		lr_mult: 2
		decay_mult: 1
	}
	convolution_param {
		num_output: 128
		kernel_size: 3
		stride: 1
		pad: 1
		weight_filler {
			type: "xavier"
		}
		bias_filler {
			type: "constant"
			value: 0
		}
	}
}
layer {
	name: "lfpn_1_moudle_cpm_3_3_two_channel/bn"
	type: "BatchNorm"
	bottom: "lfpn_1_moudle_cpm_3_3_two_channel"
	top: "lfpn_1_moudle_cpm_3_3_two_channel"
	param {
		lr_mult: 0
		decay_mult: 0
	}
	param {
		lr_mult: 0
		decay_mult: 0
	}
	param {
		lr_mult: 0
		decay_mult: 0
	}
}
layer {
	name: "lfpn_1_moudle_cpm_3_3_two_channel/scale"
	type: "Scale"
	bottom: "lfpn_1_moudle_cpm_3_3_two_channel"
	top: "lfpn_1_moudle_cpm_3_3_two_channel"
	param {
		lr_mult: 1.0
		decay_mult: 0.0
	}
	param {
		lr_mult: 2.0
		decay_mult: 0.0
	}
	scale_param {
		filler {
			value: 1
		}
		bias_term: true
		bias_filler {
			value: 0
		}
	}
}
layer {
	name: "lfpn_1_moudle_cpm_3_3_two_channel/relu"
	type: "ReLU"
	bottom: "lfpn_1_moudle_cpm_3_3_two_channel"
	top: "lfpn_1_moudle_cpm_3_3_two_channel"
}

layer{
	name: "lfpn_1_moudle_cpm_3_3_two_channel_2"
	type: "Convolution"
	bottom: "lfpn_1_moudle_cpm_3_3_two_channel"
	top: "lfpn_1_moudle_cpm_3_3_two_channel_2"
	param {
		lr_mult: 1
		decay_mult: 1
	}
	param {
		lr_mult: 2
		decay_mult: 1
	}
	convolution_param {
		num_output: 128
		kernel_size: 3
		stride: 1
		pad: 1
		weight_filler {
			type: "xavier"
		}
		bias_filler {
			type: "constant"
			value: 0
		}
	}
}
layer {
	name: "lfpn_1_moudle_cpm_3_3_two_channel_2/bn"
	type: "BatchNorm"
	bottom: "lfpn_1_moudle_cpm_3_3_two_channel_2"
	top: "lfpn_1_moudle_cpm_3_3_two_channel_2"
	param {
		lr_mult: 0
		decay_mult: 0
	}
	param {
		lr_mult: 0
		decay_mult: 0
	}
	param {
		lr_mult: 0
		decay_mult: 0
	}
}
layer {
	name: "lfpn_1_moudle_cpm_3_3_two_channel_2/scale"
	type: "Scale"
	bottom: "lfpn_1_moudle_cpm_3_3_two_channel_2"
	top: "lfpn_1_moudle_cpm_3_3_two_channel_2"
	param {
		lr_mult: 1.0
		decay_mult: 0.0
	}
	param {
		lr_mult: 2.0
		decay_mult: 0.0
	}
	scale_param {
		filler {
			value: 1
		}
		bias_term: true
		bias_filler {
			value: 0
		}
	}
}
layer {
	name: "lfpn_1_moudle_cpm_3_3_two_channel_2/relu"
	type: "ReLU"
	bottom: "lfpn_1_moudle_cpm_3_3_two_channel_2"
	top: "lfpn_1_moudle_cpm_3_3_two_channel_2"
}
layer {
	name: "dectction_moudle_one"
	type: "Concat"
	bottom: "lfpn_1_moudle_cpm_3_3_one_channel"
	bottom: "lfpn_1_moudle_cpm_3_3_two_channel_2"
	top: "dectction_moudle_one"
}
#######################################################################
#                             modeule two                             #
#######################################################################
##########################LFPN MOUDLE##################################
layer{
	name: "conv13_block3_lfpn"
	type: "Convolution"
	bottom: "conv13_block3"
	top: "conv13_block3_lfpn"
	param {
		lr_mult: 1
		decay_mult: 1
	}
	param {
		lr_mult: 2
		decay_mult: 1
	}
	convolution_param {
		num_output: 256
		kernel_size: 1
		stride: 1
		weight_filler {
			type: "xavier"
		}
		bias_filler {
			type: "constant"
			value: 0
		}
	}
}
layer {
	name: "conv13_block3_lfpn/bn"
	type: "BatchNorm"
	bottom: "conv13_block3_lfpn"
	top: "conv13_block3_lfpn"
	param {
		lr_mult: 0
		decay_mult: 0
	}
	param {
		lr_mult: 0
		decay_mult: 0
	}
	param {
		lr_mult: 0
		decay_mult: 0
	}
}
layer {
	name: "conv13_block3_lfpn/scale"
	type: "Scale"
	bottom: "conv13_block3_lfpn"
	top: "conv13_block3_lfpn"
	param {
		lr_mult: 1.0
		decay_mult: 0.0
	}
	param {
		lr_mult: 2.0
		decay_mult: 0.0
	}
	scale_param {
		filler {
			value: 1
		}
		bias_term: true
		bias_filler {
			value: 0
		}
	}
}
layer {
	name: "conv13_block3_lfpn/relu"
	type: "ReLU"
	bottom: "conv13_block3_lfpn"
	top: "conv13_block3_lfpn"
}

layer{
	name: "conv13_block3_lfpn/dec"
	type: "Deconvolution"
	bottom: "conv13_block3_lfpn"
	top: "conv13_block3_lfpn/dec"
	param {
		lr_mult: 1
		decay_mult: 1
	}
	param {
		lr_mult: 2
		decay_mult: 1
	}
	convolution_param {
		num_output: 256
		kernel_size: 4
		stride: 2
		pad: 1
		weight_filler {
			type: "xavier"
		}
		bias_filler {
			type: "constant"
			value: 0
		}
	}
}
layer {
	name: "conv13_block3_lfpn/dec/bn"
	type: "BatchNorm"
	bottom: "conv13_block3_lfpn/dec"
	top: "conv13_block3_lfpn/dec"
	param {
		lr_mult: 0
		decay_mult: 0
	}
	param {
		lr_mult: 0
		decay_mult: 0
	}
	param {
		lr_mult: 0
		decay_mult: 0
	}
}
layer {
	name: "conv13_block3_lfpn/dec/scale"
	type: "Scale"
	bottom: "conv13_block3_lfpn/dec"
	top: "conv13_block3_lfpn/dec"
	param {
		lr_mult: 1.0
		decay_mult: 0.0
	}
	param {
		lr_mult: 2.0
		decay_mult: 0.0
	}
	scale_param {
		filler {
			value: 1
		}
		bias_term: true
		bias_filler {
			value: 0
		}
	}
}
layer {
	name: "conv13_block3_lfpn/dec/relu"
	type: "ReLU"
	bottom: "conv13_block3_lfpn/dec"
	top: "conv13_block3_lfpn/dec"
}
layer{
	name: "conv11_1_block2_lfpn_conv"
	type: "Convolution"
	bottom: "conv11_1_block2"
	top: "conv11_1_block2_lfpn_conv"
	param {
		lr_mult: 1
		decay_mult: 1
	}
	param {
		lr_mult: 2
		decay_mult: 1
	}
	convolution_param {
		num_output: 256
		kernel_size: 1
		stride: 1
		weight_filler {
			type: "xavier"
		}
		bias_filler {
			type: "constant"
			value: 0
		}
	}
}
layer {
	name: "conv11_1_block2_lfpn_conv/bn"
	type: "BatchNorm"
	bottom: "conv11_1_block2_lfpn_conv"
	top: "conv11_1_block2_lfpn_conv"
	param {
		lr_mult: 0
		decay_mult: 0
	}
	param {
		lr_mult: 0
		decay_mult: 0
	}
	param {
		lr_mult: 0
		decay_mult: 0
	}
}
layer {
	name: "conv11_1_block2_lfpn_conv/scale"
	type: "Scale"
	bottom: "conv11_1_block2_lfpn_conv"
	top: "conv11_1_block2_lfpn_conv"
	param {
		lr_mult: 1.0
		decay_mult: 0.0
	}
	param {
		lr_mult: 2.0
		decay_mult: 0.0
	}
	scale_param {
		filler {
			value: 1
		}
		bias_term: true
		bias_filler {
			value: 0
		}
	}
}
layer {
	name: "conv11_1_block2_lfpn_conv/relu"
	type: "ReLU"
	bottom: "conv11_1_block2_lfpn_conv"
	top: "conv11_1_block2_lfpn_conv"
}
layer{
	name: "lfpn_2/eltwise"
	type: "Eltwise"
	bottom: "conv13_block3_lfpn/dec"
	bottom: "conv11_1_block2_lfpn_conv"
	top: "lfpn_2_moudle"
	eltwise_param {
		operation: SUM
	}
}
#################context moudle####################
layer{
	name: "lfpn_2_moudle_cpm_4_3"
	type: "Convolution"
	bottom: "lfpn_2_moudle"
	top: "lfpn_2_moudle_cpm_4_3"
	param {
		lr_mult: 1
		decay_mult: 1
	}
	param {
		lr_mult: 2
		decay_mult: 1
	}
	convolution_param {
		num_output: 256
		kernel_size: 3
		stride: 1
		pad: 1
		weight_filler {
			type: "xavier"
		}
		bias_filler {
			type: "constant"
			value: 0
		}
	}
}
layer {
	name: "lfpn_2_moudle_cpm_4_3/bn"
	type: "BatchNorm"
	bottom: "lfpn_2_moudle_cpm_4_3"
	top: "lfpn_2_moudle_cpm_4_3"
	param {
		lr_mult: 0
		decay_mult: 0
	}
	param {
		lr_mult: 0
		decay_mult: 0
	}
	param {
		lr_mult: 0
		decay_mult: 0
	}
}
layer {
	name: "lfpn_2_moudle_cpm_4_3/scale"
	type: "Scale"
	bottom: "lfpn_2_moudle_cpm_4_3"
	top: "lfpn_2_moudle_cpm_4_3"
	param {
		lr_mult: 1.0
		decay_mult: 0.0
	}
	param {
		lr_mult: 2.0
		decay_mult: 0.0
	}
	scale_param {
		filler {
			value: 1
		}
		bias_term: true
		bias_filler {
			value: 0
		}
	}
}
layer {
	name: "lfpn_2_moudle_cpm_4_3/relu"
	type: "ReLU"
	bottom: "lfpn_2_moudle_cpm_4_3"
	top: "lfpn_2_moudle_cpm_4_3"
}
layer{
	name: "lfpn_2_moudle_cpm_4_3_one_channel"
	type: "Convolution"
	bottom: "lfpn_2_moudle_cpm_4_3"
	top: "lfpn_2_moudle_cpm_4_3_one_channel"
	param {
		lr_mult: 1
		decay_mult: 1
	}
	param {
		lr_mult: 2
		decay_mult: 1
	}
	convolution_param {
		num_output: 128
		kernel_size: 3
		stride: 1
		pad: 1
		weight_filler {
			type: "xavier"
		}
		bias_filler {
			type: "constant"
			value: 0
		}
	}
}
layer {
	name: "lfpn_2_moudle_cpm_4_3_one_channel/bn"
	type: "BatchNorm"
	bottom: "lfpn_2_moudle_cpm_4_3_one_channel"
	top: "lfpn_2_moudle_cpm_4_3_one_channel"
	param {
		lr_mult: 0
		decay_mult: 0
	}
	param {
		lr_mult: 0
		decay_mult: 0
	}
	param {
		lr_mult: 0
		decay_mult: 0
	}
}
layer {
	name: "lfpn_2_moudle_cpm_4_3_one_channel/scale"
	type: "Scale"
	bottom: "lfpn_2_moudle_cpm_4_3_one_channel"
	top: "lfpn_2_moudle_cpm_4_3_one_channel"
	param {
		lr_mult: 1.0
		decay_mult: 0.0
	}
	param {
		lr_mult: 2.0
		decay_mult: 0.0
	}
	scale_param {
		filler {
			value: 1
		}
		bias_term: true
		bias_filler {
			value: 0
		}
	}
}
layer {
	name: "lfpn_2_moudle_cpm_4_3_one_channel/relu"
	type: "ReLU"
	bottom: "lfpn_2_moudle_cpm_4_3_one_channel"
	top: "lfpn_2_moudle_cpm_4_3_one_channel"
}
#####
layer{
	name: "lfpn_2_moudle_cpm_4_3_two_channel"
	type: "Convolution"
	bottom: "lfpn_2_moudle_cpm_4_3"
	top: "lfpn_2_moudle_cpm_4_3_two_channel"
	param {
		lr_mult: 1
		decay_mult: 1
	}
	param {
		lr_mult: 2
		decay_mult: 1
	}
	convolution_param {
		num_output: 128
		kernel_size: 3
		stride: 1
		pad: 1
		weight_filler {
			type: "xavier"
		}
		bias_filler {
			type: "constant"
			value: 0
		}
	}
}
layer {
	name: "lfpn_2_moudle_cpm_4_3_two_channel/bn"
	type: "BatchNorm"
	bottom: "lfpn_2_moudle_cpm_4_3_two_channel"
	top: "lfpn_2_moudle_cpm_4_3_two_channel"
	param {
		lr_mult: 0
		decay_mult: 0
	}
	param {
		lr_mult: 0
		decay_mult: 0
	}
	param {
		lr_mult: 0
		decay_mult: 0
	}
}
layer {
	name: "lfpn_2_moudle_cpm_4_3_two_channel/scale"
	type: "Scale"
	bottom: "lfpn_2_moudle_cpm_4_3_two_channel"
	top: "lfpn_2_moudle_cpm_4_3_two_channel"
	param {
		lr_mult: 1.0
		decay_mult: 0.0
	}
	param {
		lr_mult: 2.0
		decay_mult: 0.0
	}
	scale_param {
		filler {
			value: 1
		}
		bias_term: true
		bias_filler {
			value: 0
		}
	}
}
layer {
	name: "lfpn_2_moudle_cpm_4_3_two_channel/relu"
	type: "ReLU"
	bottom: "lfpn_2_moudle_cpm_4_3_two_channel"
	top: "lfpn_2_moudle_cpm_4_3_two_channel"
}

layer{
	name: "lfpn_2_moudle_cpm_4_3_two_channel_2"
	type: "Convolution"
	bottom: "lfpn_2_moudle_cpm_4_3_two_channel"
	top: "lfpn_2_moudle_cpm_4_3_two_channel_2"
	param {
		lr_mult: 1
		decay_mult: 1
	}
	param {
		lr_mult: 2
		decay_mult: 1
	}
	convolution_param {
		num_output: 128
		kernel_size: 3
		stride: 1
		pad: 1
		weight_filler {
			type: "xavier"
		}
		bias_filler {
			type: "constant"
			value: 0
		}
	}
}
layer {
	name: "lfpn_2_moudle_cpm_4_3_two_channel_2/bn"
	type: "BatchNorm"
	bottom: "lfpn_2_moudle_cpm_4_3_two_channel_2"
	top: "lfpn_2_moudle_cpm_4_3_two_channel_2"
	param {
		lr_mult: 0
		decay_mult: 0
	}
	param {
		lr_mult: 0
		decay_mult: 0
	}
	param {
		lr_mult: 0
		decay_mult: 0
	}
}
layer {
	name: "lfpn_2_moudle_cpm_4_3_two_channel_2/scale"
	type: "Scale"
	bottom: "lfpn_2_moudle_cpm_4_3_two_channel_2"
	top: "lfpn_2_moudle_cpm_4_3_two_channel_2"
	param {
		lr_mult: 1.0
		decay_mult: 0.0
	}
	param {
		lr_mult: 2.0
		decay_mult: 0.0
	}
	scale_param {
		filler {
			value: 1
		}
		bias_term: true
		bias_filler {
			value: 0
		}
	}
}
layer {
	name: "lfpn_2_moudle_cpm_4_3_two_channel_2/relu"
	type: "ReLU"
	bottom: "lfpn_2_moudle_cpm_4_3_two_channel_2"
	top: "lfpn_2_moudle_cpm_4_3_two_channel_2"
}
layer {
	name: "dectction_moudle_two"
	type: "Concat"
	bottom: "lfpn_2_moudle_cpm_4_3_one_channel"
	bottom: "lfpn_2_moudle_cpm_4_3_two_channel_2"
	top: "dectction_moudle_two"
}
#######################################################################
#                             modeule four                            #
#######################################################################
#################context moudle####################
layer{
	name: "cpm_moudle_conv13_block3"
	type: "Convolution"
	bottom: "conv13_block3"
	top: "cpm_moudle_conv13_block3"
	param {
		lr_mult: 1
		decay_mult: 1
	}
	param {
		lr_mult: 2
		decay_mult: 1
	}
	convolution_param {
		num_output: 256
		kernel_size: 3
		stride: 1
		pad: 1
		weight_filler {
			type: "xavier"
		}
		bias_filler {
			type: "constant"
			value: 0
		}
	}
}
layer {
	name: "cpm_moudle_conv13_block3/bn"
	type: "BatchNorm"
	bottom: "cpm_moudle_conv13_block3"
	top: "cpm_moudle_conv13_block3"
	param {
		lr_mult: 0
		decay_mult: 0
	}
	param {
		lr_mult: 0
		decay_mult: 0
	}
	param {
		lr_mult: 0
		decay_mult: 0
	}
}
layer {
	name: "cpm_moudle_conv13_block3/scale"
	type: "Scale"
	bottom: "cpm_moudle_conv13_block3"
	top: "cpm_moudle_conv13_block3"
	param {
		lr_mult: 1.0
		decay_mult: 0.0
	}
	param {
		lr_mult: 2.0
		decay_mult: 0.0
	}
	scale_param {
		filler {
			value: 1
		}
		bias_term: true
		bias_filler {
			value: 0
		}
	}
}
layer {
	name: "cpm_moudle_conv13_block3/relu"
	type: "ReLU"
	bottom: "cpm_moudle_conv13_block3"
	top: "cpm_moudle_conv13_block3"
}
layer{
	name: "cpm_moudle_conv13_block3_one_channel"
	type: "Convolution"
	bottom: "cpm_moudle_conv13_block3"
	top: "cpm_moudle_conv13_block3_one_channel"
	param {
		lr_mult: 1
		decay_mult: 1
	}
	param {
		lr_mult: 2
		decay_mult: 1
	}
	convolution_param {
		num_output: 128
		kernel_size: 3
		stride: 1
		pad: 1
		weight_filler {
			type: "xavier"
		}
		bias_filler {
			type: "constant"
			value: 0
		}
	}
}
layer {
	name: "cpm_moudle_conv13_block3_one_channel/bn"
	type: "BatchNorm"
	bottom: "cpm_moudle_conv13_block3_one_channel"
	top: "cpm_moudle_conv13_block3_one_channel"
	param {
		lr_mult: 0
		decay_mult: 0
	}
	param {
		lr_mult: 0
		decay_mult: 0
	}
	param {
		lr_mult: 0
		decay_mult: 0
	}
}
layer {
	name: "cpm_moudle_conv13_block3_one_channel/scale"
	type: "Scale"
	bottom: "cpm_moudle_conv13_block3_one_channel"
	top: "cpm_moudle_conv13_block3_one_channel"
	param {
		lr_mult: 1.0
		decay_mult: 0.0
	}
	param {
		lr_mult: 2.0
		decay_mult: 0.0
	}
	scale_param {
		filler {
			value: 1
		}
		bias_term: true
		bias_filler {
			value: 0
		}
	}
}
layer {
	name: "cpm_moudle_conv13_block3_one_channel/relu"
	type: "ReLU"
	bottom: "cpm_moudle_conv13_block3_one_channel"
	top: "cpm_moudle_conv13_block3_one_channel"
}
#####
layer{
	name: "cpm_moudle_conv13_block3_two_channel"
	type: "Convolution"
	bottom: "cpm_moudle_conv13_block3"
	top: "cpm_moudle_conv13_block3_two_channel"
	param {
		lr_mult: 1
		decay_mult: 1
	}
	param {
		lr_mult: 2
		decay_mult: 1
	}
	convolution_param {
		num_output: 128
		kernel_size: 3
		stride: 1
		pad: 1
		weight_filler {
			type: "xavier"
		}
		bias_filler {
			type: "constant"
			value: 0
		}
	}
}
layer {
	name: "cpm_moudle_conv13_block3_two_channel/bn"
	type: "BatchNorm"
	bottom: "cpm_moudle_conv13_block3_two_channel"
	top: "cpm_moudle_conv13_block3_two_channel"
	param {
		lr_mult: 0
		decay_mult: 0
	}
	param {
		lr_mult: 0
		decay_mult: 0
	}
	param {
		lr_mult: 0
		decay_mult: 0
	}
}
layer {
	name: "cpm_moudle_conv13_block3_two_channel/scale"
	type: "Scale"
	bottom: "cpm_moudle_conv13_block3_two_channel"
	top: "cpm_moudle_conv13_block3_two_channel"
	param {
		lr_mult: 1.0
		decay_mult: 0.0
	}
	param {
		lr_mult: 2.0
		decay_mult: 0.0
	}
	scale_param {
		filler {
			value: 1
		}
		bias_term: true
		bias_filler {
			value: 0
		}
	}
}
layer {
	name: "cpm_moudle_conv13_block3_two_channel/relu"
	type: "ReLU"
	bottom: "cpm_moudle_conv13_block3_two_channel"
	top: "cpm_moudle_conv13_block3_two_channel"
}

layer{
	name: "cpm_moudle_conv13_block3_two_channel_2"
	type: "Convolution"
	bottom: "cpm_moudle_conv13_block3_two_channel"
	top: "cpm_moudle_conv13_block3_two_channel_2"
	param {
		lr_mult: 1
		decay_mult: 1
	}
	param {
		lr_mult: 2
		decay_mult: 1
	}
	convolution_param {
		num_output: 128
		kernel_size: 3
		stride: 1
		pad: 1
		weight_filler {
			type: "xavier"
		}
		bias_filler {
			type: "constant"
			value: 0
		}
	}
}
layer {
	name: "cpm_moudle_conv13_block3_two_channel_2/bn"
	type: "BatchNorm"
	bottom: "cpm_moudle_conv13_block3_two_channel_2"
	top: "cpm_moudle_conv13_block3_two_channel_2"
	param {
		lr_mult: 0
		decay_mult: 0
	}
	param {
		lr_mult: 0
		decay_mult: 0
	}
	param {
		lr_mult: 0
		decay_mult: 0
	}
}
layer {
	name: "cpm_moudle_conv13_block3_two_channel_2/scale"
	type: "Scale"
	bottom: "cpm_moudle_conv13_block3_two_channel_2"
	top: "cpm_moudle_conv13_block3_two_channel_2"
	param {
		lr_mult: 1.0
		decay_mult: 0.0
	}
	param {
		lr_mult: 2.0
		decay_mult: 0.0
	}
	scale_param {
		filler {
			value: 1
		}
		bias_term: true
		bias_filler {
			value: 0
		}
	}
}
layer {
	name: "cpm_moudle_conv13_block3_two_channel_2/relu"
	type: "ReLU"
	bottom: "cpm_moudle_conv13_block3_two_channel_2"
	top: "cpm_moudle_conv13_block3_two_channel_2"
}
layer {
	name: "dectction_moudle_four"
	type: "Concat"
	bottom: "cpm_moudle_conv13_block3_one_channel"
	bottom: "cpm_moudle_conv13_block3_two_channel_2"
	top: "dectction_moudle_four"
}
#######################################################################
#                             modeule five                            #
#######################################################################
#################context moudle####################
layer{
	name: "cpm_moudle_conv14_2"
	type: "Convolution"
	bottom: "conv14_2"
	top: "cpm_moudle_conv14_2"
	param {
		lr_mult: 1
		decay_mult: 1
	}
	param {
		lr_mult: 2
		decay_mult: 1
	}
	convolution_param {
		num_output: 256
		kernel_size: 3
		stride: 1
		pad: 1
		weight_filler {
			type: "xavier"
		}
		bias_filler {
			type: "constant"
			value: 0
		}
	}
}
layer {
	name: "cpm_moudle_conv14_2/bn"
	type: "BatchNorm"
	bottom: "cpm_moudle_conv14_2"
	top: "cpm_moudle_conv14_2"
	param {
		lr_mult: 0
		decay_mult: 0
	}
	param {
		lr_mult: 0
		decay_mult: 0
	}
	param {
		lr_mult: 0
		decay_mult: 0
	}
}
layer {
	name: "cpm_moudle_conv14_2/scale"
	type: "Scale"
	bottom: "cpm_moudle_conv14_2"
	top: "cpm_moudle_conv14_2"
	param {
		lr_mult: 1.0
		decay_mult: 0.0
	}
	param {
		lr_mult: 2.0
		decay_mult: 0.0
	}
	scale_param {
		filler {
			value: 1
		}
		bias_term: true
		bias_filler {
			value: 0
		}
	}
}
layer {
	name: "cpm_moudle_conv14_2/relu"
	type: "ReLU"
	bottom: "cpm_moudle_conv14_2"
	top: "cpm_moudle_conv14_2"
}
layer{
	name: "cpm_moudle_conv14_2_one_channel"
	type: "Convolution"
	bottom: "cpm_moudle_conv14_2"
	top: "cpm_moudle_conv14_2_one_channel"
	param {
		lr_mult: 1
		decay_mult: 1
	}
	param {
		lr_mult: 2
		decay_mult: 1
	}
	convolution_param {
		num_output: 128
		kernel_size: 3
		stride: 1
		pad: 1
		weight_filler {
			type: "xavier"
		}
		bias_filler {
			type: "constant"
			value: 0
		}
	}
}
layer {
	name: "cpm_moudle_conv14_2_one_channel/bn"
	type: "BatchNorm"
	bottom: "cpm_moudle_conv14_2_one_channel"
	top: "cpm_moudle_conv14_2_one_channel"
	param {
		lr_mult: 0
		decay_mult: 0
	}
	param {
		lr_mult: 0
		decay_mult: 0
	}
	param {
		lr_mult: 0
		decay_mult: 0
	}
}
layer {
	name: "cpm_moudle_conv14_2_one_channel/scale"
	type: "Scale"
	bottom: "cpm_moudle_conv14_2_one_channel"
	top: "cpm_moudle_conv14_2_one_channel"
	param {
		lr_mult: 1.0
		decay_mult: 0.0
	}
	param {
		lr_mult: 2.0
		decay_mult: 0.0
	}
	scale_param {
		filler {
			value: 1
		}
		bias_term: true
		bias_filler {
			value: 0
		}
	}
}
layer {
	name: "cpm_moudle_conv14_2_one_channel/relu"
	type: "ReLU"
	bottom: "cpm_moudle_conv14_2_one_channel"
	top: "cpm_moudle_conv14_2_one_channel"
}
#####
layer{
	name: "cpm_moudle_conv14_2_two_channel"
	type: "Convolution"
	bottom: "cpm_moudle_conv14_2"
	top: "cpm_moudle_conv14_2_two_channel"
	param {
		lr_mult: 1
		decay_mult: 1
	}
	param {
		lr_mult: 2
		decay_mult: 1
	}
	convolution_param {
		num_output: 128
		kernel_size: 3
		stride: 1
		pad: 1
		weight_filler {
			type: "xavier"
		}
		bias_filler {
			type: "constant"
			value: 0
		}
	}
}
layer {
	name: "cpm_moudle_conv14_2_two_channel/bn"
	type: "BatchNorm"
	bottom: "cpm_moudle_conv14_2_two_channel"
	top: "cpm_moudle_conv14_2_two_channel"
	param {
		lr_mult: 0
		decay_mult: 0
	}
	param {
		lr_mult: 0
		decay_mult: 0
	}
	param {
		lr_mult: 0
		decay_mult: 0
	}
}
layer {
	name: "cpm_moudle_conv14_2_two_channel/scale"
	type: "Scale"
	bottom: "cpm_moudle_conv14_2_two_channel"
	top: "cpm_moudle_conv14_2_two_channel"
	param {
		lr_mult: 1.0
		decay_mult: 0.0
	}
	param {
		lr_mult: 2.0
		decay_mult: 0.0
	}
	scale_param {
		filler {
			value: 1
		}
		bias_term: true
		bias_filler {
			value: 0
		}
	}
}
layer {
	name: "cpm_moudle_conv14_2_two_channel/relu"
	type: "ReLU"
	bottom: "cpm_moudle_conv14_2_two_channel"
	top: "cpm_moudle_conv14_2_two_channel"
}

layer{
	name: "cpm_moudle_conv14_2_two_channel_2"
	type: "Convolution"
	bottom: "cpm_moudle_conv14_2_two_channel"
	top: "cpm_moudle_conv14_2_two_channel_2"
	param {
		lr_mult: 1
		decay_mult: 1
	}
	param {
		lr_mult: 2
		decay_mult: 1
	}
	convolution_param {
		num_output: 128
		kernel_size: 3
		stride: 1
		pad: 1
		weight_filler {
			type: "xavier"
		}
		bias_filler {
			type: "constant"
			value: 0
		}
	}
}
layer {
	name: "cpm_moudle_conv14_2_two_channel_2/bn"
	type: "BatchNorm"
	bottom: "cpm_moudle_conv14_2_two_channel_2"
	top: "cpm_moudle_conv14_2_two_channel_2"
	param {
		lr_mult: 0
		decay_mult: 0
	}
	param {
		lr_mult: 0
		decay_mult: 0
	}
	param {
		lr_mult: 0
		decay_mult: 0
	}
}
layer {
	name: "cpm_moudle_conv14_2_two_channel_2/scale"
	type: "Scale"
	bottom: "cpm_moudle_conv14_2_two_channel_2"
	top: "cpm_moudle_conv14_2_two_channel_2"
	param {
		lr_mult: 1.0
		decay_mult: 0.0
	}
	param {
		lr_mult: 2.0
		decay_mult: 0.0
	}
	scale_param {
		filler {
			value: 1
		}
		bias_term: true
		bias_filler {
			value: 0
		}
	}
}
layer {
	name: "cpm_moudle_conv14_2_two_channel_2/relu"
	type: "ReLU"
	bottom: "cpm_moudle_conv14_2_two_channel_2"
	top: "cpm_moudle_conv14_2_two_channel_2"
}
layer {
	name: "dectction_moudle_five"
	type: "Concat"
	bottom: "cpm_moudle_conv14_2_one_channel"
	bottom: "cpm_moudle_conv14_2_two_channel_2"
	top: "dectction_moudle_five"
}
#######################################################################
#                             modeule six                            #
#######################################################################
#################context moudle####################
layer{
	name: "cpm_moudle_conv17_2"
	type: "Convolution"
	bottom: "conv17_2"
	top: "cpm_moudle_conv17_2"
	param {
		lr_mult: 1
		decay_mult: 1
	}
	param {
		lr_mult: 2
		decay_mult: 1
	}
	convolution_param {
		num_output: 128
		kernel_size: 3
		stride: 1
		pad: 1
		weight_filler {
			type: "xavier"
		}
		bias_filler {
			type: "constant"
			value: 0
		}
	}
}
layer {
	name: "cpm_moudle_conv17_2/bn"
	type: "BatchNorm"
	bottom: "cpm_moudle_conv17_2"
	top: "cpm_moudle_conv17_2"
	param {
		lr_mult: 0
		decay_mult: 0
	}
	param {
		lr_mult: 0
		decay_mult: 0
	}
	param {
		lr_mult: 0
		decay_mult: 0
	}
}
layer {
	name: "cpm_moudle_conv17_2/scale"
	type: "Scale"
	bottom: "cpm_moudle_conv17_2"
	top: "cpm_moudle_conv17_2"
	param {
		lr_mult: 1.0
		decay_mult: 0.0
	}
	param {
		lr_mult: 2.0
		decay_mult: 0.0
	}
	scale_param {
		filler {
			value: 1
		}
		bias_term: true
		bias_filler {
			value: 0
		}
	}
}
layer {
	name: "cpm_moudle_conv17_2/relu"
	type: "ReLU"
	bottom: "cpm_moudle_conv17_2"
	top: "cpm_moudle_conv17_2"
}
layer{
	name: "cpm_moudle_conv17_2_one_channel"
	type: "Convolution"
	bottom: "cpm_moudle_conv17_2"
	top: "cpm_moudle_conv17_2_one_channel"
	param {
		lr_mult: 1
		decay_mult: 1
	}
	param {
		lr_mult: 2
		decay_mult: 1
	}
	convolution_param {
		num_output: 64
		kernel_size: 3
		stride: 1
		pad: 1
		weight_filler {
			type: "xavier"
		}
		bias_filler {
			type: "constant"
			value: 0
		}
	}
}
layer {
	name: "cpm_moudle_conv17_2_one_channel/bn"
	type: "BatchNorm"
	bottom: "cpm_moudle_conv17_2_one_channel"
	top: "cpm_moudle_conv17_2_one_channel"
	param {
		lr_mult: 0
		decay_mult: 0
	}
	param {
		lr_mult: 0
		decay_mult: 0
	}
	param {
		lr_mult: 0
		decay_mult: 0
	}
}
layer {
	name: "cpm_moudle_conv17_2_one_channel/scale"
	type: "Scale"
	bottom: "cpm_moudle_conv17_2_one_channel"
	top: "cpm_moudle_conv17_2_one_channel"
	param {
		lr_mult: 1.0
		decay_mult: 0.0
	}
	param {
		lr_mult: 2.0
		decay_mult: 0.0
	}
	scale_param {
		filler {
			value: 1
		}
		bias_term: true
		bias_filler {
			value: 0
		}
	}
}
layer {
	name: "cpm_moudle_conv17_2_one_channel/relu"
	type: "ReLU"
	bottom: "cpm_moudle_conv17_2_one_channel"
	top: "cpm_moudle_conv17_2_one_channel"
}
#####
layer{
	name: "cpm_moudle_conv17_2_two_channel"
	type: "Convolution"
	bottom: "cpm_moudle_conv17_2"
	top: "cpm_moudle_conv17_2_two_channel"
	param {
		lr_mult: 1
		decay_mult: 1
	}
	param {
		lr_mult: 2
		decay_mult: 1
	}
	convolution_param {
		num_output: 64
		kernel_size: 3
		stride: 1
		pad: 1
		weight_filler {
			type: "xavier"
		}
		bias_filler {
			type: "constant"
			value: 0
		}
	}
}
layer {
	name: "cpm_moudle_conv17_2_two_channel/bn"
	type: "BatchNorm"
	bottom: "cpm_moudle_conv17_2_two_channel"
	top: "cpm_moudle_conv17_2_two_channel"
	param {
		lr_mult: 0
		decay_mult: 0
	}
	param {
		lr_mult: 0
		decay_mult: 0
	}
	param {
		lr_mult: 0
		decay_mult: 0
	}
}
layer {
	name: "cpm_moudle_conv17_2_two_channel/scale"
	type: "Scale"
	bottom: "cpm_moudle_conv17_2_two_channel"
	top: "cpm_moudle_conv17_2_two_channel"
	param {
		lr_mult: 1.0
		decay_mult: 0.0
	}
	param {
		lr_mult: 2.0
		decay_mult: 0.0
	}
	scale_param {
		filler {
			value: 1
		}
		bias_term: true
		bias_filler {
			value: 0
		}
	}
}
layer {
	name: "cpm_moudle_conv17_2_two_channel/relu"
	type: "ReLU"
	bottom: "cpm_moudle_conv17_2_two_channel"
	top: "cpm_moudle_conv17_2_two_channel"
}

layer{
	name: "cpm_moudle_conv17_2_two_channel_2"
	type: "Convolution"
	bottom: "cpm_moudle_conv17_2_two_channel"
	top: "cpm_moudle_conv17_2_two_channel_2"
	param {
		lr_mult: 1
		decay_mult: 1
	}
	param {
		lr_mult: 2
		decay_mult: 1
	}
	convolution_param {
		num_output: 64
		kernel_size: 3
		stride: 1
		pad: 1
		weight_filler {
			type: "xavier"
		}
		bias_filler {
			type: "constant"
			value: 0
		}
	}
}
layer {
	name: "cpm_moudle_conv17_2_two_channel_2/bn"
	type: "BatchNorm"
	bottom: "cpm_moudle_conv17_2_two_channel_2"
	top: "cpm_moudle_conv17_2_two_channel_2"
	param {
		lr_mult: 0
		decay_mult: 0
	}
	param {
		lr_mult: 0
		decay_mult: 0
	}
	param {
		lr_mult: 0
		decay_mult: 0
	}
}
layer {
	name: "cpm_moudle_conv17_2_two_channel_2/scale"
	type: "Scale"
	bottom: "cpm_moudle_conv17_2_two_channel_2"
	top: "cpm_moudle_conv17_2_two_channel_2"
	param {
		lr_mult: 1.0
		decay_mult: 0.0
	}
	param {
		lr_mult: 2.0
		decay_mult: 0.0
	}
	scale_param {
		filler {
			value: 1
		}
		bias_term: true
		bias_filler {
			value: 0
		}
	}
}
layer {
	name: "cpm_moudle_conv17_2_two_channel_2/relu"
	type: "ReLU"
	bottom: "cpm_moudle_conv17_2_two_channel_2"
	top: "cpm_moudle_conv17_2_two_channel_2"
}
layer {
	name: "dectction_moudle_six"
	type: "Concat"
	bottom: "cpm_moudle_conv17_2_one_channel"
	bottom: "cpm_moudle_conv17_2_two_channel_2"
	top: "dectction_moudle_six"
}
#######################################################################
#                             modeule seven                           #
#######################################################################
#################context moudle####################
layer{
	name: "cpm_moudle_conv16_2"
	type: "Convolution"
	bottom: "conv16_2"
	top: "cpm_moudle_conv16_2"
	param {
		lr_mult: 1
		decay_mult: 1
	}
	param {
		lr_mult: 2
		decay_mult: 1
	}
	convolution_param {
		num_output: 256
		kernel_size: 3
		stride: 1
		pad: 1
		weight_filler {
			type: "xavier"
		}
		bias_filler {
			type: "constant"
			value: 0
		}
	}
}
layer {
	name: "cpm_moudle_conv16_2/bn"
	type: "BatchNorm"
	bottom: "cpm_moudle_conv16_2"
	top: "cpm_moudle_conv16_2"
	param {
		lr_mult: 0
		decay_mult: 0
	}
	param {
		lr_mult: 0
		decay_mult: 0
	}
	param {
		lr_mult: 0
		decay_mult: 0
	}
}
layer {
	name: "cpm_moudle_conv16_2/scale"
	type: "Scale"
	bottom: "cpm_moudle_conv16_2"
	top: "cpm_moudle_conv16_2"
	param {
		lr_mult: 1.0
		decay_mult: 0.0
	}
	param {
		lr_mult: 2.0
		decay_mult: 0.0
	}
	scale_param {
		filler {
			value: 1
		}
		bias_term: true
		bias_filler {
			value: 0
		}
	}
}
layer {
	name: "cpm_moudle_conv16_2/relu"
	type: "ReLU"
	bottom: "cpm_moudle_conv16_2"
	top: "cpm_moudle_conv16_2"
}
layer{
	name: "cpm_moudle_conv16_2_one_channel"
	type: "Convolution"
	bottom: "cpm_moudle_conv16_2"
	top: "cpm_moudle_conv16_2_one_channel"
	param {
		lr_mult: 1
		decay_mult: 1
	}
	param {
		lr_mult: 2
		decay_mult: 1
	}
	convolution_param {
		num_output: 128
		kernel_size: 3
		stride: 1
		pad: 1
		weight_filler {
			type: "xavier"
		}
		bias_filler {
			type: "constant"
			value: 0
		}
	}
}
layer {
	name: "cpm_moudle_conv16_2_one_channel/bn"
	type: "BatchNorm"
	bottom: "cpm_moudle_conv16_2_one_channel"
	top: "cpm_moudle_conv16_2_one_channel"
	param {
		lr_mult: 0
		decay_mult: 0
	}
	param {
		lr_mult: 0
		decay_mult: 0
	}
	param {
		lr_mult: 0
		decay_mult: 0
	}
}
layer {
	name: "cpm_moudle_conv16_2_one_channel/scale"
	type: "Scale"
	bottom: "cpm_moudle_conv16_2_one_channel"
	top: "cpm_moudle_conv16_2_one_channel"
	param {
		lr_mult: 1.0
		decay_mult: 0.0
	}
	param {
		lr_mult: 2.0
		decay_mult: 0.0
	}
	scale_param {
		filler {
			value: 1
		}
		bias_term: true
		bias_filler {
			value: 0
		}
	}
}
layer {
	name: "cpm_moudle_conv16_2_one_channel/relu"
	type: "ReLU"
	bottom: "cpm_moudle_conv16_2_one_channel"
	top: "cpm_moudle_conv16_2_one_channel"
}
#####
layer{
	name: "cpm_moudle_conv16_2_two_channel"
	type: "Convolution"
	bottom: "cpm_moudle_conv16_2"
	top: "cpm_moudle_conv16_2_two_channel"
	param {
		lr_mult: 1
		decay_mult: 1
	}
	param {
		lr_mult: 2
		decay_mult: 1
	}
	convolution_param {
		num_output: 128
		kernel_size: 3
		stride: 1
		pad: 1
		weight_filler {
			type: "xavier"
		}
		bias_filler {
			type: "constant"
			value: 0
		}
	}
}
layer {
	name: "cpm_moudle_conv16_2_two_channel/bn"
	type: "BatchNorm"
	bottom: "cpm_moudle_conv16_2_two_channel"
	top: "cpm_moudle_conv16_2_two_channel"
	param {
		lr_mult: 0
		decay_mult: 0
	}
	param {
		lr_mult: 0
		decay_mult: 0
	}
	param {
		lr_mult: 0
		decay_mult: 0
	}
}
layer {
	name: "cpm_moudle_conv16_2_two_channel/scale"
	type: "Scale"
	bottom: "cpm_moudle_conv16_2_two_channel"
	top: "cpm_moudle_conv16_2_two_channel"
	param {
		lr_mult: 1.0
		decay_mult: 0.0
	}
	param {
		lr_mult: 2.0
		decay_mult: 0.0
	}
	scale_param {
		filler {
			value: 1
		}
		bias_term: true
		bias_filler {
			value: 0
		}
	}
}
layer {
	name: "cpm_moudle_conv16_2_two_channel/relu"
	type: "ReLU"
	bottom: "cpm_moudle_conv16_2_two_channel"
	top: "cpm_moudle_conv16_2_two_channel"
}

layer{
	name: "cpm_moudle_conv16_2_two_channel_2"
	type: "Convolution"
	bottom: "cpm_moudle_conv16_2_two_channel"
	top: "cpm_moudle_conv16_2_two_channel_2"
	param {
		lr_mult: 1
		decay_mult: 1
	}
	param {
		lr_mult: 2
		decay_mult: 1
	}
	convolution_param {
		num_output: 128
		kernel_size: 3
		stride: 1
		pad: 1
		weight_filler {
			type: "xavier"
		}
		bias_filler {
			type: "constant"
			value: 0
		}
	}
}
layer {
	name: "cpm_moudle_conv16_2_two_channel_2/bn"
	type: "BatchNorm"
	bottom: "cpm_moudle_conv16_2_two_channel_2"
	top: "cpm_moudle_conv16_2_two_channel_2"
	param {
		lr_mult: 0
		decay_mult: 0
	}
	param {
		lr_mult: 0
		decay_mult: 0
	}
	param {
		lr_mult: 0
		decay_mult: 0
	}
}
layer {
	name: "cpm_moudle_conv16_2_two_channel_2/scale"
	type: "Scale"
	bottom: "cpm_moudle_conv16_2_two_channel_2"
	top: "cpm_moudle_conv16_2_two_channel_2"
	param {
		lr_mult: 1.0
		decay_mult: 0.0
	}
	param {
		lr_mult: 2.0
		decay_mult: 0.0
	}
	scale_param {
		filler {
			value: 1
		}
		bias_term: true
		bias_filler {
			value: 0
		}
	}
}
layer {
	name: "cpm_moudle_conv16_2_two_channel_2/relu"
	type: "ReLU"
	bottom: "cpm_moudle_conv16_2_two_channel_2"
	top: "cpm_moudle_conv16_2_two_channel_2"
}
layer {
	name: "dectction_moudle_seven"
	type: "Concat"
	bottom: "cpm_moudle_conv16_2_one_channel"
	bottom: "cpm_moudle_conv16_2_two_channel_2"
	top: "dectction_moudle_seven"
}
############################################################
#######################priorBox moudle one##################
############################################################
layer {
	name: "dectction_moudle_one_priorbox"
	type: "PriorBox"
	bottom: "dectction_moudle_one"
	bottom: "data"
	top: "dectction_moudle_one_priorbox"
	prior_box_param {
		min_size: 16.0
		flip: true
		clip: false
		variance: 0.1
		variance: 0.1
		variance: 0.2
		variance: 0.2
		offset: 0.5
	}
}

layer {
	name: "dectction_moudle_one_loc"
	type: "Convolution"
	bottom: "dectction_moudle_one"
	top: "dectction_moudle_one_loc"
	param {
		lr_mult: 1
		decay_mult: 1
	}
	param {
		lr_mult: 2
		decay_mult: 0
	}
	convolution_param {
		num_output: 4
		pad: 1
		kernel_size: 3
		stride: 1
		bias_term: true
		weight_filler {
			type: "xavier"
		}
		bias_filler {
			type: "constant"
			value: 0
		}
	}
}
layer {
	name: "dectction_moudle_one_loc_perm"
	type: "Permute"
	bottom: "dectction_moudle_one_loc"
	top: "dectction_moudle_one_loc_perm"
	permute_param {
		order: 0
		order: 2
		order: 3
		order: 1
	}
}
layer {
	name: "dectction_moudle_one_loc_flat"
	type: "Flatten"
	bottom: "dectction_moudle_one_loc_perm"
	top: "dectction_moudle_one_loc_flat"
	flatten_param {
		axis: 1
	}
}

layer {
	name: "dectction_moudle_one_conf"
	type: "Convolution"
	bottom: "dectction_moudle_one"
	top: "dectction_moudle_one_conf"
	param {
		lr_mult: 1
		decay_mult: 1
	}
	param {
		lr_mult: 2
		decay_mult: 0
	}
	convolution_param {
		num_output: 6
		pad: 1
		kernel_size: 3
		stride: 1
		bias_term: true
		weight_filler {
			type: "xavier"
		}
		bias_filler {
			type: "constant"
			value: 0
		}
	}
}
layer {
	name: "dectction_moudle_one_conf_slice"
	type: "Slice"
	bottom: "dectction_moudle_one_conf"
	top: "dectction_moudle_one_conf1"
	top: "dectction_moudle_one_conf2"
	top: "dectction_moudle_one_conf3"
	top: "dectction_moudle_one_conf4"
	top: "dectction_moudle_one_conf5"
	top: "dectction_moudle_one_conf6"
	slice_param {
		axis: 1
		slice_point: 1
		slice_point: 2
		slice_point: 3
		slice_point: 4
		slice_point: 5
	}
}
layer {
	name: "dectction_moudle_one_conf_maxout_bg"
	type: "Eltwise"
	bottom: "dectction_moudle_one_conf1"
	bottom: "dectction_moudle_one_conf2"
	bottom: "dectction_moudle_one_conf3"
	top: "dectction_moudle_one_conf_maxout_bg"
	eltwise_param {
		operation: MAX
	}
}
layer {
	name: "dectction_moudle_one_conf_maxout_fg"
	type: "Eltwise"
	bottom: "dectction_moudle_one_conf4"
	bottom: "dectction_moudle_one_conf5"
	bottom: "dectction_moudle_one_conf6"
	top: "dectction_moudle_one_conf_maxout_fg"
	eltwise_param {
		operation: MAX
	}
}
layer {
	name: "dectction_moudle_one_conf_concat"
	type: "Concat"
	bottom: "dectction_moudle_one_conf_maxout_bg"
	bottom: "dectction_moudle_one_conf_maxout_fg"
	top: "dectction_moudle_one_conf_concat"
	concat_param {
		axis: 1
	}
}
layer {
	name: "dectction_moudle_one_conf_concat_perm"
	type: "Permute"
	bottom: "dectction_moudle_one_conf_concat"
	top: "dectction_moudle_one_conf_concat_perm"
	permute_param {
		order: 0
		order: 2
		order: 3
		order: 1
	}
}
layer {
	name: "dectction_moudle_one_conf_concat_flat"
	type: "Flatten"
	bottom: "dectction_moudle_one_conf_concat_perm"
	top: "dectction_moudle_one_conf_concat_flat"
	flatten_param {
		axis: 1
	}
}

layer {
	name: "dectction_moudle_one_blur"
	type: "Convolution"
	bottom: "dectction_moudle_one"
	top: "dectction_moudle_one_blur"
	param {
		lr_mult: 1.0
		decay_mult: 1.0
	}
	param {
		lr_mult: 2.0
		decay_mult: 0.0
	}
	convolution_param {
		num_output: 3
		kernel_size: 1
		weight_filler {
			type: "msra"
		}
		bias_filler {
			type: "constant"
			value: 0.0
		}
	}
}
layer {
	name: "dectction_moudle_one_blur_perm"
	type: "Permute"
	bottom: "dectction_moudle_one_blur"
	top: "dectction_moudle_one_blur_perm"
	permute_param {
		order: 0
		order: 2
		order: 3
		order: 1
	}
}
layer {
	name: "dectction_moudle_one_blur_flat"
	type: "Flatten"
	bottom: "dectction_moudle_one_blur_perm"
	top: "dectction_moudle_one_blur_flat"
	flatten_param {
		axis: 1
	}
}
layer {
	name: "dectction_moudle_one_occlu"
	type: "Convolution"
	bottom: "dectction_moudle_one"
	top: "dectction_moudle_one_occlu"
	param {
		lr_mult: 1.0
		decay_mult: 1.0
	}
	param {
		lr_mult: 2.0
		decay_mult: 0.0
	}
	convolution_param {
		num_output: 3
		kernel_size: 1
		weight_filler {
			type: "msra"
		}
		bias_filler {
			type: "constant"
			value: 0.0
		}
	}
}
layer {
	name: "dectction_moudle_one_occlu_perm"
	type: "Permute"
	bottom: "dectction_moudle_one_occlu"
	top: "dectction_moudle_one_occlu_perm"
	permute_param {
		order: 0
		order: 2
		order: 3
		order: 1
	}
}
layer {
	name: "dectction_moudle_one_occlu_flat"
	type: "Flatten"
	bottom: "dectction_moudle_one_occlu_perm"
	top: "dectction_moudle_one_occlu_flat"
	flatten_param {
		axis: 1
	}
}
############################################################
#######################priorBox moudle two##################
############################################################
layer {
	name: "dectction_moudle_two_priorbox"
	type: "PriorBox"
	bottom: "dectction_moudle_two"
	bottom: "data"
	top: "dectction_moudle_two_priorbox"
	prior_box_param {
		min_size: 32.0
		flip: true
		clip: false
		variance: 0.1
		variance: 0.1
		variance: 0.2
		variance: 0.2
		offset: 0.5
	}
}

layer {
	name: "dectction_moudle_two_loc"
	type: "Convolution"
	bottom: "dectction_moudle_two"
	top: "dectction_moudle_two_loc"
	param {
		lr_mult: 1
		decay_mult: 1
	}
	param {
		lr_mult: 2
		decay_mult: 0
	}
	convolution_param {
		num_output: 4
		pad: 1
		kernel_size: 3
		stride: 1
		bias_term: true
		weight_filler {
			type: "xavier"
		}
		bias_filler {
			type: "constant"
			value: 0
		}
	}
}
layer {
	name: "dectction_moudle_two_loc_perm"
	type: "Permute"
	bottom: "dectction_moudle_two_loc"
	top: "dectction_moudle_two_loc_perm"
	permute_param {
		order: 0
		order: 2
		order: 3
		order: 1
	}
}
layer {
	name: "dectction_moudle_two_loc_flat"
	type: "Flatten"
	bottom: "dectction_moudle_two_loc_perm"
	top: "dectction_moudle_two_loc_flat"
	flatten_param {
		axis: 1
	}
}

layer {
	name: "dectction_moudle_two_conf"
	type: "Convolution"
	bottom: "dectction_moudle_two"
	top: "dectction_moudle_two_conf"
	param {
		lr_mult: 1
		decay_mult: 1
	}
	param {
		lr_mult: 2
		decay_mult: 0
	}
	convolution_param {
		num_output: 6
		pad: 1
		kernel_size: 3
		stride: 1
		bias_term: true
		weight_filler {
			type: "xavier"
		}
		bias_filler {
			type: "constant"
			value: 0
		}
	}
}
layer {
	name: "dectction_moudle_two_conf_slice"
	type: "Slice"
	bottom: "dectction_moudle_two_conf"
	top: "dectction_moudle_two_conf1"
	top: "dectction_moudle_two_conf2"
	top: "dectction_moudle_two_conf3"
	top: "dectction_moudle_two_conf4"
	top: "dectction_moudle_two_conf5"
	top: "dectction_moudle_two_conf6"
	slice_param {
		axis: 1
		slice_point: 1
		slice_point: 2
		slice_point: 3
		slice_point: 4
		slice_point: 5
	}
}
layer {
	name: "dectction_moudle_two_conf_maxout_bg"
	type: "Eltwise"
	bottom: "dectction_moudle_two_conf1"
	bottom: "dectction_moudle_two_conf2"
	bottom: "dectction_moudle_two_conf3"
	top: "dectction_moudle_two_conf_maxout_bg"
	eltwise_param {
		operation: MAX
	}
}
layer {
	name: "dectction_moudle_two_conf_maxout_fg"
	type: "Eltwise"
	bottom: "dectction_moudle_two_conf4"
	bottom: "dectction_moudle_two_conf5"
	bottom: "dectction_moudle_two_conf6"
	top: "dectction_moudle_two_conf_maxout_fg"
	eltwise_param {
		operation: MAX
	}
}
layer {
	name: "dectction_moudle_two_conf_concat"
	type: "Concat"
	bottom: "dectction_moudle_two_conf_maxout_bg"
	bottom: "dectction_moudle_two_conf_maxout_fg"
	top: "dectction_moudle_two_conf_concat"
	concat_param {
		axis: 1
	}
}
layer {
	name: "dectction_moudle_two_conf_concat_perm"
	type: "Permute"
	bottom: "dectction_moudle_two_conf_concat"
	top: "dectction_moudle_two_conf_concat_perm"
	permute_param {
		order: 0
		order: 2
		order: 3
		order: 1
	}
}
layer {
	name: "dectction_moudle_two_conf_concat_flat"
	type: "Flatten"
	bottom: "dectction_moudle_two_conf_concat_perm"
	top: "dectction_moudle_two_conf_concat_flat"
	flatten_param {
		axis: 1
	}
}

layer {
	name: "dectction_moudle_two_blur"
	type: "Convolution"
	bottom: "dectction_moudle_two"
	top: "dectction_moudle_two_blur"
	param {
		lr_mult: 1.0
		decay_mult: 1.0
	}
	param {
		lr_mult: 2.0
		decay_mult: 0.0
	}
	convolution_param {
		num_output: 3
		kernel_size: 1
		weight_filler {
			type: "msra"
		}
		bias_filler {
			type: "constant"
			value: 0.0
		}
	}
}
layer {
	name: "dectction_moudle_two_blur_perm"
	type: "Permute"
	bottom: "dectction_moudle_two_blur"
	top: "dectction_moudle_two_blur_perm"
	permute_param {
		order: 0
		order: 2
		order: 3
		order: 1
	}
}
layer {
	name: "dectction_moudle_two_blur_flat"
	type: "Flatten"
	bottom: "dectction_moudle_two_blur_perm"
	top: "dectction_moudle_two_blur_flat"
	flatten_param {
		axis: 1
	}
}
layer {
	name: "dectction_moudle_two_occlu"
	type: "Convolution"
	bottom: "dectction_moudle_two"
	top: "dectction_moudle_two_occlu"
	param {
		lr_mult: 1.0
		decay_mult: 1.0
	}
	param {
		lr_mult: 2.0
		decay_mult: 0.0
	}
	convolution_param {
		num_output: 3
		kernel_size: 1
		weight_filler {
			type: "msra"
		}
		bias_filler {
			type: "constant"
			value: 0.0
		}
	}
}
layer {
	name: "dectction_moudle_two_occlu_perm"
	type: "Permute"
	bottom: "dectction_moudle_two_occlu"
	top: "dectction_moudle_two_occlu_perm"
	permute_param {
		order: 0
		order: 2
		order: 3
		order: 1
	}
}
layer {
	name: "dectction_moudle_two_occlu_flat"
	type: "Flatten"
	bottom: "dectction_moudle_two_occlu_perm"
	top: "dectction_moudle_two_occlu_flat"
	flatten_param {
		axis: 1
	}
}

############################################################
#######################priorBox moudle four ################
############################################################
layer {
	name: "dectction_moudle_four_priorbox"
	type: "PriorBox"
	bottom: "dectction_moudle_four"
	bottom: "data"
	top: "dectction_moudle_four_priorbox"
	prior_box_param {
		min_size: 32.0
		max_size: 64.0
		flip: true
		clip: false
		variance: 0.1
		variance: 0.1
		variance: 0.2
		variance: 0.2
		offset: 0.5
	}
}

layer {
	name: "dectction_moudle_four_loc"
	type: "Convolution"
	bottom: "dectction_moudle_four"
	top: "dectction_moudle_four_loc"
	param {
		lr_mult: 1
		decay_mult: 1
	}
	param {
		lr_mult: 2
		decay_mult: 0
	}
	convolution_param {
		num_output: 8
		pad: 1
		kernel_size: 3
		stride: 1
		bias_term: true
		weight_filler {
			type: "xavier"
		}
		bias_filler {
			type: "constant"
			value: 0
		}
	}
}
layer {
	name: "dectction_moudle_four_loc_perm"
	type: "Permute"
	bottom: "dectction_moudle_four_loc"
	top: "dectction_moudle_four_loc_perm"
	permute_param {
		order: 0
		order: 2
		order: 3
		order: 1
	}
}
layer {
	name: "dectction_moudle_four_loc_flat"
	type: "Flatten"
	bottom: "dectction_moudle_four_loc_perm"
	top: "dectction_moudle_four_loc_flat"
	flatten_param {
		axis: 1
	}
}

layer {
	name: "dectction_moudle_four_conf"
	type: "Convolution"
	bottom: "dectction_moudle_four"
	top: "dectction_moudle_four_conf"
	param {
		lr_mult: 1
		decay_mult: 1
	}
	param {
		lr_mult: 2
		decay_mult: 0
	}
	convolution_param {
		num_output: 4
		pad: 1
		kernel_size: 3
		stride: 1
		bias_term: true
		weight_filler {
			type: "xavier"
		}
		bias_filler {
			type: "constant"
			value: 0
		}
	}
}
layer {
	name: "dectction_moudle_four_conf_concat_perm"
	type: "Permute"
	bottom: "dectction_moudle_four_conf"
	top: "dectction_moudle_four_conf_concat_perm"
	permute_param {
		order: 0
		order: 2
		order: 3
		order: 1
	}
}
layer {
	name: "dectction_moudle_four_conf_concat_flat"
	type: "Flatten"
	bottom: "dectction_moudle_four_conf_concat_perm"
	top: "dectction_moudle_four_conf_concat_flat"
	flatten_param {
		axis: 1
	}
}

layer {
	name: "dectction_moudle_four_blur"
	type: "Convolution"
	bottom: "dectction_moudle_four"
	top: "dectction_moudle_four_blur"
	param {
		lr_mult: 1.0
		decay_mult: 1.0
	}
	param {
		lr_mult: 2.0
		decay_mult: 0.0
	}
	convolution_param {
		num_output: 6
		kernel_size: 1
		weight_filler {
			type: "msra"
		}
		bias_filler {
			type: "constant"
			value: 0.0
		}
	}
}
layer {
	name: "dectction_moudle_four_blur_perm"
	type: "Permute"
	bottom: "dectction_moudle_four_blur"
	top: "dectction_moudle_four_blur_perm"
	permute_param {
		order: 0
		order: 2
		order: 3
		order: 1
	}
}
layer {
	name: "dectction_moudle_four_blur_flat"
	type: "Flatten"
	bottom: "dectction_moudle_four_blur_perm"
	top: "dectction_moudle_four_blur_flat"
	flatten_param {
		axis: 1
	}
}
layer {
	name: "dectction_moudle_four_occlu"
	type: "Convolution"
	bottom: "dectction_moudle_four"
	top: "dectction_moudle_four_occlu"
	param {
		lr_mult: 1.0
		decay_mult: 1.0
	}
	param {
		lr_mult: 2.0
		decay_mult: 0.0
	}
	convolution_param {
		num_output: 6
		kernel_size: 1
		weight_filler {
			type: "msra"
		}
		bias_filler {
			type: "constant"
			value: 0.0
		}
	}
}
layer {
	name: "dectction_moudle_four_occlu_perm"
	type: "Permute"
	bottom: "dectction_moudle_four_occlu"
	top: "dectction_moudle_four_occlu_perm"
	permute_param {
		order: 0
		order: 2
		order: 3
		order: 1
	}
}
layer {
	name: "dectction_moudle_four_occlu_flat"
	type: "Flatten"
	bottom: "dectction_moudle_four_occlu_perm"
	top: "dectction_moudle_four_occlu_flat"
	flatten_param {
		axis: 1
	}
}

############################################################
#######################priorBox moudle five ################
############################################################
layer {
	name: "dectction_moudle_five_priorbox"
	type: "PriorBox"
	bottom: "dectction_moudle_five"
	bottom: "data"
	top: "dectction_moudle_five_priorbox"
	prior_box_param {
		min_size: 64.0
		max_size: 128.0
		flip: true
		clip: false
		variance: 0.1
		variance: 0.1
		variance: 0.2
		variance: 0.2
		offset: 0.5
	}
}

layer {
	name: "dectction_moudle_five_loc"
	type: "Convolution"
	bottom: "dectction_moudle_five"
	top: "dectction_moudle_five_loc"
	param {
		lr_mult: 1
		decay_mult: 1
	}
	param {
		lr_mult: 2
		decay_mult: 0
	}
	convolution_param {
		num_output: 8
		pad: 1
		kernel_size: 3
		stride: 1
		bias_term: true
		weight_filler {
			type: "xavier"
		}
		bias_filler {
			type: "constant"
			value: 0
		}
	}
}
layer {
	name: "dectction_moudle_five_loc_perm"
	type: "Permute"
	bottom: "dectction_moudle_five_loc"
	top: "dectction_moudle_five_loc_perm"
	permute_param {
		order: 0
		order: 2
		order: 3
		order: 1
	}
}
layer {
	name: "dectction_moudle_five_loc_flat"
	type: "Flatten"
	bottom: "dectction_moudle_five_loc_perm"
	top: "dectction_moudle_five_loc_flat"
	flatten_param {
		axis: 1
	}
}

layer {
	name: "dectction_moudle_five_conf"
	type: "Convolution"
	bottom: "dectction_moudle_five"
	top: "dectction_moudle_five_conf"
	param {
		lr_mult: 1
		decay_mult: 1
	}
	param {
		lr_mult: 2
		decay_mult: 0
	}
	convolution_param {
		num_output: 4
		pad: 1
		kernel_size: 3
		stride: 1
		bias_term: true
		weight_filler {
			type: "xavier"
		}
		bias_filler {
			type: "constant"
			value: 0
		}
	}
}
layer {
	name: "dectction_moudle_five_conf_concat_perm"
	type: "Permute"
	bottom: "dectction_moudle_five_conf"
	top: "dectction_moudle_five_conf_concat_perm"
	permute_param {
		order: 0
		order: 2
		order: 3
		order: 1
	}
}
layer {
	name: "dectction_moudle_five_conf_concat_flat"
	type: "Flatten"
	bottom: "dectction_moudle_five_conf_concat_perm"
	top: "dectction_moudle_five_conf_concat_flat"
	flatten_param {
		axis: 1
	}
}

layer {
	name: "dectction_moudle_five_blur"
	type: "Convolution"
	bottom: "dectction_moudle_five"
	top: "dectction_moudle_five_blur"
	param {
		lr_mult: 1.0
		decay_mult: 1.0
	}
	param {
		lr_mult: 2.0
		decay_mult: 0.0
	}
	convolution_param {
		num_output: 6
		kernel_size: 1
		weight_filler {
			type: "msra"
		}
		bias_filler {
			type: "constant"
			value: 0.0
		}
	}
}
layer {
	name: "dectction_moudle_five_blur_perm"
	type: "Permute"
	bottom: "dectction_moudle_five_blur"
	top: "dectction_moudle_five_blur_perm"
	permute_param {
		order: 0
		order: 2
		order: 3
		order: 1
	}
}
layer {
	name: "dectction_moudle_five_blur_flat"
	type: "Flatten"
	bottom: "dectction_moudle_five_blur_perm"
	top: "dectction_moudle_five_blur_flat"
	flatten_param {
		axis: 1
	}
}
layer {
	name: "dectction_moudle_five_occlu"
	type: "Convolution"
	bottom: "dectction_moudle_five"
	top: "dectction_moudle_five_occlu"
	param {
		lr_mult: 1.0
		decay_mult: 1.0
	}
	param {
		lr_mult: 2.0
		decay_mult: 0.0
	}
	convolution_param {
		num_output: 6
		kernel_size: 1
		weight_filler {
			type: "msra"
		}
		bias_filler {
			type: "constant"
			value: 0.0
		}
	}
}
layer {
	name: "dectction_moudle_five_occlu_perm"
	type: "Permute"
	bottom: "dectction_moudle_five_occlu"
	top: "dectction_moudle_five_occlu_perm"
	permute_param {
		order: 0
		order: 2
		order: 3
		order: 1
	}
}
layer {
	name: "dectction_moudle_five_occlu_flat"
	type: "Flatten"
	bottom: "dectction_moudle_five_occlu_perm"
	top: "dectction_moudle_five_occlu_flat"
	flatten_param {
		axis: 1
	}
}
############################################################
#######################priorBox moudle six ################
############################################################
layer {
	name: "dectction_moudle_six_priorbox"
	type: "PriorBox"
	bottom: "dectction_moudle_six"
	bottom: "data"
	top: "dectction_moudle_six_priorbox"
	prior_box_param {
		min_size: 256.0
		max_size: 512.0
		flip: true
		clip: false
		variance: 0.1
		variance: 0.1
		variance: 0.2
		variance: 0.2
		offset: 0.5
	}
}

layer {
	name: "dectction_moudle_six_loc"
	type: "Convolution"
	bottom: "dectction_moudle_six"
	top: "dectction_moudle_six_loc"
	param {
		lr_mult: 1
		decay_mult: 1
	}
	param {
		lr_mult: 2
		decay_mult: 0
	}
	convolution_param {
		num_output: 8
		pad: 1
		kernel_size: 3
		stride: 1
		bias_term: true
		weight_filler {
			type: "xavier"
		}
		bias_filler {
			type: "constant"
			value: 0
		}
	}
}
layer {
	name: "dectction_moudle_six_loc_perm"
	type: "Permute"
	bottom: "dectction_moudle_six_loc"
	top: "dectction_moudle_six_loc_perm"
	permute_param {
		order: 0
		order: 2
		order: 3
		order: 1
	}
}
layer {
	name: "dectction_moudle_six_loc_flat"
	type: "Flatten"
	bottom: "dectction_moudle_six_loc_perm"
	top: "dectction_moudle_six_loc_flat"
	flatten_param {
		axis: 1
	}
}

layer {
	name: "dectction_moudle_six_conf"
	type: "Convolution"
	bottom: "dectction_moudle_six"
	top: "dectction_moudle_six_conf"
	param {
		lr_mult: 1
		decay_mult: 1
	}
	param {
		lr_mult: 2
		decay_mult: 0
	}
	convolution_param {
		num_output: 4
		pad: 1
		kernel_size: 3
		stride: 1
		bias_term: true
		weight_filler {
			type: "xavier"
		}
		bias_filler {
			type: "constant"
			value: 0
		}
	}
}
layer {
	name: "dectction_moudle_six_conf_concat_perm"
	type: "Permute"
	bottom: "dectction_moudle_six_conf"
	top: "dectction_moudle_six_conf_concat_perm"
	permute_param {
		order: 0
		order: 2
		order: 3
		order: 1
	}
}
layer {
	name: "dectction_moudle_six_conf_concat_flat"
	type: "Flatten"
	bottom: "dectction_moudle_six_conf_concat_perm"
	top: "dectction_moudle_six_conf_concat_flat"
	flatten_param {
		axis: 1
	}
}

layer {
	name: "dectction_moudle_six_blur"
	type: "Convolution"
	bottom: "dectction_moudle_six"
	top: "dectction_moudle_six_blur"
	param {
		lr_mult: 1.0
		decay_mult: 1.0
	}
	param {
		lr_mult: 2.0
		decay_mult: 0.0
	}
	convolution_param {
		num_output: 6
		kernel_size: 1
		weight_filler {
			type: "msra"
		}
		bias_filler {
			type: "constant"
			value: 0.0
		}
	}
}
layer {
	name: "dectction_moudle_six_blur_perm"
	type: "Permute"
	bottom: "dectction_moudle_six_blur"
	top: "dectction_moudle_six_blur_perm"
	permute_param {
		order: 0
		order: 2
		order: 3
		order: 1
	}
}
layer {
	name: "dectction_moudle_six_blur_flat"
	type: "Flatten"
	bottom: "dectction_moudle_six_blur_perm"
	top: "dectction_moudle_six_blur_flat"
	flatten_param {
		axis: 1
	}
}
layer {
	name: "dectction_moudle_six_occlu"
	type: "Convolution"
	bottom: "dectction_moudle_six"
	top: "dectction_moudle_six_occlu"
	param {
		lr_mult: 1.0
		decay_mult: 1.0
	}
	param {
		lr_mult: 2.0
		decay_mult: 0.0
	}
	convolution_param {
		num_output: 6
		kernel_size: 1
		weight_filler {
			type: "msra"
		}
		bias_filler {
			type: "constant"
			value: 0.0
		}
	}
}
layer {
	name: "dectction_moudle_six_occlu_perm"
	type: "Permute"
	bottom: "dectction_moudle_six_occlu"
	top: "dectction_moudle_six_occlu_perm"
	permute_param {
		order: 0
		order: 2
		order: 3
		order: 1
	}
}
layer {
	name: "dectction_moudle_six_occlu_flat"
	type: "Flatten"
	bottom: "dectction_moudle_six_occlu_perm"
	top: "dectction_moudle_six_occlu_flat"
	flatten_param {
		axis: 1
	}
}

############################################################
#######################priorBox moudle seven ###############
############################################################
layer {
	name: "dectction_moudle_seven_priorbox"
	type: "PriorBox"
	bottom: "dectction_moudle_seven"
	bottom: "data"
	top: "dectction_moudle_seven_priorbox"
	prior_box_param {
		min_size: 128.0
		max_size: 256.0
		flip: true
		clip: false
		variance: 0.1
		variance: 0.1
		variance: 0.2
		variance: 0.2
		offset: 0.5
	}
}

layer {
	name: "dectction_moudle_seven_loc"
	type: "Convolution"
	bottom: "dectction_moudle_seven"
	top: "dectction_moudle_seven_loc"
	param {
		lr_mult: 1
		decay_mult: 1
	}
	param {
		lr_mult: 2
		decay_mult: 0
	}
	convolution_param {
		num_output: 8
		pad: 1
		kernel_size: 3
		stride: 1
		bias_term: true
		weight_filler {
			type: "xavier"
		}
		bias_filler {
			type: "constant"
			value: 0
		}
	}
}
layer {
	name: "dectction_moudle_seven_loc_perm"
	type: "Permute"
	bottom: "dectction_moudle_seven_loc"
	top: "dectction_moudle_seven_loc_perm"
	permute_param {
		order: 0
		order: 2
		order: 3
		order: 1
	}
}
layer {
	name: "dectction_moudle_seven_loc_flat"
	type: "Flatten"
	bottom: "dectction_moudle_seven_loc_perm"
	top: "dectction_moudle_seven_loc_flat"
	flatten_param {
		axis: 1
	}
}

layer {
	name: "dectction_moudle_seven_conf"
	type: "Convolution"
	bottom: "dectction_moudle_seven"
	top: "dectction_moudle_seven_conf"
	param {
		lr_mult: 1
		decay_mult: 1
	}
	param {
		lr_mult: 2
		decay_mult: 0
	}
	convolution_param {
		num_output: 4
		pad: 1
		kernel_size: 3
		stride: 1
		bias_term: true
		weight_filler {
			type: "xavier"
		}
		bias_filler {
			type: "constant"
			value: 0
		}
	}
}
layer {
	name: "dectction_moudle_seven_conf_concat_perm"
	type: "Permute"
	bottom: "dectction_moudle_seven_conf"
	top: "dectction_moudle_seven_conf_concat_perm"
	permute_param {
		order: 0
		order: 2
		order: 3
		order: 1
	}
}
layer {
	name: "dectction_moudle_seven_conf_concat_flat"
	type: "Flatten"
	bottom: "dectction_moudle_seven_conf_concat_perm"
	top: "dectction_moudle_seven_conf_concat_flat"
	flatten_param {
		axis: 1
	}
}

layer {
	name: "dectction_moudle_seven_blur"
	type: "Convolution"
	bottom: "dectction_moudle_seven"
	top: "dectction_moudle_seven_blur"
	param {
		lr_mult: 1.0
		decay_mult: 1.0
	}
	param {
		lr_mult: 2.0
		decay_mult: 0.0
	}
	convolution_param {
		num_output: 6
		kernel_size: 1
		weight_filler {
			type: "msra"
		}
		bias_filler {
			type: "constant"
			value: 0.0
		}
	}
}
layer {
	name: "dectction_moudle_seven_blur_perm"
	type: "Permute"
	bottom: "dectction_moudle_seven_blur"
	top: "dectction_moudle_seven_blur_perm"
	permute_param {
		order: 0
		order: 2
		order: 3
		order: 1
	}
}
layer {
	name: "dectction_moudle_seven_blur_flat"
	type: "Flatten"
	bottom: "dectction_moudle_seven_blur_perm"
	top: "dectction_moudle_seven_blur_flat"
	flatten_param {
		axis: 1
	}
}
layer {
	name: "dectction_moudle_seven_occlu"
	type: "Convolution"
	bottom: "dectction_moudle_seven"
	top: "dectction_moudle_seven_occlu"
	param {
		lr_mult: 1.0
		decay_mult: 1.0
	}
	param {
		lr_mult: 2.0
		decay_mult: 0.0
	}
	convolution_param {
		num_output: 6
		kernel_size: 1
		weight_filler {
			type: "msra"
		}
		bias_filler {
			type: "constant"
			value: 0.0
		}
	}
}
layer {
	name: "dectction_moudle_seven_occlu_perm"
	type: "Permute"
	bottom: "dectction_moudle_seven_occlu"
	top: "dectction_moudle_seven_occlu_perm"
	permute_param {
		order: 0
		order: 2
		order: 3
		order: 1
	}
}
layer {
	name: "dectction_moudle_seven_occlu_flat"
	type: "Flatten"
	bottom: "dectction_moudle_seven_occlu_perm"
	top: "dectction_moudle_seven_occlu_flat"
	flatten_param {
		axis: 1
	}
}
################################################
layer {
	name: "mbox_priorbox"
	type: "Concat"
	bottom: "dectction_moudle_one_priorbox"
	bottom: "dectction_moudle_two_priorbox"
	bottom: "dectction_moudle_four_priorbox"
	bottom: "dectction_moudle_five_priorbox"
	bottom: "dectction_moudle_six_priorbox"
	bottom: "dectction_moudle_seven_priorbox"
	top: "mbox_priorbox"
	concat_param {
		axis: 2
	}
}

layer {
	name: "mbox_loc"
	type: "Concat"
	bottom: "dectction_moudle_one_loc_flat"
	bottom: "dectction_moudle_two_loc_flat"
	bottom: "dectction_moudle_four_loc_flat"
	bottom: "dectction_moudle_five_loc_flat"
	bottom: "dectction_moudle_six_loc_flat"
	bottom: "dectction_moudle_seven_loc_flat"
	top: "mbox_loc"
	concat_param {
		axis: 1
	}
}


layer {
	name: "mbox_conf"
	type: "Concat"
	bottom: "dectction_moudle_one_conf_concat_flat"
	bottom: "dectction_moudle_two_conf_concat_flat"
	bottom: "dectction_moudle_four_conf_concat_flat"
	bottom: "dectction_moudle_five_conf_concat_flat"
	bottom: "dectction_moudle_six_conf_concat_flat"
	bottom: "dectction_moudle_seven_conf_concat_flat"
	top: "mbox_conf"
	concat_param {
		axis: 1
	}
}
layer {
	name: "mbox_blur"
	type: "Concat"
	bottom: "dectction_moudle_one_blur_flat"
	bottom: "dectction_moudle_two_blur_flat"
	bottom: "dectction_moudle_four_blur_flat"
	bottom: "dectction_moudle_five_blur_flat"
	bottom: "dectction_moudle_six_blur_flat"
	bottom: "dectction_moudle_seven_blur_flat"
	top: "mbox_blur"
	concat_param {
		axis: 1
	}
}

layer {
	name: "mbox_occlu"
	type: "Concat"
	bottom: "dectction_moudle_one_occlu_flat"
	bottom: "dectction_moudle_two_occlu_flat"
	bottom: "dectction_moudle_four_occlu_flat"
	bottom: "dectction_moudle_five_occlu_flat"
	bottom: "dectction_moudle_six_occlu_flat"
	bottom: "dectction_moudle_seven_occlu_flat"
	top: "mbox_occlu"
	concat_param {
		axis: 1
	}
}

layer {
	name: "mbox_conf_reshape"
	type: "Reshape"
	bottom: "mbox_conf"
	top: "mbox_conf_reshape"
	reshape_param {
		shape {
			dim: 0
			dim: -1
			dim: 2
		}
	}
}
layer {
	name: "mbox_conf_softmax"
	type: "Softmax"
	bottom: "mbox_conf_reshape"
	top: "mbox_conf_softmax"
	softmax_param {
		axis: 2
	}
}
layer {
	name: "mbox_conf_flatten"
	type: "Flatten"
	bottom: "mbox_conf_softmax"
	top: "mbox_conf_flatten"
	flatten_param {
		axis: 1
	}
}
layer {
	name: "mbox_blur_reshape"
	type: "Reshape"
	bottom: "mbox_blur"
	top: "mbox_blur_reshape"
	reshape_param {
		shape {
			dim: 0
			dim: -1
			dim: 3
		}
	}
}
layer {
	name: "mbox_blur_softmax"
	type: "Softmax"
	bottom: "mbox_blur_reshape"
	top: "mbox_blur_softmax"
	softmax_param {
		axis: 2
	}
}
layer {
	name: "mbox_blur_flatten"
	type: "Flatten"
	bottom: "mbox_blur_softmax"
	top: "mbox_blur_flatten"
	flatten_param {
		axis: 1
	}
}
layer {
	name: "mbox_occlu_reshape"
	type: "Reshape"
	bottom: "mbox_occlu"
	top: "mbox_occlu_reshape"
	reshape_param {
		shape {
			dim: 0
			dim: -1
			dim: 3
		}
	}
}
layer {
	name: "mbox_occlu_softmax"
	type: "Softmax"
	bottom: "mbox_occlu_reshape"
	top: "mbox_occlu_softmax"
	softmax_param {
		axis: 2
	}
}
layer {
	name: "mbox_occlu_flatten"
	type: "Flatten"
	bottom: "mbox_occlu_softmax"
	top: "mbox_occlu_flatten"
	flatten_param {
		axis: 1
	}
}

layer {
	name: "detection_out"
	type: "DetectionOutput"
	bottom: "mbox_loc"
	bottom: "mbox_conf_flatten"
	bottom: "mbox_priorbox"
	bottom: "mbox_blur_flatten"
	bottom: "mbox_occlu_flatten"
	top: "detection_out"
	include {
	phase: TEST
	}
	detection_output_param {
		attri_type: FACE
		num_classes: 2
		num_blur: 3
		num_occlusion: 3
		share_location: true
		background_label_id: 0
		nms_param {
			nms_threshold: 0.55
			top_k: 50
		}
		code_type: CENTER_SIZE
		keep_top_k: 50
		confidence_threshold: 0.25
	}
}
layer {
	name: "detection_eval"
	type: "DetectionEvaluate"
	bottom: "detection_out"
	bottom: "label"
	top: "detection_eval"
	include {
		phase: TEST
	}
	detection_evaluate_param {
	    attri_type: FACE
		num_classes: 2
		background_label_id: 0
		overlap_threshold: 0.5
		evaluate_difficult_gt: false
	}
}
