name: "DeepanoFace"
input: "data"
input_shape {
  dim: 1
  dim: 3
  dim: 320
  dim: 320
}
layer {
  name: "Conv"
  type: "Convolution"
  bottom: "data"
  top: "Conv"
  param {
    lr_mult: 1
    decay_mult: 1
  }
  convolution_param {
    num_output: 32
    bias_term: false
    pad: 1
    kernel_size: 3
    stride: 2
    weight_filler {
      type: "msra"
    }
  }
}
layer {
  name: "Conv/bn"
  type: "BatchNorm"
  bottom: "Conv"
  top: "Conv"
  param {
    lr_mult: 0
    decay_mult: 0
  }
  param {
    lr_mult: 0
    decay_mult: 0
  }
  param {
    lr_mult: 0
    decay_mult: 0
  }
  batch_norm_param {
    eps: 0.001
  }
}
layer {
  name: "Conv/scale"
  type: "Scale"
  bottom: "Conv"
  top: "Conv"
  param {
    lr_mult: 1
    decay_mult: 0
  }
  param {
    lr_mult: 2
    decay_mult: 0
  }
  scale_param {
    filler {
      value: 1
    }
    bias_term: true
    bias_filler {
      value: 0
    }
  }
}
layer {
  name: "Conv/relu"
  type: "ReLU"
  bottom: "Conv"
  top: "Conv"
}
layer {
  name: "conv/depthwise"
  type: "Convolution"
  bottom: "Conv"
  top: "conv/depthwise"
  param {
    lr_mult: 1
    decay_mult: 1
  }
  convolution_param {
    num_output: 32
    bias_term: false
    pad: 1
    kernel_size: 3
    group: 32
    weight_filler {
      type: "msra"
    }
  }
}
layer {
  name: "conv/depthwise/bn"
  type: "BatchNorm"
  bottom: "conv/depthwise"
  top: "conv/depthwise"
  param {
    lr_mult: 0
    decay_mult: 0
  }
  param {
    lr_mult: 0
    decay_mult: 0
  }
  param {
    lr_mult: 0
    decay_mult: 0
  }
  batch_norm_param {
    eps: 0.001
  }
}
layer {
  name: "conv/depthwise/scale"
  type: "Scale"
  bottom: "conv/depthwise"
  top: "conv/depthwise"
  param {
    lr_mult: 1
    decay_mult: 0
  }
  param {
    lr_mult: 2
    decay_mult: 0
  }
  scale_param {
    filler {
      value: 1
    }
    bias_term: true
    bias_filler {
      value: 0
    }
  }
}
layer {
  name: "conv/depthwise/relu"
  type: "ReLU"
  bottom: "conv/depthwise"
  top: "conv/depthwise"
}
layer {
  name: "conv/project"
  type: "Convolution"
  bottom: "conv/depthwise"
  top: "conv/project"
  param {
    lr_mult: 1
    decay_mult: 1
  }
  convolution_param {
    num_output: 16
    bias_term: false
    kernel_size: 1
    weight_filler {
      type: "msra"
    }
  }
}
layer {
  name: "conv/project/bn"
  type: "BatchNorm"
  bottom: "conv/project"
  top: "conv/project"
  param {
    lr_mult: 0
    decay_mult: 0
  }
  param {
    lr_mult: 0
    decay_mult: 0
  }
  param {
    lr_mult: 0
    decay_mult: 0
  }
  batch_norm_param {
    eps: 0.001
  }
}
layer {
  name: "conv/project/scale"
  type: "Scale"
  bottom: "conv/project"
  top: "conv/project"
  param {
    lr_mult: 1
    decay_mult: 0
  }
  param {
    lr_mult: 2
    decay_mult: 0
  }
  scale_param {
    filler {
      value: 1
    }
    bias_term: true
    bias_filler {
      value: 0
    }
  }
}
layer {
  name: "conv_1/expand"
  type: "Convolution"
  bottom: "conv/project"
  top: "conv_1/expand"
  param {
    lr_mult: 1
    decay_mult: 1
  }
  convolution_param {
    num_output: 96
    bias_term: false
    kernel_size: 1
    weight_filler {
      type: "msra"
    }
  }
}
layer {
  name: "conv_1/expand/bn"
  type: "BatchNorm"
  bottom: "conv_1/expand"
  top: "conv_1/expand"
  param {
    lr_mult: 0
    decay_mult: 0
  }
  param {
    lr_mult: 0
    decay_mult: 0
  }
  param {
    lr_mult: 0
    decay_mult: 0
  }
  batch_norm_param {
    eps: 0.001
  }
}
layer {
  name: "conv_1/expand/scale"
  type: "Scale"
  bottom: "conv_1/expand"
  top: "conv_1/expand"
  param {
    lr_mult: 1
    decay_mult: 0
  }
  param {
    lr_mult: 2
    decay_mult: 0
  }
  scale_param {
    filler {
      value: 1
    }
    bias_term: true
    bias_filler {
      value: 0
    }
  }
}
layer {
  name: "conv_1/expand/relu"
  type: "ReLU"
  bottom: "conv_1/expand"
  top: "conv_1/expand"
}
layer {
  name: "conv_1/depthwise"
  type: "Convolution"
  bottom: "conv_1/expand"
  top: "conv_1/depthwise"
  param {
    lr_mult: 1
    decay_mult: 1
  }
  convolution_param {
    num_output: 96
    bias_term: false
    pad: 1
    kernel_size: 3
    group: 96
    stride: 2
    weight_filler {
      type: "msra"
    }
  }
}
layer {
  name: "conv_1/depthwise/bn"
  type: "BatchNorm"
  bottom: "conv_1/depthwise"
  top: "conv_1/depthwise"
  param {
    lr_mult: 0
    decay_mult: 0
  }
  param {
    lr_mult: 0
    decay_mult: 0
  }
  param {
    lr_mult: 0
    decay_mult: 0
  }
  batch_norm_param {
    eps: 0.001
  }
}
layer {
  name: "conv_1/depthwise/scale"
  type: "Scale"
  bottom: "conv_1/depthwise"
  top: "conv_1/depthwise"
  param {
    lr_mult: 1
    decay_mult: 0
  }
  param {
    lr_mult: 2
    decay_mult: 0
  }
  scale_param {
    filler {
      value: 1
    }
    bias_term: true
    bias_filler {
      value: 0
    }
  }
}
layer {
  name: "conv_1/depthwise/relu"
  type: "ReLU"
  bottom: "conv_1/depthwise"
  top: "conv_1/depthwise"
}
layer {
  name: "conv_1/project"
  type: "Convolution"
  bottom: "conv_1/depthwise"
  top: "conv_1/project"
  param {
    lr_mult: 1
    decay_mult: 1
  }
  convolution_param {
    num_output: 24
    bias_term: false
    kernel_size: 1
    weight_filler {
      type: "msra"
    }
  }
}
layer {
  name: "conv_1/project/bn"
  type: "BatchNorm"
  bottom: "conv_1/project"
  top: "conv_1/project"
  param {
    lr_mult: 0
    decay_mult: 0
  }
  param {
    lr_mult: 0
    decay_mult: 0
  }
  param {
    lr_mult: 0
    decay_mult: 0
  }
  batch_norm_param {
    eps: 0.001
  }
}
layer {
  name: "conv_1/project/scale"
  type: "Scale"
  bottom: "conv_1/project"
  top: "conv_1/project"
  param {
    lr_mult: 1
    decay_mult: 0
  }
  param {
    lr_mult: 2
    decay_mult: 0
  }
  scale_param {
    filler {
      value: 1
    }
    bias_term: true
    bias_filler {
      value: 0
    }
  }
}
layer {
  name: "conv_2/expand"
  type: "Convolution"
  bottom: "conv_1/project"
  top: "conv_2/expand"
  param {
    lr_mult: 1
    decay_mult: 1
  }
  convolution_param {
    num_output: 144
    bias_term: false
    kernel_size: 1
    weight_filler {
      type: "msra"
    }
  }
}
layer {
  name: "conv_2/expand/bn"
  type: "BatchNorm"
  bottom: "conv_2/expand"
  top: "conv_2/expand"
  param {
    lr_mult: 0
    decay_mult: 0
  }
  param {
    lr_mult: 0
    decay_mult: 0
  }
  param {
    lr_mult: 0
    decay_mult: 0
  }
  batch_norm_param {
    eps: 0.001
  }
}
layer {
  name: "conv_2/expand/scale"
  type: "Scale"
  bottom: "conv_2/expand"
  top: "conv_2/expand"
  param {
    lr_mult: 1
    decay_mult: 0
  }
  param {
    lr_mult: 2
    decay_mult: 0
  }
  scale_param {
    filler {
      value: 1
    }
    bias_term: true
    bias_filler {
      value: 0
    }
  }
}
layer {
  name: "conv_2/expand/relu"
  type: "ReLU"
  bottom: "conv_2/expand"
  top: "conv_2/expand"
}
layer {
  name: "conv_2/depthwise"
  type: "Convolution"
  bottom: "conv_2/expand"
  top: "conv_2/depthwise"
  param {
    lr_mult: 1
    decay_mult: 1
  }
  convolution_param {
    num_output: 144
    bias_term: false
    pad: 1
    kernel_size: 3
    group: 144
    weight_filler {
      type: "msra"
    }
  }
}
layer {
  name: "conv_2/depthwise/bn"
  type: "BatchNorm"
  bottom: "conv_2/depthwise"
  top: "conv_2/depthwise"
  param {
    lr_mult: 0
    decay_mult: 0
  }
  param {
    lr_mult: 0
    decay_mult: 0
  }
  param {
    lr_mult: 0
    decay_mult: 0
  }
  batch_norm_param {
    eps: 0.001
  }
}
layer {
  name: "conv_2/depthwise/scale"
  type: "Scale"
  bottom: "conv_2/depthwise"
  top: "conv_2/depthwise"
  param {
    lr_mult: 1
    decay_mult: 0
  }
  param {
    lr_mult: 2
    decay_mult: 0
  }
  scale_param {
    filler {
      value: 1
    }
    bias_term: true
    bias_filler {
      value: 0
    }
  }
}
layer {
  name: "conv_2/depthwise/relu"
  type: "ReLU"
  bottom: "conv_2/depthwise"
  top: "conv_2/depthwise"
}
layer {
  name: "conv_2/project"
  type: "Convolution"
  bottom: "conv_2/depthwise"
  top: "conv_2/project"
  param {
    lr_mult: 1
    decay_mult: 1
  }
  convolution_param {
    num_output: 24
    bias_term: false
    kernel_size: 1
    weight_filler {
      type: "msra"
    }
  }
}
layer {
  name: "conv_2/project/bn"
  type: "BatchNorm"
  bottom: "conv_2/project"
  top: "conv_2/project"
  param {
    lr_mult: 0
    decay_mult: 0
  }
  param {
    lr_mult: 0
    decay_mult: 0
  }
  param {
    lr_mult: 0
    decay_mult: 0
  }
  batch_norm_param {
    eps: 0.001
  }
}
layer {
  name: "conv_2/project/scale"
  type: "Scale"
  bottom: "conv_2/project"
  top: "conv_2/project"
  param {
    lr_mult: 1
    decay_mult: 0
  }
  param {
    lr_mult: 2
    decay_mult: 0
  }
  scale_param {
    filler {
      value: 1
    }
    bias_term: true
    bias_filler {
      value: 0
    }
  }
}
layer {
  name: "conv_2/sum"
  type: "Eltwise"
  bottom: "conv_1/project"
  bottom: "conv_2/project"
  top: "conv_2"
}
layer {
  name: "conv_3/expand"
  type: "Convolution"
  bottom: "conv_2"
  top: "conv_3/expand"
  param {
    lr_mult: 1
    decay_mult: 1
  }
  convolution_param {
    num_output: 144
    bias_term: false
    kernel_size: 1
    weight_filler {
      type: "msra"
    }
  }
}
layer {
  name: "conv_3/expand/bn"
  type: "BatchNorm"
  bottom: "conv_3/expand"
  top: "conv_3/expand"
  param {
    lr_mult: 0
    decay_mult: 0
  }
  param {
    lr_mult: 0
    decay_mult: 0
  }
  param {
    lr_mult: 0
    decay_mult: 0
  }
  batch_norm_param {
    eps: 0.001
  }
}
layer {
  name: "conv_3/expand/scale"
  type: "Scale"
  bottom: "conv_3/expand"
  top: "conv_3/expand"
  param {
    lr_mult: 1
    decay_mult: 0
  }
  param {
    lr_mult: 2
    decay_mult: 0
  }
  scale_param {
    filler {
      value: 1
    }
    bias_term: true
    bias_filler {
      value: 0
    }
  }
}
layer {
  name: "conv_3/expand/relu"
  type: "ReLU"
  bottom: "conv_3/expand"
  top: "conv_3/expand"
}
layer {
  name: "conv_3/depthwise"
  type: "Convolution"
  bottom: "conv_3/expand"
  top: "conv_3/depthwise"
  param {
    lr_mult: 1
    decay_mult: 1
  }
  convolution_param {
    num_output: 144
    bias_term: false
    pad: 1
    kernel_size: 3
    group: 144
    stride: 2
    weight_filler {
      type: "msra"
    }
  }
}
layer {
  name: "conv_3/depthwise/bn"
  type: "BatchNorm"
  bottom: "conv_3/depthwise"
  top: "conv_3/depthwise"
  param {
    lr_mult: 0
    decay_mult: 0
  }
  param {
    lr_mult: 0
    decay_mult: 0
  }
  param {
    lr_mult: 0
    decay_mult: 0
  }
  batch_norm_param {
    eps: 0.001
  }
}
layer {
  name: "conv_3/depthwise/scale"
  type: "Scale"
  bottom: "conv_3/depthwise"
  top: "conv_3/depthwise"
  param {
    lr_mult: 1
    decay_mult: 0
  }
  param {
    lr_mult: 2
    decay_mult: 0
  }
  scale_param {
    filler {
      value: 1
    }
    bias_term: true
    bias_filler {
      value: 0
    }
  }
}
layer {
  name: "conv_3/depthwise/relu"
  type: "ReLU"
  bottom: "conv_3/depthwise"
  top: "conv_3/depthwise"
}
layer {
  name: "conv_3/project"
  type: "Convolution"
  bottom: "conv_3/depthwise"
  top: "conv_3/project"
  param {
    lr_mult: 1
    decay_mult: 1
  }
  convolution_param {
    num_output: 32
    bias_term: false
    kernel_size: 1
    weight_filler {
      type: "msra"
    }
  }
}
layer {
  name: "conv_3/project/bn"
  type: "BatchNorm"
  bottom: "conv_3/project"
  top: "conv_3/project"
  param {
    lr_mult: 0
    decay_mult: 0
  }
  param {
    lr_mult: 0
    decay_mult: 0
  }
  param {
    lr_mult: 0
    decay_mult: 0
  }
  batch_norm_param {
    eps: 0.001
  }
}
layer {
  name: "conv_3/project/scale"
  type: "Scale"
  bottom: "conv_3/project"
  top: "conv_3/project"
  param {
    lr_mult: 1
    decay_mult: 0
  }
  param {
    lr_mult: 2
    decay_mult: 0
  }
  scale_param {
    filler {
      value: 1
    }
    bias_term: true
    bias_filler {
      value: 0
    }
  }
}
layer {
  name: "conv_4/expand"
  type: "Convolution"
  bottom: "conv_3/project"
  top: "conv_4/expand"
  param {
    lr_mult: 1
    decay_mult: 1
  }
  convolution_param {
    num_output: 192
    bias_term: false
    kernel_size: 1
    weight_filler {
      type: "msra"
    }
  }
}
layer {
  name: "conv_4/expand/bn"
  type: "BatchNorm"
  bottom: "conv_4/expand"
  top: "conv_4/expand"
  param {
    lr_mult: 0
    decay_mult: 0
  }
  param {
    lr_mult: 0
    decay_mult: 0
  }
  param {
    lr_mult: 0
    decay_mult: 0
  }
  batch_norm_param {
    eps: 0.001
  }
}
layer {
  name: "conv_4/expand/scale"
  type: "Scale"
  bottom: "conv_4/expand"
  top: "conv_4/expand"
  param {
    lr_mult: 1
    decay_mult: 0
  }
  param {
    lr_mult: 2
    decay_mult: 0
  }
  scale_param {
    filler {
      value: 1
    }
    bias_term: true
    bias_filler {
      value: 0
    }
  }
}
layer {
  name: "conv_4/expand/relu"
  type: "ReLU"
  bottom: "conv_4/expand"
  top: "conv_4/expand"
}
layer {
  name: "conv_4/depthwise"
  type: "Convolution"
  bottom: "conv_4/expand"
  top: "conv_4/depthwise"
  param {
    lr_mult: 1
    decay_mult: 1
  }
  convolution_param {
    num_output: 192
    bias_term: false
    pad: 1
    kernel_size: 3
    group: 192
    weight_filler {
      type: "msra"
    }
  }
}
layer {
  name: "conv_4/depthwise/bn"
  type: "BatchNorm"
  bottom: "conv_4/depthwise"
  top: "conv_4/depthwise"
  param {
    lr_mult: 0
    decay_mult: 0
  }
  param {
    lr_mult: 0
    decay_mult: 0
  }
  param {
    lr_mult: 0
    decay_mult: 0
  }
  batch_norm_param {
    eps: 0.001
  }
}
layer {
  name: "conv_4/depthwise/scale"
  type: "Scale"
  bottom: "conv_4/depthwise"
  top: "conv_4/depthwise"
  param {
    lr_mult: 1
    decay_mult: 0
  }
  param {
    lr_mult: 2
    decay_mult: 0
  }
  scale_param {
    filler {
      value: 1
    }
    bias_term: true
    bias_filler {
      value: 0
    }
  }
}
layer {
  name: "conv_4/depthwise/relu"
  type: "ReLU"
  bottom: "conv_4/depthwise"
  top: "conv_4/depthwise"
}
layer {
  name: "conv_4/project"
  type: "Convolution"
  bottom: "conv_4/depthwise"
  top: "conv_4/project"
  param {
    lr_mult: 1
    decay_mult: 1
  }
  convolution_param {
    num_output: 32
    bias_term: false
    kernel_size: 1
    weight_filler {
      type: "msra"
    }
  }
}
layer {
  name: "conv_4/project/bn"
  type: "BatchNorm"
  bottom: "conv_4/project"
  top: "conv_4/project"
  param {
    lr_mult: 0
    decay_mult: 0
  }
  param {
    lr_mult: 0
    decay_mult: 0
  }
  param {
    lr_mult: 0
    decay_mult: 0
  }
  batch_norm_param {
    eps: 0.001
  }
}
layer {
  name: "conv_4/project/scale"
  type: "Scale"
  bottom: "conv_4/project"
  top: "conv_4/project"
  param {
    lr_mult: 1
    decay_mult: 0
  }
  param {
    lr_mult: 2
    decay_mult: 0
  }
  scale_param {
    filler {
      value: 1
    }
    bias_term: true
    bias_filler {
      value: 0
    }
  }
}
layer {
  name: "conv_4/sum"
  type: "Eltwise"
  bottom: "conv_3/project"
  bottom: "conv_4/project"
  top: "conv_4"
}
layer {
  name: "conv_5/expand"
  type: "Convolution"
  bottom: "conv_4"
  top: "conv_5/expand"
  param {
    lr_mult: 1
    decay_mult: 1
  }
  convolution_param {
    num_output: 192
    bias_term: false
    kernel_size: 1
    weight_filler {
      type: "msra"
    }
  }
}
layer {
  name: "conv_5/expand/bn"
  type: "BatchNorm"
  bottom: "conv_5/expand"
  top: "conv_5/expand"
  param {
    lr_mult: 0
    decay_mult: 0
  }
  param {
    lr_mult: 0
    decay_mult: 0
  }
  param {
    lr_mult: 0
    decay_mult: 0
  }
  batch_norm_param {
    eps: 0.001
  }
}
layer {
  name: "conv_5/expand/scale"
  type: "Scale"
  bottom: "conv_5/expand"
  top: "conv_5/expand"
  param {
    lr_mult: 1
    decay_mult: 0
  }
  param {
    lr_mult: 2
    decay_mult: 0
  }
  scale_param {
    filler {
      value: 1
    }
    bias_term: true
    bias_filler {
      value: 0
    }
  }
}
layer {
  name: "conv_5/expand/relu"
  type: "ReLU"
  bottom: "conv_5/expand"
  top: "conv_5/expand"
}
layer {
  name: "conv_5/depthwise"
  type: "Convolution"
  bottom: "conv_5/expand"
  top: "conv_5/depthwise"
  param {
    lr_mult: 1
    decay_mult: 1
  }
  convolution_param {
    num_output: 192
    bias_term: false
    pad: 1
    kernel_size: 3
    group: 192
    weight_filler {
      type: "msra"
    }
  }
}
layer {
  name: "conv_5/depthwise/bn"
  type: "BatchNorm"
  bottom: "conv_5/depthwise"
  top: "conv_5/depthwise"
  param {
    lr_mult: 0
    decay_mult: 0
  }
  param {
    lr_mult: 0
    decay_mult: 0
  }
  param {
    lr_mult: 0
    decay_mult: 0
  }
  batch_norm_param {
    eps: 0.001
  }
}
layer {
  name: "conv_5/depthwise/scale"
  type: "Scale"
  bottom: "conv_5/depthwise"
  top: "conv_5/depthwise"
  param {
    lr_mult: 1
    decay_mult: 0
  }
  param {
    lr_mult: 2
    decay_mult: 0
  }
  scale_param {
    filler {
      value: 1
    }
    bias_term: true
    bias_filler {
      value: 0
    }
  }
}
layer {
  name: "conv_5/depthwise/relu"
  type: "ReLU"
  bottom: "conv_5/depthwise"
  top: "conv_5/depthwise"
}
layer {
  name: "conv_5/project"
  type: "Convolution"
  bottom: "conv_5/depthwise"
  top: "conv_5/project"
  param {
    lr_mult: 1
    decay_mult: 1
  }
  convolution_param {
    num_output: 32
    bias_term: false
    kernel_size: 1
    weight_filler {
      type: "msra"
    }
  }
}
layer {
  name: "conv_5/project/bn"
  type: "BatchNorm"
  bottom: "conv_5/project"
  top: "conv_5/project"
  param {
    lr_mult: 0
    decay_mult: 0
  }
  param {
    lr_mult: 0
    decay_mult: 0
  }
  param {
    lr_mult: 0
    decay_mult: 0
  }
  batch_norm_param {
    eps: 0.001
  }
}
layer {
  name: "conv_5/project/scale"
  type: "Scale"
  bottom: "conv_5/project"
  top: "conv_5/project"
  param {
    lr_mult: 1
    decay_mult: 0
  }
  param {
    lr_mult: 2
    decay_mult: 0
  }
  scale_param {
    filler {
      value: 1
    }
    bias_term: true
    bias_filler {
      value: 0
    }
  }
}
layer {
  name: "conv_5/sum"
  type: "Eltwise"
  bottom: "conv_4"
  bottom: "conv_5/project"
  top: "conv_5"
}
layer {
  name: "conv_6/expand"
  type: "Convolution"
  bottom: "conv_5"
  top: "conv_6/expand"
  param {
    lr_mult: 1
    decay_mult: 1
  }
  convolution_param {
    num_output: 192
    bias_term: false
    kernel_size: 1
    weight_filler {
      type: "msra"
    }
  }
}
layer {
  name: "conv_6/expand/bn"
  type: "BatchNorm"
  bottom: "conv_6/expand"
  top: "conv_6/expand"
  param {
    lr_mult: 0
    decay_mult: 0
  }
  param {
    lr_mult: 0
    decay_mult: 0
  }
  param {
    lr_mult: 0
    decay_mult: 0
  }
  batch_norm_param {
    eps: 0.001
  }
}
layer {
  name: "conv_6/expand/scale"
  type: "Scale"
  bottom: "conv_6/expand"
  top: "conv_6/expand"
  param {
    lr_mult: 1
    decay_mult: 0
  }
  param {
    lr_mult: 2
    decay_mult: 0
  }
  scale_param {
    filler {
      value: 1
    }
    bias_term: true
    bias_filler {
      value: 0
    }
  }
}
layer {
  name: "conv_6/expand/relu"
  type: "ReLU"
  bottom: "conv_6/expand"
  top: "conv_6/expand"
}
layer {
  name: "conv_6/depthwise"
  type: "Convolution"
  bottom: "conv_6/expand"
  top: "conv_6/depthwise"
  param {
    lr_mult: 1
    decay_mult: 1
  }
  convolution_param {
    num_output: 192
    bias_term: false
    pad: 1
    kernel_size: 3
    group: 192
    stride: 2
    weight_filler {
      type: "msra"
    }
  }
}
layer {
  name: "conv_6/depthwise/bn"
  type: "BatchNorm"
  bottom: "conv_6/depthwise"
  top: "conv_6/depthwise"
  param {
    lr_mult: 0
    decay_mult: 0
  }
  param {
    lr_mult: 0
    decay_mult: 0
  }
  param {
    lr_mult: 0
    decay_mult: 0
  }
  batch_norm_param {
    eps: 0.001
  }
}
layer {
  name: "conv_6/depthwise/scale"
  type: "Scale"
  bottom: "conv_6/depthwise"
  top: "conv_6/depthwise"
  param {
    lr_mult: 1
    decay_mult: 0
  }
  param {
    lr_mult: 2
    decay_mult: 0
  }
  scale_param {
    filler {
      value: 1
    }
    bias_term: true
    bias_filler {
      value: 0
    }
  }
}
layer {
  name: "conv_6/depthwise/relu"
  type: "ReLU"
  bottom: "conv_6/depthwise"
  top: "conv_6/depthwise"
}
layer {
  name: "conv_6/project"
  type: "Convolution"
  bottom: "conv_6/depthwise"
  top: "conv_6/project"
  param {
    lr_mult: 1
    decay_mult: 1
  }
  convolution_param {
    num_output: 64
    bias_term: false
    kernel_size: 1
    weight_filler {
      type: "msra"
    }
  }
}
layer {
  name: "conv_6/project/bn"
  type: "BatchNorm"
  bottom: "conv_6/project"
  top: "conv_6/project"
  param {
    lr_mult: 0
    decay_mult: 0
  }
  param {
    lr_mult: 0
    decay_mult: 0
  }
  param {
    lr_mult: 0
    decay_mult: 0
  }
  batch_norm_param {
    eps: 0.001
  }
}
layer {
  name: "conv_6/project/scale"
  type: "Scale"
  bottom: "conv_6/project"
  top: "conv_6/project"
  param {
    lr_mult: 1
    decay_mult: 0
  }
  param {
    lr_mult: 2
    decay_mult: 0
  }
  scale_param {
    filler {
      value: 1
    }
    bias_term: true
    bias_filler {
      value: 0
    }
  }
}
layer {
  name: "conv_7/expand"
  type: "Convolution"
  bottom: "conv_6/project"
  top: "conv_7/expand"
  param {
    lr_mult: 1
    decay_mult: 1
  }
  convolution_param {
    num_output: 384
    bias_term: false
    kernel_size: 1
    weight_filler {
      type: "msra"
    }
  }
}
layer {
  name: "conv_7/expand/bn"
  type: "BatchNorm"
  bottom: "conv_7/expand"
  top: "conv_7/expand"
  param {
    lr_mult: 0
    decay_mult: 0
  }
  param {
    lr_mult: 0
    decay_mult: 0
  }
  param {
    lr_mult: 0
    decay_mult: 0
  }
  batch_norm_param {
    eps: 0.001
  }
}
layer {
  name: "conv_7/expand/scale"
  type: "Scale"
  bottom: "conv_7/expand"
  top: "conv_7/expand"
  param {
    lr_mult: 1
    decay_mult: 0
  }
  param {
    lr_mult: 2
    decay_mult: 0
  }
  scale_param {
    filler {
      value: 1
    }
    bias_term: true
    bias_filler {
      value: 0
    }
  }
}
layer {
  name: "conv_7/expand/relu"
  type: "ReLU"
  bottom: "conv_7/expand"
  top: "conv_7/expand"
}
layer {
  name: "conv_7/depthwise"
  type: "Convolution"
  bottom: "conv_7/expand"
  top: "conv_7/depthwise"
  param {
    lr_mult: 1
    decay_mult: 1
  }
  convolution_param {
    num_output: 384
    bias_term: false
    pad: 1
    kernel_size: 3
    group: 384
    weight_filler {
      type: "msra"
    }
  }
}
layer {
  name: "conv_7/depthwise/bn"
  type: "BatchNorm"
  bottom: "conv_7/depthwise"
  top: "conv_7/depthwise"
  param {
    lr_mult: 0
    decay_mult: 0
  }
  param {
    lr_mult: 0
    decay_mult: 0
  }
  param {
    lr_mult: 0
    decay_mult: 0
  }
  batch_norm_param {
    eps: 0.001
  }
}
layer {
  name: "conv_7/depthwise/scale"
  type: "Scale"
  bottom: "conv_7/depthwise"
  top: "conv_7/depthwise"
  param {
    lr_mult: 1
    decay_mult: 0
  }
  param {
    lr_mult: 2
    decay_mult: 0
  }
  scale_param {
    filler {
      value: 1
    }
    bias_term: true
    bias_filler {
      value: 0
    }
  }
}
layer {
  name: "conv_7/depthwise/relu"
  type: "ReLU"
  bottom: "conv_7/depthwise"
  top: "conv_7/depthwise"
}
layer {
  name: "conv_7/project"
  type: "Convolution"
  bottom: "conv_7/depthwise"
  top: "conv_7/project"
  param {
    lr_mult: 1
    decay_mult: 1
  }
  convolution_param {
    num_output: 64
    bias_term: false
    kernel_size: 1
    weight_filler {
      type: "msra"
    }
  }
}
layer {
  name: "conv_7/project/bn"
  type: "BatchNorm"
  bottom: "conv_7/project"
  top: "conv_7/project"
  param {
    lr_mult: 0
    decay_mult: 0
  }
  param {
    lr_mult: 0
    decay_mult: 0
  }
  param {
    lr_mult: 0
    decay_mult: 0
  }
  batch_norm_param {
    eps: 0.001
  }
}
layer {
  name: "conv_7/project/scale"
  type: "Scale"
  bottom: "conv_7/project"
  top: "conv_7/project"
  param {
    lr_mult: 1
    decay_mult: 0
  }
  param {
    lr_mult: 2
    decay_mult: 0
  }
  scale_param {
    filler {
      value: 1
    }
    bias_term: true
    bias_filler {
      value: 0
    }
  }
}
layer {
  name: "conv_7/sum"
  type: "Eltwise"
  bottom: "conv_6/project"
  bottom: "conv_7/project"
  top: "conv_7"
}
layer {
  name: "conv_8/expand"
  type: "Convolution"
  bottom: "conv_7"
  top: "conv_8/expand"
  param {
    lr_mult: 1
    decay_mult: 1
  }
  convolution_param {
    num_output: 384
    bias_term: false
    kernel_size: 1
    weight_filler {
      type: "msra"
    }
  }
}
layer {
  name: "conv_8/expand/bn"
  type: "BatchNorm"
  bottom: "conv_8/expand"
  top: "conv_8/expand"
  param {
    lr_mult: 0
    decay_mult: 0
  }
  param {
    lr_mult: 0
    decay_mult: 0
  }
  param {
    lr_mult: 0
    decay_mult: 0
  }
  batch_norm_param {
    eps: 0.001
  }
}
layer {
  name: "conv_8/expand/scale"
  type: "Scale"
  bottom: "conv_8/expand"
  top: "conv_8/expand"
  param {
    lr_mult: 1
    decay_mult: 0
  }
  param {
    lr_mult: 2
    decay_mult: 0
  }
  scale_param {
    filler {
      value: 1
    }
    bias_term: true
    bias_filler {
      value: 0
    }
  }
}
layer {
  name: "conv_8/expand/relu"
  type: "ReLU"
  bottom: "conv_8/expand"
  top: "conv_8/expand"
}
layer {
  name: "conv_8/depthwise"
  type: "Convolution"
  bottom: "conv_8/expand"
  top: "conv_8/depthwise"
  param {
    lr_mult: 1
    decay_mult: 1
  }
  convolution_param {
    num_output: 384
    bias_term: false
    pad: 1
    kernel_size: 3
    group: 384
    weight_filler {
      type: "msra"
    }
  }
}
layer {
  name: "conv_8/depthwise/bn"
  type: "BatchNorm"
  bottom: "conv_8/depthwise"
  top: "conv_8/depthwise"
  param {
    lr_mult: 0
    decay_mult: 0
  }
  param {
    lr_mult: 0
    decay_mult: 0
  }
  param {
    lr_mult: 0
    decay_mult: 0
  }
  batch_norm_param {
    eps: 0.001
  }
}
layer {
  name: "conv_8/depthwise/scale"
  type: "Scale"
  bottom: "conv_8/depthwise"
  top: "conv_8/depthwise"
  param {
    lr_mult: 1
    decay_mult: 0
  }
  param {
    lr_mult: 2
    decay_mult: 0
  }
  scale_param {
    filler {
      value: 1
    }
    bias_term: true
    bias_filler {
      value: 0
    }
  }
}
layer {
  name: "conv_8/depthwise/relu"
  type: "ReLU"
  bottom: "conv_8/depthwise"
  top: "conv_8/depthwise"
}
layer {
  name: "conv_8/project"
  type: "Convolution"
  bottom: "conv_8/depthwise"
  top: "conv_8/project"
  param {
    lr_mult: 1
    decay_mult: 1
  }
  convolution_param {
    num_output: 64
    bias_term: false
    kernel_size: 1
    weight_filler {
      type: "msra"
    }
  }
}
layer {
  name: "conv_8/project/bn"
  type: "BatchNorm"
  bottom: "conv_8/project"
  top: "conv_8/project"
  param {
    lr_mult: 0
    decay_mult: 0
  }
  param {
    lr_mult: 0
    decay_mult: 0
  }
  param {
    lr_mult: 0
    decay_mult: 0
  }
  batch_norm_param {
    eps: 0.001
  }
}
layer {
  name: "conv_8/project/scale"
  type: "Scale"
  bottom: "conv_8/project"
  top: "conv_8/project"
  param {
    lr_mult: 1
    decay_mult: 0
  }
  param {
    lr_mult: 2
    decay_mult: 0
  }
  scale_param {
    filler {
      value: 1
    }
    bias_term: true
    bias_filler {
      value: 0
    }
  }
}
layer {
  name: "conv_8/sum"
  type: "Eltwise"
  bottom: "conv_7"
  bottom: "conv_8/project"
  top: "conv_8"
}
layer {
  name: "conv_9/expand"
  type: "Convolution"
  bottom: "conv_8"
  top: "conv_9/expand"
  param {
    lr_mult: 1
    decay_mult: 1
  }
  convolution_param {
    num_output: 384
    bias_term: false
    kernel_size: 1
    weight_filler {
      type: "msra"
    }
  }
}
layer {
  name: "conv_9/expand/bn"
  type: "BatchNorm"
  bottom: "conv_9/expand"
  top: "conv_9/expand"
  param {
    lr_mult: 0
    decay_mult: 0
  }
  param {
    lr_mult: 0
    decay_mult: 0
  }
  param {
    lr_mult: 0
    decay_mult: 0
  }
  batch_norm_param {
    eps: 0.001
  }
}
layer {
  name: "conv_9/expand/scale"
  type: "Scale"
  bottom: "conv_9/expand"
  top: "conv_9/expand"
  param {
    lr_mult: 1
    decay_mult: 0
  }
  param {
    lr_mult: 2
    decay_mult: 0
  }
  scale_param {
    filler {
      value: 1
    }
    bias_term: true
    bias_filler {
      value: 0
    }
  }
}
layer {
  name: "conv_9/expand/relu"
  type: "ReLU"
  bottom: "conv_9/expand"
  top: "conv_9/expand"
}
layer {
  name: "conv_9/depthwise"
  type: "Convolution"
  bottom: "conv_9/expand"
  top: "conv_9/depthwise"
  param {
    lr_mult: 1
    decay_mult: 1
  }
  convolution_param {
    num_output: 384
    bias_term: false
    pad: 1
    kernel_size: 3
    group: 384
    weight_filler {
      type: "msra"
    }
  }
}
layer {
  name: "conv_9/depthwise/bn"
  type: "BatchNorm"
  bottom: "conv_9/depthwise"
  top: "conv_9/depthwise"
  param {
    lr_mult: 0
    decay_mult: 0
  }
  param {
    lr_mult: 0
    decay_mult: 0
  }
  param {
    lr_mult: 0
    decay_mult: 0
  }
  batch_norm_param {
    eps: 0.001
  }
}
layer {
  name: "conv_9/depthwise/scale"
  type: "Scale"
  bottom: "conv_9/depthwise"
  top: "conv_9/depthwise"
  param {
    lr_mult: 1
    decay_mult: 0
  }
  param {
    lr_mult: 2
    decay_mult: 0
  }
  scale_param {
    filler {
      value: 1
    }
    bias_term: true
    bias_filler {
      value: 0
    }
  }
}
layer {
  name: "conv_9/depthwise/relu"
  type: "ReLU"
  bottom: "conv_9/depthwise"
  top: "conv_9/depthwise"
}
layer {
  name: "conv_9/project"
  type: "Convolution"
  bottom: "conv_9/depthwise"
  top: "conv_9/project"
  param {
    lr_mult: 1
    decay_mult: 1
  }
  convolution_param {
    num_output: 64
    bias_term: false
    kernel_size: 1
    weight_filler {
      type: "msra"
    }
  }
}
layer {
  name: "conv_9/project/bn"
  type: "BatchNorm"
  bottom: "conv_9/project"
  top: "conv_9/project"
  param {
    lr_mult: 0
    decay_mult: 0
  }
  param {
    lr_mult: 0
    decay_mult: 0
  }
  param {
    lr_mult: 0
    decay_mult: 0
  }
  batch_norm_param {
    eps: 0.001
  }
}
layer {
  name: "conv_9/project/scale"
  type: "Scale"
  bottom: "conv_9/project"
  top: "conv_9/project"
  param {
    lr_mult: 1
    decay_mult: 0
  }
  param {
    lr_mult: 2
    decay_mult: 0
  }
  scale_param {
    filler {
      value: 1
    }
    bias_term: true
    bias_filler {
      value: 0
    }
  }
}
layer {
  name: "conv_9/sum"
  type: "Eltwise"
  bottom: "conv_8"
  bottom: "conv_9/project"
  top: "conv_9"
}
layer {
  name: "conv_10/expand"
  type: "Convolution"
  bottom: "conv_9"
  top: "conv_10/expand"
  param {
    lr_mult: 1
    decay_mult: 1
  }
  convolution_param {
    num_output: 384
    bias_term: false
    kernel_size: 1
    weight_filler {
      type: "msra"
    }
  }
}
layer {
  name: "conv_10/expand/bn"
  type: "BatchNorm"
  bottom: "conv_10/expand"
  top: "conv_10/expand"
  param {
    lr_mult: 0
    decay_mult: 0
  }
  param {
    lr_mult: 0
    decay_mult: 0
  }
  param {
    lr_mult: 0
    decay_mult: 0
  }
  batch_norm_param {
    eps: 0.001
  }
}
layer {
  name: "conv_10/expand/scale"
  type: "Scale"
  bottom: "conv_10/expand"
  top: "conv_10/expand"
  param {
    lr_mult: 1
    decay_mult: 0
  }
  param {
    lr_mult: 2
    decay_mult: 0
  }
  scale_param {
    filler {
      value: 1
    }
    bias_term: true
    bias_filler {
      value: 0
    }
  }
}
layer {
  name: "conv_10/expand/relu"
  type: "ReLU"
  bottom: "conv_10/expand"
  top: "conv_10/expand"
}
layer {
  name: "conv_10/depthwise"
  type: "Convolution"
  bottom: "conv_10/expand"
  top: "conv_10/depthwise"
  param {
    lr_mult: 1
    decay_mult: 1
  }
  convolution_param {
    num_output: 384
    bias_term: false
    pad: 1
    kernel_size: 3
    group: 384
    weight_filler {
      type: "msra"
    }
  }
}
layer {
  name: "conv_10/depthwise/bn"
  type: "BatchNorm"
  bottom: "conv_10/depthwise"
  top: "conv_10/depthwise"
  param {
    lr_mult: 0
    decay_mult: 0
  }
  param {
    lr_mult: 0
    decay_mult: 0
  }
  param {
    lr_mult: 0
    decay_mult: 0
  }
  batch_norm_param {
    eps: 0.001
  }
}
layer {
  name: "conv_10/depthwise/scale"
  type: "Scale"
  bottom: "conv_10/depthwise"
  top: "conv_10/depthwise"
  param {
    lr_mult: 1
    decay_mult: 0
  }
  param {
    lr_mult: 2
    decay_mult: 0
  }
  scale_param {
    filler {
      value: 1
    }
    bias_term: true
    bias_filler {
      value: 0
    }
  }
}
layer {
  name: "conv_10/depthwise/relu"
  type: "ReLU"
  bottom: "conv_10/depthwise"
  top: "conv_10/depthwise"
}
layer {
  name: "conv_10/project"
  type: "Convolution"
  bottom: "conv_10/depthwise"
  top: "conv_10/project"
  param {
    lr_mult: 1
    decay_mult: 1
  }
  convolution_param {
    num_output: 96
    bias_term: false
    kernel_size: 1
    weight_filler {
      type: "msra"
    }
  }
}
layer {
  name: "conv_10/project/bn"
  type: "BatchNorm"
  bottom: "conv_10/project"
  top: "conv_10/project"
  param {
    lr_mult: 0
    decay_mult: 0
  }
  param {
    lr_mult: 0
    decay_mult: 0
  }
  param {
    lr_mult: 0
    decay_mult: 0
  }
  batch_norm_param {
    eps: 0.001
  }
}
layer {
  name: "conv_10/project/scale"
  type: "Scale"
  bottom: "conv_10/project"
  top: "conv_10/project"
  param {
    lr_mult: 1
    decay_mult: 0
  }
  param {
    lr_mult: 2
    decay_mult: 0
  }
  scale_param {
    filler {
      value: 1
    }
    bias_term: true
    bias_filler {
      value: 0
    }
  }
}
layer {
  name: "conv_11/expand"
  type: "Convolution"
  bottom: "conv_10/project"
  top: "conv_11/expand"
  param {
    lr_mult: 1
    decay_mult: 1
  }
  convolution_param {
    num_output: 576
    bias_term: false
    kernel_size: 1
    weight_filler {
      type: "msra"
    }
  }
}
layer {
  name: "conv_11/expand/bn"
  type: "BatchNorm"
  bottom: "conv_11/expand"
  top: "conv_11/expand"
  param {
    lr_mult: 0
    decay_mult: 0
  }
  param {
    lr_mult: 0
    decay_mult: 0
  }
  param {
    lr_mult: 0
    decay_mult: 0
  }
  batch_norm_param {
    eps: 0.001
  }
}
layer {
  name: "conv_11/expand/scale"
  type: "Scale"
  bottom: "conv_11/expand"
  top: "conv_11/expand"
  param {
    lr_mult: 1
    decay_mult: 0
  }
  param {
    lr_mult: 2
    decay_mult: 0
  }
  scale_param {
    filler {
      value: 1
    }
    bias_term: true
    bias_filler {
      value: 0
    }
  }
}
layer {
  name: "conv_11/expand/relu"
  type: "ReLU"
  bottom: "conv_11/expand"
  top: "conv_11/expand"
}
layer {
  name: "conv_11/depthwise"
  type: "Convolution"
  bottom: "conv_11/expand"
  top: "conv_11/depthwise"
  param {
    lr_mult: 1
    decay_mult: 1
  }
  convolution_param {
    num_output: 576
    bias_term: false
    pad: 1
    kernel_size: 3
    group: 576
    weight_filler {
      type: "msra"
    }
  }
}
layer {
  name: "conv_11/depthwise/bn"
  type: "BatchNorm"
  bottom: "conv_11/depthwise"
  top: "conv_11/depthwise"
  param {
    lr_mult: 0
    decay_mult: 0
  }
  param {
    lr_mult: 0
    decay_mult: 0
  }
  param {
    lr_mult: 0
    decay_mult: 0
  }
  batch_norm_param {
    eps: 0.001
  }
}
layer {
  name: "conv_11/depthwise/scale"
  type: "Scale"
  bottom: "conv_11/depthwise"
  top: "conv_11/depthwise"
  param {
    lr_mult: 1
    decay_mult: 0
  }
  param {
    lr_mult: 2
    decay_mult: 0
  }
  scale_param {
    filler {
      value: 1
    }
    bias_term: true
    bias_filler {
      value: 0
    }
  }
}
layer {
  name: "conv_11/depthwise/relu"
  type: "ReLU"
  bottom: "conv_11/depthwise"
  top: "conv_11/depthwise"
}
layer {
  name: "conv_11/project"
  type: "Convolution"
  bottom: "conv_11/depthwise"
  top: "conv_11/project"
  param {
    lr_mult: 1
    decay_mult: 1
  }
  convolution_param {
    num_output: 96
    bias_term: false
    kernel_size: 1
    weight_filler {
      type: "msra"
    }
  }
}
layer {
  name: "conv_11/project/bn"
  type: "BatchNorm"
  bottom: "conv_11/project"
  top: "conv_11/project"
  param {
    lr_mult: 0
    decay_mult: 0
  }
  param {
    lr_mult: 0
    decay_mult: 0
  }
  param {
    lr_mult: 0
    decay_mult: 0
  }
  batch_norm_param {
    eps: 0.001
  }
}
layer {
  name: "conv_11/project/scale"
  type: "Scale"
  bottom: "conv_11/project"
  top: "conv_11/project"
  param {
    lr_mult: 1
    decay_mult: 0
  }
  param {
    lr_mult: 2
    decay_mult: 0
  }
  scale_param {
    filler {
      value: 1
    }
    bias_term: true
    bias_filler {
      value: 0
    }
  }
}
layer {
  name: "conv_11/sum"
  type: "Eltwise"
  bottom: "conv_10/project"
  bottom: "conv_11/project"
  top: "conv_11"
}
layer {
  name: "conv_12/expand"
  type: "Convolution"
  bottom: "conv_11"
  top: "conv_12/expand"
  param {
    lr_mult: 1
    decay_mult: 1
  }
  convolution_param {
    num_output: 576
    bias_term: false
    kernel_size: 1
    weight_filler {
      type: "msra"
    }
  }
}
layer {
  name: "conv_12/expand/bn"
  type: "BatchNorm"
  bottom: "conv_12/expand"
  top: "conv_12/expand"
  param {
    lr_mult: 0
    decay_mult: 0
  }
  param {
    lr_mult: 0
    decay_mult: 0
  }
  param {
    lr_mult: 0
    decay_mult: 0
  }
  batch_norm_param {
    eps: 0.001
  }
}
layer {
  name: "conv_12/expand/scale"
  type: "Scale"
  bottom: "conv_12/expand"
  top: "conv_12/expand"
  param {
    lr_mult: 1
    decay_mult: 0
  }
  param {
    lr_mult: 2
    decay_mult: 0
  }
  scale_param {
    filler {
      value: 1
    }
    bias_term: true
    bias_filler {
      value: 0
    }
  }
}
layer {
  name: "conv_12/expand/relu"
  type: "ReLU"
  bottom: "conv_12/expand"
  top: "conv_12/expand"
}
layer {
  name: "conv_12/depthwise"
  type: "Convolution"
  bottom: "conv_12/expand"
  top: "conv_12/depthwise"
  param {
    lr_mult: 1
    decay_mult: 1
  }
  convolution_param {
    num_output: 576
    bias_term: false
    pad: 1
    kernel_size: 3
    group: 576
    weight_filler {
      type: "msra"
    }
  }
}
layer {
  name: "conv_12/depthwise/bn"
  type: "BatchNorm"
  bottom: "conv_12/depthwise"
  top: "conv_12/depthwise"
  param {
    lr_mult: 0
    decay_mult: 0
  }
  param {
    lr_mult: 0
    decay_mult: 0
  }
  param {
    lr_mult: 0
    decay_mult: 0
  }
  batch_norm_param {
    eps: 0.001
  }
}
layer {
  name: "conv_12/depthwise/scale"
  type: "Scale"
  bottom: "conv_12/depthwise"
  top: "conv_12/depthwise"
  param {
    lr_mult: 1
    decay_mult: 0
  }
  param {
    lr_mult: 2
    decay_mult: 0
  }
  scale_param {
    filler {
      value: 1
    }
    bias_term: true
    bias_filler {
      value: 0
    }
  }
}
layer {
  name: "conv_12/depthwise/relu"
  type: "ReLU"
  bottom: "conv_12/depthwise"
  top: "conv_12/depthwise"
}
layer {
  name: "conv_12/project"
  type: "Convolution"
  bottom: "conv_12/depthwise"
  top: "conv_12/project"
  param {
    lr_mult: 1
    decay_mult: 1
  }
  convolution_param {
    num_output: 96
    bias_term: false
    kernel_size: 1
    weight_filler {
      type: "msra"
    }
  }
}
layer {
  name: "conv_12/project/bn"
  type: "BatchNorm"
  bottom: "conv_12/project"
  top: "conv_12/project"
  param {
    lr_mult: 0
    decay_mult: 0
  }
  param {
    lr_mult: 0
    decay_mult: 0
  }
  param {
    lr_mult: 0
    decay_mult: 0
  }
  batch_norm_param {
    eps: 0.001
  }
}
layer {
  name: "conv_12/project/scale"
  type: "Scale"
  bottom: "conv_12/project"
  top: "conv_12/project"
  param {
    lr_mult: 1
    decay_mult: 0
  }
  param {
    lr_mult: 2
    decay_mult: 0
  }
  scale_param {
    filler {
      value: 1
    }
    bias_term: true
    bias_filler {
      value: 0
    }
  }
}
layer {
  name: "conv_12/sum"
  type: "Eltwise"
  bottom: "conv_11"
  bottom: "conv_12/project"
  top: "conv_12"
}
layer {
  name: "conv_13/expand"
  type: "Convolution"
  bottom: "conv_12"
  top: "conv_13/expand"
  param {
    lr_mult: 1
    decay_mult: 1
  }
  convolution_param {
    num_output: 576
    bias_term: false
    kernel_size: 1
    weight_filler {
      type: "msra"
    }
  }
}
layer {
  name: "conv_13/expand/bn"
  type: "BatchNorm"
  bottom: "conv_13/expand"
  top: "conv_13/expand"
  param {
    lr_mult: 0
    decay_mult: 0
  }
  param {
    lr_mult: 0
    decay_mult: 0
  }
  param {
    lr_mult: 0
    decay_mult: 0
  }
  batch_norm_param {
    eps: 0.001
  }
}
layer {
  name: "conv_13/expand/scale"
  type: "Scale"
  bottom: "conv_13/expand"
  top: "conv_13/expand"
  param {
    lr_mult: 1
    decay_mult: 0
  }
  param {
    lr_mult: 2
    decay_mult: 0
  }
  scale_param {
    filler {
      value: 1
    }
    bias_term: true
    bias_filler {
      value: 0
    }
  }
}
layer {
  name: "conv_13/expand/relu"
  type: "ReLU"
  bottom: "conv_13/expand"
  top: "conv_13/expand"
}
layer {
  name: "conv_13/depthwise"
  type: "Convolution"
  bottom: "conv_13/expand"
  top: "conv_13/depthwise"
  param {
    lr_mult: 1
    decay_mult: 1
  }
  convolution_param {
    num_output: 576
    bias_term: false
    pad: 1
    kernel_size: 3
    group: 576
    stride: 2
    weight_filler {
      type: "msra"
    }
  }
}
layer {
  name: "conv_13/depthwise/bn"
  type: "BatchNorm"
  bottom: "conv_13/depthwise"
  top: "conv_13/depthwise"
  param {
    lr_mult: 0
    decay_mult: 0
  }
  param {
    lr_mult: 0
    decay_mult: 0
  }
  param {
    lr_mult: 0
    decay_mult: 0
  }
  batch_norm_param {
    eps: 0.001
  }
}
layer {
  name: "conv_13/depthwise/scale"
  type: "Scale"
  bottom: "conv_13/depthwise"
  top: "conv_13/depthwise"
  param {
    lr_mult: 1
    decay_mult: 0
  }
  param {
    lr_mult: 2
    decay_mult: 0
  }
  scale_param {
    filler {
      value: 1
    }
    bias_term: true
    bias_filler {
      value: 0
    }
  }
}
layer {
  name: "conv_13/depthwise/relu"
  type: "ReLU"
  bottom: "conv_13/depthwise"
  top: "conv_13/depthwise"
}
layer {
  name: "conv_13/project"
  type: "Convolution"
  bottom: "conv_13/depthwise"
  top: "conv_13/project"
  param {
    lr_mult: 1
    decay_mult: 1
  }
  convolution_param {
    num_output: 160
    bias_term: false
    kernel_size: 1
    weight_filler {
      type: "msra"
    }
  }
}
layer {
  name: "conv_13/project/bn"
  type: "BatchNorm"
  bottom: "conv_13/project"
  top: "conv_13/project"
  param {
    lr_mult: 0
    decay_mult: 0
  }
  param {
    lr_mult: 0
    decay_mult: 0
  }
  param {
    lr_mult: 0
    decay_mult: 0
  }
  batch_norm_param {
    eps: 0.001
  }
}
layer {
  name: "conv_13/project/scale"
  type: "Scale"
  bottom: "conv_13/project"
  top: "conv_13/project"
  param {
    lr_mult: 1
    decay_mult: 0
  }
  param {
    lr_mult: 2
    decay_mult: 0
  }
  scale_param {
    filler {
      value: 1
    }
    bias_term: true
    bias_filler {
      value: 0
    }
  }
}
layer {
  name: "conv_14/expand"
  type: "Convolution"
  bottom: "conv_13/project"
  top: "conv_14/expand"
  param {
    lr_mult: 1
    decay_mult: 1
  }
  convolution_param {
    num_output: 960
    bias_term: false
    kernel_size: 1
    weight_filler {
      type: "msra"
    }
  }
}
layer {
  name: "conv_14/expand/bn"
  type: "BatchNorm"
  bottom: "conv_14/expand"
  top: "conv_14/expand"
  param {
    lr_mult: 0
    decay_mult: 0
  }
  param {
    lr_mult: 0
    decay_mult: 0
  }
  param {
    lr_mult: 0
    decay_mult: 0
  }
  batch_norm_param {
    eps: 0.001
  }
}
layer {
  name: "conv_14/expand/scale"
  type: "Scale"
  bottom: "conv_14/expand"
  top: "conv_14/expand"
  param {
    lr_mult: 1
    decay_mult: 0
  }
  param {
    lr_mult: 2
    decay_mult: 0
  }
  scale_param {
    filler {
      value: 1
    }
    bias_term: true
    bias_filler {
      value: 0
    }
  }
}
layer {
  name: "conv_14/expand/relu"
  type: "ReLU"
  bottom: "conv_14/expand"
  top: "conv_14/expand"
}
layer {
  name: "conv_14/depthwise"
  type: "Convolution"
  bottom: "conv_14/expand"
  top: "conv_14/depthwise"
  param {
    lr_mult: 1
    decay_mult: 1
  }
  convolution_param {
    num_output: 960
    bias_term: false
    pad: 1
    kernel_size: 3
    group: 960
    weight_filler {
      type: "msra"
    }
  }
}
layer {
  name: "conv_14/depthwise/bn"
  type: "BatchNorm"
  bottom: "conv_14/depthwise"
  top: "conv_14/depthwise"
  param {
    lr_mult: 0
    decay_mult: 0
  }
  param {
    lr_mult: 0
    decay_mult: 0
  }
  param {
    lr_mult: 0
    decay_mult: 0
  }
  batch_norm_param {
    eps: 0.001
  }
}
layer {
  name: "conv_14/depthwise/scale"
  type: "Scale"
  bottom: "conv_14/depthwise"
  top: "conv_14/depthwise"
  param {
    lr_mult: 1
    decay_mult: 0
  }
  param {
    lr_mult: 2
    decay_mult: 0
  }
  scale_param {
    filler {
      value: 1
    }
    bias_term: true
    bias_filler {
      value: 0
    }
  }
}
layer {
  name: "conv_14/depthwise/relu"
  type: "ReLU"
  bottom: "conv_14/depthwise"
  top: "conv_14/depthwise"
}
layer {
  name: "conv_14/project"
  type: "Convolution"
  bottom: "conv_14/depthwise"
  top: "conv_14/project"
  param {
    lr_mult: 1
    decay_mult: 1
  }
  convolution_param {
    num_output: 160
    bias_term: false
    kernel_size: 1
    weight_filler {
      type: "msra"
    }
  }
}
layer {
  name: "conv_14/project/bn"
  type: "BatchNorm"
  bottom: "conv_14/project"
  top: "conv_14/project"
  param {
    lr_mult: 0
    decay_mult: 0
  }
  param {
    lr_mult: 0
    decay_mult: 0
  }
  param {
    lr_mult: 0
    decay_mult: 0
  }
  batch_norm_param {
    eps: 0.001
  }
}
layer {
  name: "conv_14/project/scale"
  type: "Scale"
  bottom: "conv_14/project"
  top: "conv_14/project"
  param {
    lr_mult: 1
    decay_mult: 0
  }
  param {
    lr_mult: 2
    decay_mult: 0
  }
  scale_param {
    filler {
      value: 1
    }
    bias_term: true
    bias_filler {
      value: 0
    }
  }
}
layer {
  name: "conv_14/sum"
  type: "Eltwise"
  bottom: "conv_13/project"
  bottom: "conv_14/project"
  top: "conv_14"
}
layer {
  name: "conv_15/expand"
  type: "Convolution"
  bottom: "conv_14"
  top: "conv_15/expand"
  param {
    lr_mult: 1
    decay_mult: 1
  }
  convolution_param {
    num_output: 960
    bias_term: false
    kernel_size: 1
    weight_filler {
      type: "msra"
    }
  }
}
layer {
  name: "conv_15/expand/bn"
  type: "BatchNorm"
  bottom: "conv_15/expand"
  top: "conv_15/expand"
  param {
    lr_mult: 0
    decay_mult: 0
  }
  param {
    lr_mult: 0
    decay_mult: 0
  }
  param {
    lr_mult: 0
    decay_mult: 0
  }
  batch_norm_param {
    eps: 0.001
  }
}
layer {
  name: "conv_15/expand/scale"
  type: "Scale"
  bottom: "conv_15/expand"
  top: "conv_15/expand"
  param {
    lr_mult: 1
    decay_mult: 0
  }
  param {
    lr_mult: 2
    decay_mult: 0
  }
  scale_param {
    filler {
      value: 1
    }
    bias_term: true
    bias_filler {
      value: 0
    }
  }
}
layer {
  name: "conv_15/expand/relu"
  type: "ReLU"
  bottom: "conv_15/expand"
  top: "conv_15/expand"
}
layer {
  name: "conv_15/depthwise"
  type: "Convolution"
  bottom: "conv_15/expand"
  top: "conv_15/depthwise"
  param {
    lr_mult: 1
    decay_mult: 1
  }
  convolution_param {
    num_output: 960
    bias_term: false
    pad: 1
    kernel_size: 3
    group: 960
    weight_filler {
      type: "msra"
    }
  }
}
layer {
  name: "conv_15/depthwise/bn"
  type: "BatchNorm"
  bottom: "conv_15/depthwise"
  top: "conv_15/depthwise"
  param {
    lr_mult: 0
    decay_mult: 0
  }
  param {
    lr_mult: 0
    decay_mult: 0
  }
  param {
    lr_mult: 0
    decay_mult: 0
  }
  batch_norm_param {
    eps: 0.001
  }
}
layer {
  name: "conv_15/depthwise/scale"
  type: "Scale"
  bottom: "conv_15/depthwise"
  top: "conv_15/depthwise"
  param {
    lr_mult: 1
    decay_mult: 0
  }
  param {
    lr_mult: 2
    decay_mult: 0
  }
  scale_param {
    filler {
      value: 1
    }
    bias_term: true
    bias_filler {
      value: 0
    }
  }
}
layer {
  name: "conv_15/depthwise/relu"
  type: "ReLU"
  bottom: "conv_15/depthwise"
  top: "conv_15/depthwise"
}
layer {
  name: "conv_15/project"
  type: "Convolution"
  bottom: "conv_15/depthwise"
  top: "conv_15/project"
  param {
    lr_mult: 1
    decay_mult: 1
  }
  convolution_param {
    num_output: 160
    bias_term: false
    kernel_size: 1
    weight_filler {
      type: "msra"
    }
  }
}
layer {
  name: "conv_15/project/bn"
  type: "BatchNorm"
  bottom: "conv_15/project"
  top: "conv_15/project"
  param {
    lr_mult: 0
    decay_mult: 0
  }
  param {
    lr_mult: 0
    decay_mult: 0
  }
  param {
    lr_mult: 0
    decay_mult: 0
  }
  batch_norm_param {
    eps: 0.001
  }
}
layer {
  name: "conv_15/project/scale"
  type: "Scale"
  bottom: "conv_15/project"
  top: "conv_15/project"
  param {
    lr_mult: 1
    decay_mult: 0
  }
  param {
    lr_mult: 2
    decay_mult: 0
  }
  scale_param {
    filler {
      value: 1
    }
    bias_term: true
    bias_filler {
      value: 0
    }
  }
}
layer {
  name: "conv_15/sum"
  type: "Eltwise"
  bottom: "conv_14"
  bottom: "conv_15/project"
  top: "conv_15"
}
layer {
  name: "conv_16/expand"
  type: "Convolution"
  bottom: "conv_15"
  top: "conv_16/expand"
  param {
    lr_mult: 1
    decay_mult: 1
  }
  convolution_param {
    num_output: 960
    bias_term: false
    kernel_size: 1
    weight_filler {
      type: "msra"
    }
  }
}
layer {
  name: "conv_16/expand/bn"
  type: "BatchNorm"
  bottom: "conv_16/expand"
  top: "conv_16/expand"
  param {
    lr_mult: 0
    decay_mult: 0
  }
  param {
    lr_mult: 0
    decay_mult: 0
  }
  param {
    lr_mult: 0
    decay_mult: 0
  }
  batch_norm_param {
    eps: 0.001
  }
}
layer {
  name: "conv_16/expand/scale"
  type: "Scale"
  bottom: "conv_16/expand"
  top: "conv_16/expand"
  param {
    lr_mult: 1
    decay_mult: 0
  }
  param {
    lr_mult: 2
    decay_mult: 0
  }
  scale_param {
    filler {
      value: 1
    }
    bias_term: true
    bias_filler {
      value: 0
    }
  }
}
layer {
  name: "conv_16/expand/relu"
  type: "ReLU"
  bottom: "conv_16/expand"
  top: "conv_16/expand"
}
layer {
  name: "conv_16/depthwise"
  type: "Convolution"
  bottom: "conv_16/expand"
  top: "conv_16/depthwise"
  param {
    lr_mult: 1
    decay_mult: 1
  }
  convolution_param {
    num_output: 960
    bias_term: false
    pad: 1
    kernel_size: 3
    group: 960
    weight_filler {
      type: "msra"
    }
  }
}
layer {
  name: "conv_16/depthwise/bn"
  type: "BatchNorm"
  bottom: "conv_16/depthwise"
  top: "conv_16/depthwise"
  param {
    lr_mult: 0
    decay_mult: 0
  }
  param {
    lr_mult: 0
    decay_mult: 0
  }
  param {
    lr_mult: 0
    decay_mult: 0
  }
  batch_norm_param {
    eps: 0.001
  }
}
layer {
  name: "conv_16/depthwise/scale"
  type: "Scale"
  bottom: "conv_16/depthwise"
  top: "conv_16/depthwise"
  param {
    lr_mult: 1
    decay_mult: 0
  }
  param {
    lr_mult: 2
    decay_mult: 0
  }
  scale_param {
    filler {
      value: 1
    }
    bias_term: true
    bias_filler {
      value: 0
    }
  }
}
layer {
  name: "conv_16/depthwise/relu"
  type: "ReLU"
  bottom: "conv_16/depthwise"
  top: "conv_16/depthwise"
}
layer {
  name: "conv_16/project"
  type: "Convolution"
  bottom: "conv_16/depthwise"
  top: "conv_16/project"
  param {
    lr_mult: 1
    decay_mult: 1
  }
  convolution_param {
    num_output: 320
    bias_term: false
    kernel_size: 1
    weight_filler {
      type: "msra"
    }
  }
}
layer {
  name: "conv_16/project/bn"
  type: "BatchNorm"
  bottom: "conv_16/project"
  top: "conv_16/project"
  param {
    lr_mult: 0
    decay_mult: 0
  }
  param {
    lr_mult: 0
    decay_mult: 0
  }
  param {
    lr_mult: 0
    decay_mult: 0
  }
  batch_norm_param {
    eps: 0.001
  }
}
layer {
  name: "conv_16/project/scale"
  type: "Scale"
  bottom: "conv_16/project"
  top: "conv_16/project"
  param {
    lr_mult: 1
    decay_mult: 0
  }
  param {
    lr_mult: 2
    decay_mult: 0
  }
  scale_param {
    filler {
      value: 1
    }
    bias_term: true
    bias_filler {
      value: 0
    }
  }
}
layer {
  name: "Conv_1"
  type: "Convolution"
  bottom: "conv_16/project"
  top: "Conv_1"
  param {
    lr_mult: 1
    decay_mult: 1
  }
  convolution_param {
    num_output: 1280
    bias_term: false
    kernel_size: 1
    weight_filler {
      type: "msra"
    }
  }
}
layer {
  name: "Conv_1/bn"
  type: "BatchNorm"
  bottom: "Conv_1"
  top: "Conv_1"
  param {
    lr_mult: 0
    decay_mult: 0
  }
  param {
    lr_mult: 0
    decay_mult: 0
  }
  param {
    lr_mult: 0
    decay_mult: 0
  }
  batch_norm_param {
    eps: 0.001
  }
}
layer {
  name: "Conv_1/scale"
  type: "Scale"
  bottom: "Conv_1"
  top: "Conv_1"
  param {
    lr_mult: 1
    decay_mult: 0
  }
  param {
    lr_mult: 2
    decay_mult: 0
  }
  scale_param {
    filler {
      value: 1
    }
    bias_term: true
    bias_filler {
      value: 0
    }
  }
}
layer {
  name: "Conv_1/relu"
  type: "ReLU"
  bottom: "Conv_1"
  top: "Conv_1"
}
layer {
  name: "layer_19_1_2"
  type: "Convolution"
  bottom: "Conv_1"
  top: "layer_19_1_2"
  param {
    lr_mult: 1
    decay_mult: 1
  }
  convolution_param {
    num_output: 256
    bias_term: false
    kernel_size: 1
    weight_filler {
      type: "msra"
    }
  }
}
layer {
  name: "layer_19_1_2/bn"
  type: "BatchNorm"
  bottom: "layer_19_1_2"
  top: "layer_19_1_2"
  param {
    lr_mult: 0
    decay_mult: 0
  }
  param {
    lr_mult: 0
    decay_mult: 0
  }
  param {
    lr_mult: 0
    decay_mult: 0
  }
  batch_norm_param {
    eps: 0.001
  }
}
layer {
  name: "layer_19_1_2/scale"
  type: "Scale"
  bottom: "layer_19_1_2"
  top: "layer_19_1_2"
  param {
    lr_mult: 1
    decay_mult: 0
  }
  param {
    lr_mult: 2
    decay_mult: 0
  }
  scale_param {
    filler {
      value: 1
    }
    bias_term: true
    bias_filler {
      value: 0
    }
  }
}
layer {
  name: "layer_19_1_2/relu"
  type: "ReLU"
  bottom: "layer_19_1_2"
  top: "layer_19_1_2"
}
layer {
  name: "layer_19_2_2/depthwise"
  type: "Convolution"
  bottom: "layer_19_1_2"
  top: "layer_19_2_2/depthwise"
  param {
    lr_mult: 1
    decay_mult: 1
  }
  convolution_param {
    num_output: 256
    bias_term: false
    pad: 1
    kernel_size: 3
    group: 256
    stride: 2
    weight_filler {
      type: "msra"
    }
  }
}
layer {
  name: "layer_19_2_2/depthwise/bn"
  type: "BatchNorm"
  bottom: "layer_19_2_2/depthwise"
  top: "layer_19_2_2/depthwise"
  param {
    lr_mult: 0
    decay_mult: 0
  }
  param {
    lr_mult: 0
    decay_mult: 0
  }
  param {
    lr_mult: 0
    decay_mult: 0
  }
  batch_norm_param {
    eps: 0.001
  }
}
layer {
  name: "layer_19_2_2/depthwise/scale"
  type: "Scale"
  bottom: "layer_19_2_2/depthwise"
  top: "layer_19_2_2/depthwise"
  param {
    lr_mult: 1
    decay_mult: 0
  }
  param {
    lr_mult: 2
    decay_mult: 0
  }
  scale_param {
    filler {
      value: 1
    }
    bias_term: true
    bias_filler {
      value: 0
    }
  }
}
layer {
  name: "layer_19_2_2/depthwise/relu"
  type: "ReLU"
  bottom: "layer_19_2_2/depthwise"
  top: "layer_19_2_2/depthwise"
}
layer {
  name: "layer_19_2_2"
  type: "Convolution"
  bottom: "layer_19_2_2/depthwise"
  top: "layer_19_2_2"
  param {
    lr_mult: 1
    decay_mult: 1
  }
  convolution_param {
    num_output: 256
    bias_term: false
    kernel_size: 1
    weight_filler {
      type: "msra"
    }
  }
}
layer {
  name: "layer_19_2_2/bn"
  type: "BatchNorm"
  bottom: "layer_19_2_2"
  top: "layer_19_2_2"
  param {
    lr_mult: 0
    decay_mult: 0
  }
  param {
    lr_mult: 0
    decay_mult: 0
  }
  param {
    lr_mult: 0
    decay_mult: 0
  }
  batch_norm_param {
    eps: 0.001
  }
}
layer {
  name: "layer_19_2_2/scale"
  type: "Scale"
  bottom: "layer_19_2_2"
  top: "layer_19_2_2"
  param {
    lr_mult: 1
    decay_mult: 0
  }
  param {
    lr_mult: 2
    decay_mult: 0
  }
  scale_param {
    filler {
      value: 1
    }
    bias_term: true
    bias_filler {
      value: 0
    }
  }
}
layer {
  name: "layer_19_2_2/relu"
  type: "ReLU"
  bottom: "layer_19_2_2"
  top: "layer_19_2_2"
}
layer {
  name: "layer_19_1_3"
  type: "Convolution"
  bottom: "layer_19_2_2"
  top: "layer_19_1_3"
  param {
    lr_mult: 1
    decay_mult: 1
  }
  convolution_param {
    num_output: 128
    bias_term: false
    kernel_size: 1
    weight_filler {
      type: "msra"
    }
  }
}
layer {
  name: "layer_19_1_3/bn"
  type: "BatchNorm"
  bottom: "layer_19_1_3"
  top: "layer_19_1_3"
  param {
    lr_mult: 0
    decay_mult: 0
  }
  param {
    lr_mult: 0
    decay_mult: 0
  }
  param {
    lr_mult: 0
    decay_mult: 0
  }
  batch_norm_param {
    eps: 0.001
  }
}
layer {
  name: "layer_19_1_3/scale"
  type: "Scale"
  bottom: "layer_19_1_3"
  top: "layer_19_1_3"
  param {
    lr_mult: 1
    decay_mult: 0
  }
  param {
    lr_mult: 2
    decay_mult: 0
  }
  scale_param {
    filler {
      value: 1
    }
    bias_term: true
    bias_filler {
      value: 0
    }
  }
}
layer {
  name: "layer_19_1_3/relu"
  type: "ReLU"
  bottom: "layer_19_1_3"
  top: "layer_19_1_3"
}
layer {
  name: "layer_19_2_3/depthwise"
  type: "Convolution"
  bottom: "layer_19_1_3"
  top: "layer_19_2_3/depthwise"
  param {
    lr_mult: 1
    decay_mult: 1
  }
  convolution_param {
    num_output: 128
    bias_term: false
    pad: 1
    kernel_size: 3
    group: 128
    stride: 2
    weight_filler {
      type: "msra"
    }
  }
}
layer {
  name: "layer_19_2_3/depthwise/bn"
  type: "BatchNorm"
  bottom: "layer_19_2_3/depthwise"
  top: "layer_19_2_3/depthwise"
  param {
    lr_mult: 0
    decay_mult: 0
  }
  param {
    lr_mult: 0
    decay_mult: 0
  }
  param {
    lr_mult: 0
    decay_mult: 0
  }
  batch_norm_param {
    eps: 0.001
  }
}
layer {
  name: "layer_19_2_3/depthwise/scale"
  type: "Scale"
  bottom: "layer_19_2_3/depthwise"
  top: "layer_19_2_3/depthwise"
  param {
    lr_mult: 1
    decay_mult: 0
  }
  param {
    lr_mult: 2
    decay_mult: 0
  }
  scale_param {
    filler {
      value: 1
    }
    bias_term: true
    bias_filler {
      value: 0
    }
  }
}
layer {
  name: "layer_19_2_3/depthwise/relu"
  type: "ReLU"
  bottom: "layer_19_2_3/depthwise"
  top: "layer_19_2_3/depthwise"
}
layer {
  name: "layer_19_2_3"
  type: "Convolution"
  bottom: "layer_19_2_3/depthwise"
  top: "layer_19_2_3"
  param {
    lr_mult: 1
    decay_mult: 1
  }
  convolution_param {
    num_output: 256
    bias_term: false
    kernel_size: 1
    weight_filler {
      type: "msra"
    }
  }
}
layer {
  name: "layer_19_2_3/bn"
  type: "BatchNorm"
  bottom: "layer_19_2_3"
  top: "layer_19_2_3"
  param {
    lr_mult: 0
    decay_mult: 0
  }
  param {
    lr_mult: 0
    decay_mult: 0
  }
  param {
    lr_mult: 0
    decay_mult: 0
  }
  batch_norm_param {
    eps: 0.001
  }
}
layer {
  name: "layer_19_2_3/scale"
  type: "Scale"
  bottom: "layer_19_2_3"
  top: "layer_19_2_3"
  param {
    lr_mult: 1
    decay_mult: 0
  }
  param {
    lr_mult: 2
    decay_mult: 0
  }
  scale_param {
    filler {
      value: 1
    }
    bias_term: true
    bias_filler {
      value: 0
    }
  }
}
layer {
  name: "layer_19_2_3/relu"
  type: "ReLU"
  bottom: "layer_19_2_3"
  top: "layer_19_2_3"
}
#######################################################################
#                             modeule one                             #
#######################################################################
##########################LFPN MOUDLE#######################
layer{
	name: "conv_6/expand_lfpn"
	type: "Convolution"
	bottom: "conv_6/expand"
	top: "conv_6/expand_lfpn"
	param {
		lr_mult: 1
		decay_mult: 1
	}
	param {
		lr_mult: 2
		decay_mult: 1
	}
	convolution_param {
		num_output: 144
		kernel_size: 1
		stride: 1
		weight_filler {
			type: "xavier"
		}
		bias_filler {
			type: "constant"
			value: 0
		}
	}
}
layer {
	name: "conv_6/expand_lfpn/bn"
	type: "BatchNorm"
	bottom: "conv_6/expand_lfpn"
	top: "conv_6/expand_lfpn"
	param {
		lr_mult: 0
		decay_mult: 0
	}
	param {
		lr_mult: 0
		decay_mult: 0
	}
	param {
		lr_mult: 0
		decay_mult: 0
	}
}
layer {
	name: "conv_6/expand_lfpn/scale"
	type: "Scale"
	bottom: "conv_6/expand_lfpn"
	top: "conv_6/expand_lfpn"
	param {
		lr_mult: 1.0
		decay_mult: 0.0
	}
	param {
		lr_mult: 2.0
		decay_mult: 0.0
	}
	scale_param {
		filler {
			value: 1
		}
		bias_term: true
		bias_filler {
			value: 0
		}
	}
}
layer {
	name: "conv_6/expand_lfpn/relu"
	type: "ReLU"
	bottom: "conv_6/expand_lfpn"
	top: "conv_6/expand_lfpn"
}

layer{
	name: "conv_6/expand_lfpn/dec"
	type: "Deconvolution"
	bottom: "conv_6/expand_lfpn"
	top: "conv_6/expand_lfpn/dec"
	param {
		lr_mult: 1
		decay_mult: 1
	}
	param {
		lr_mult: 2
		decay_mult: 1
	}
	convolution_param {
		num_output: 144
		kernel_size: 4
		stride: 2
		pad: 1
		weight_filler {
			type: "xavier"
		}
		bias_filler {
			type: "constant"
			value: 0
		}
	}
}
layer {
	name: "conv_6/expand_lfpn/dec/bn"
	type: "BatchNorm"
	bottom: "conv_6/expand_lfpn/dec"
	top: "conv_6/expand_lfpn/dec"
	param {
		lr_mult: 0
		decay_mult: 0
	}
	param {
		lr_mult: 0
		decay_mult: 0
	}
	param {
		lr_mult: 0
		decay_mult: 0
	}
}
layer {
	name: "conv_6/expand_lfpn/dec/scale"
	type: "Scale"
	bottom: "conv_6/expand_lfpn/dec"
	top: "conv_6/expand_lfpn/dec"
	param {
		lr_mult: 1.0
		decay_mult: 0.0
	}
	param {
		lr_mult: 2.0
		decay_mult: 0.0
	}
	scale_param {
		filler {
			value: 1
		}
		bias_term: true
		bias_filler {
			value: 0
		}
	}
}
layer {
	name: "conv_6/expand_lfpn/dec/relu"
	type: "ReLU"
	bottom: "conv_6/expand_lfpn/dec"
	top: "conv_6/expand_lfpn/dec"
}
layer{
	name: "conv_3/expand_lfpn"
	type: "Convolution"
	bottom: "conv_3/expand"
	top: "conv_3/expand_lfpn"
	param {
		lr_mult: 1
		decay_mult: 1
	}
	param {
		lr_mult: 2
		decay_mult: 1
	}
	convolution_param {
		num_output: 144
		kernel_size: 1
		stride: 1
		pad: 0
		weight_filler {
			type: "xavier"
		}
		bias_filler {
			type: "constant"
			value: 0
		}
	}
}
layer {
	name: "conv_3/expand_lfpn/bn"
	type: "BatchNorm"
	bottom: "conv_3/expand_lfpn"
	top: "conv_3/expand_lfpn"
	param {
		lr_mult: 0
		decay_mult: 0
	}
	param {
		lr_mult: 0
		decay_mult: 0
	}
	param {
		lr_mult: 0
		decay_mult: 0
	}
}
layer {
	name: "conv_3/expand_lfpn/scale"
	type: "Scale"
	bottom: "conv_3/expand_lfpn"
	top: "conv_3/expand_lfpn"
	param {
		lr_mult: 1.0
		decay_mult: 0.0
	}
	param {
		lr_mult: 2.0
		decay_mult: 0.0
	}
	scale_param {
		filler {
			value: 1
		}
		bias_term: true
		bias_filler {
			value: 0
		}
	}
}
layer {
	name: "conv_3/expand_lfpn/relu"
	type: "ReLU"
	bottom: "conv_3/expand_lfpn"
	top: "conv_3/expand_lfpn"
}
layer{
	name: "lfpn_1/eltwise"
	type: "Eltwise"
	bottom: "conv_6/expand_lfpn/dec"
	bottom: "conv_3/expand_lfpn"
	top: "lfpn_1_moudle"
	eltwise_param {
		operation: SUM
	}
}
#################context moudle####################
layer{
	name: "lfpn_1_moudle_cpm_3_3"
	type: "Convolution"
	bottom: "lfpn_1_moudle"
	top: "lfpn_1_moudle_cpm_3_3"
	param {
		lr_mult: 1
		decay_mult: 1
	}
	param {
		lr_mult: 2
		decay_mult: 1
	}
	convolution_param {
		num_output: 144
		kernel_size: 3
		stride: 1
		pad: 1
		weight_filler {
			type: "xavier"
		}
		bias_filler {
			type: "constant"
			value: 0
		}
	}
}
layer {
	name: "lfpn_1_moudle_cpm_3_3/bn"
	type: "BatchNorm"
	bottom: "lfpn_1_moudle_cpm_3_3"
	top: "lfpn_1_moudle_cpm_3_3"
	param {
		lr_mult: 0
		decay_mult: 0
	}
	param {
		lr_mult: 0
		decay_mult: 0
	}
	param {
		lr_mult: 0
		decay_mult: 0
	}
}
layer {
	name: "lfpn_1_moudle_cpm_3_3/scale"
	type: "Scale"
	bottom: "lfpn_1_moudle_cpm_3_3"
	top: "lfpn_1_moudle_cpm_3_3"
	param {
		lr_mult: 1.0
		decay_mult: 0.0
	}
	param {
		lr_mult: 2.0
		decay_mult: 0.0
	}
	scale_param {
		filler {
			value: 1
		}
		bias_term: true
		bias_filler {
			value: 0
		}
	}
}
layer {
	name: "lfpn_1_moudle_cpm_3_3/relu"
	type: "ReLU"
	bottom: "lfpn_1_moudle_cpm_3_3"
	top: "lfpn_1_moudle_cpm_3_3"
}
layer{
	name: "lfpn_1_moudle_cpm_3_3_one_channel"
	type: "Convolution"
	bottom: "lfpn_1_moudle_cpm_3_3"
	top: "lfpn_1_moudle_cpm_3_3_one_channel"
	param {
		lr_mult: 1
		decay_mult: 1
	}
	param {
		lr_mult: 2
		decay_mult: 1
	}
	convolution_param {
		num_output: 72
		kernel_size: 3
		stride: 1
		pad: 1
		weight_filler {
			type: "xavier"
		}
		bias_filler {
			type: "constant"
			value: 0
		}
	}
}
layer {
	name: "lfpn_1_moudle_cpm_3_3_one_channel/bn"
	type: "BatchNorm"
	bottom: "lfpn_1_moudle_cpm_3_3_one_channel"
	top: "lfpn_1_moudle_cpm_3_3_one_channel"
	param {
		lr_mult: 0
		decay_mult: 0
	}
	param {
		lr_mult: 0
		decay_mult: 0
	}
	param {
		lr_mult: 0
		decay_mult: 0
	}
}
layer {
	name: "lfpn_1_moudle_cpm_3_3_one_channel/scale"
	type: "Scale"
	bottom: "lfpn_1_moudle_cpm_3_3_one_channel"
	top: "lfpn_1_moudle_cpm_3_3_one_channel"
	param {
		lr_mult: 1.0
		decay_mult: 0.0
	}
	param {
		lr_mult: 2.0
		decay_mult: 0.0
	}
	scale_param {
		filler {
			value: 1
		}
		bias_term: true
		bias_filler {
			value: 0
		}
	}
}
layer {
	name: "lfpn_1_moudle_cpm_3_3_one_channel/relu"
	type: "ReLU"
	bottom: "lfpn_1_moudle_cpm_3_3_one_channel"
	top: "lfpn_1_moudle_cpm_3_3_one_channel"
}
#####
layer{
	name: "lfpn_1_moudle_cpm_3_3_two_channel"
	type: "Convolution"
	bottom: "lfpn_1_moudle_cpm_3_3"
	top: "lfpn_1_moudle_cpm_3_3_two_channel"
	param {
		lr_mult: 1
		decay_mult: 1
	}
	param {
		lr_mult: 2
		decay_mult: 1
	}
	convolution_param {
		num_output: 72
		kernel_size: 3
		stride: 1
		pad: 1
		weight_filler {
			type: "xavier"
		}
		bias_filler {
			type: "constant"
			value: 0
		}
	}
}
layer {
	name: "lfpn_1_moudle_cpm_3_3_two_channel/bn"
	type: "BatchNorm"
	bottom: "lfpn_1_moudle_cpm_3_3_two_channel"
	top: "lfpn_1_moudle_cpm_3_3_two_channel"
	param {
		lr_mult: 0
		decay_mult: 0
	}
	param {
		lr_mult: 0
		decay_mult: 0
	}
	param {
		lr_mult: 0
		decay_mult: 0
	}
}
layer {
	name: "lfpn_1_moudle_cpm_3_3_two_channel/scale"
	type: "Scale"
	bottom: "lfpn_1_moudle_cpm_3_3_two_channel"
	top: "lfpn_1_moudle_cpm_3_3_two_channel"
	param {
		lr_mult: 1.0
		decay_mult: 0.0
	}
	param {
		lr_mult: 2.0
		decay_mult: 0.0
	}
	scale_param {
		filler {
			value: 1
		}
		bias_term: true
		bias_filler {
			value: 0
		}
	}
}
layer {
	name: "lfpn_1_moudle_cpm_3_3_two_channel/relu"
	type: "ReLU"
	bottom: "lfpn_1_moudle_cpm_3_3_two_channel"
	top: "lfpn_1_moudle_cpm_3_3_two_channel"
}

layer{
	name: "lfpn_1_moudle_cpm_3_3_two_channel_2"
	type: "Convolution"
	bottom: "lfpn_1_moudle_cpm_3_3_two_channel"
	top: "lfpn_1_moudle_cpm_3_3_two_channel_2"
	param {
		lr_mult: 1
		decay_mult: 1
	}
	param {
		lr_mult: 2
		decay_mult: 1
	}
	convolution_param {
		num_output: 72
		kernel_size: 3
		stride: 1
		pad: 1
		weight_filler {
			type: "xavier"
		}
		bias_filler {
			type: "constant"
			value: 0
		}
	}
}
layer {
	name: "lfpn_1_moudle_cpm_3_3_two_channel_2/bn"
	type: "BatchNorm"
	bottom: "lfpn_1_moudle_cpm_3_3_two_channel_2"
	top: "lfpn_1_moudle_cpm_3_3_two_channel_2"
	param {
		lr_mult: 0
		decay_mult: 0
	}
	param {
		lr_mult: 0
		decay_mult: 0
	}
	param {
		lr_mult: 0
		decay_mult: 0
	}
}
layer {
	name: "lfpn_1_moudle_cpm_3_3_two_channel_2/scale"
	type: "Scale"
	bottom: "lfpn_1_moudle_cpm_3_3_two_channel_2"
	top: "lfpn_1_moudle_cpm_3_3_two_channel_2"
	param {
		lr_mult: 1.0
		decay_mult: 0.0
	}
	param {
		lr_mult: 2.0
		decay_mult: 0.0
	}
	scale_param {
		filler {
			value: 1
		}
		bias_term: true
		bias_filler {
			value: 0
		}
	}
}
layer {
	name: "lfpn_1_moudle_cpm_3_3_two_channel_2/relu"
	type: "ReLU"
	bottom: "lfpn_1_moudle_cpm_3_3_two_channel_2"
	top: "lfpn_1_moudle_cpm_3_3_two_channel_2"
}
layer {
	name: "dectction_moudle_one"
	type: "Concat"
	bottom: "lfpn_1_moudle_cpm_3_3_one_channel"
	bottom: "lfpn_1_moudle_cpm_3_3_two_channel_2"
	top: "dectction_moudle_one"
}
#######################################################################
#                             modeule two                             #
#######################################################################
##########################LFPN MOUDLE##################################
layer{
	name: "conv_10/expand_lfpn"
	type: "Convolution"
	bottom: "conv_10/expand"
	top: "conv_10/expand_lfpn"
	param {
		lr_mult: 1
		decay_mult: 1
	}
	param {
		lr_mult: 2
		decay_mult: 1
	}
	convolution_param {
		num_output: 144
		kernel_size: 1
		stride: 1
		weight_filler {
			type: "xavier"
		}
		bias_filler {
			type: "constant"
			value: 0
		}
	}
}
layer {
	name: "conv_10/expand_lfpn/bn"
	type: "BatchNorm"
	bottom: "conv_10/expand_lfpn"
	top: "conv_10/expand_lfpn"
	param {
		lr_mult: 0
		decay_mult: 0
	}
	param {
		lr_mult: 0
		decay_mult: 0
	}
	param {
		lr_mult: 0
		decay_mult: 0
	}
}
layer {
	name: "conv_10/expand_lfpn/scale"
	type: "Scale"
	bottom: "conv_10/expand_lfpn"
	top: "conv_10/expand_lfpn"
	param {
		lr_mult: 1.0
		decay_mult: 0.0
	}
	param {
		lr_mult: 2.0
		decay_mult: 0.0
	}
	scale_param {
		filler {
			value: 1
		}
		bias_term: true
		bias_filler {
			value: 0
		}
	}
}
layer {
	name: "conv_10/expand_lfpn/relu"
	type: "ReLU"
	bottom: "conv_10/expand_lfpn"
	top: "conv_10/expand_lfpn"
}

layer{
	name: "conv_10/expand_lfpn/dec"
	type: "Deconvolution"
	bottom: "conv_10/expand_lfpn"
	top: "conv_10/expand_lfpn/dec"
	param {
		lr_mult: 1
		decay_mult: 1
	}
	param {
		lr_mult: 2
		decay_mult: 1
	}
	convolution_param {
		num_output: 144
		kernel_size: 4
		stride: 2
		pad: 1
		weight_filler {
			type: "xavier"
		}
		bias_filler {
			type: "constant"
			value: 0
		}
	}
}
layer {
	name: "conv_10/expand_lfpn/dec/bn"
	type: "BatchNorm"
	bottom: "conv_10/expand_lfpn/dec"
	top: "conv_10/expand_lfpn/dec"
	param {
		lr_mult: 0
		decay_mult: 0
	}
	param {
		lr_mult: 0
		decay_mult: 0
	}
	param {
		lr_mult: 0
		decay_mult: 0
	}
}
layer {
	name: "conv_10/expand_lfpn/dec/scale"
	type: "Scale"
	bottom: "conv_10/expand_lfpn/dec"
	top: "conv_10/expand_lfpn/dec"
	param {
		lr_mult: 1.0
		decay_mult: 0.0
	}
	param {
		lr_mult: 2.0
		decay_mult: 0.0
	}
	scale_param {
		filler {
			value: 1
		}
		bias_term: true
		bias_filler {
			value: 0
		}
	}
}
layer {
	name: "conv_10/expand_lfpn/dec/relu"
	type: "ReLU"
	bottom: "conv_10/expand_lfpn/dec"
	top: "conv_10/expand_lfpn/dec"
}

layer{
	name: "lfpn_2/eltwise"
	type: "Eltwise"
	bottom: "conv_10/expand_lfpn/dec"
	bottom: "conv_6/expand_lfpn"
	top: "lfpn_2_moudle"
	eltwise_param {
		operation: SUM
	}
}
#################context moudle####################
layer{
	name: "lfpn_2_moudle_cpm_4_3"
	type: "Convolution"
	bottom: "lfpn_2_moudle"
	top: "lfpn_2_moudle_cpm_4_3"
	param {
		lr_mult: 1
		decay_mult: 1
	}
	param {
		lr_mult: 2
		decay_mult: 1
	}
	convolution_param {
		num_output: 192
		kernel_size: 3
		stride: 1
		pad: 1
		weight_filler {
			type: "xavier"
		}
		bias_filler {
			type: "constant"
			value: 0
		}
	}
}
layer {
	name: "lfpn_2_moudle_cpm_4_3/bn"
	type: "BatchNorm"
	bottom: "lfpn_2_moudle_cpm_4_3"
	top: "lfpn_2_moudle_cpm_4_3"
	param {
		lr_mult: 0
		decay_mult: 0
	}
	param {
		lr_mult: 0
		decay_mult: 0
	}
	param {
		lr_mult: 0
		decay_mult: 0
	}
}
layer {
	name: "lfpn_2_moudle_cpm_4_3/scale"
	type: "Scale"
	bottom: "lfpn_2_moudle_cpm_4_3"
	top: "lfpn_2_moudle_cpm_4_3"
	param {
		lr_mult: 1.0
		decay_mult: 0.0
	}
	param {
		lr_mult: 2.0
		decay_mult: 0.0
	}
	scale_param {
		filler {
			value: 1
		}
		bias_term: true
		bias_filler {
			value: 0
		}
	}
}
layer {
	name: "lfpn_2_moudle_cpm_4_3/relu"
	type: "ReLU"
	bottom: "lfpn_2_moudle_cpm_4_3"
	top: "lfpn_2_moudle_cpm_4_3"
}
layer{
	name: "lfpn_2_moudle_cpm_4_3_one_channel"
	type: "Convolution"
	bottom: "lfpn_2_moudle_cpm_4_3"
	top: "lfpn_2_moudle_cpm_4_3_one_channel"
	param {
		lr_mult: 1
		decay_mult: 1
	}
	param {
		lr_mult: 2
		decay_mult: 1
	}
	convolution_param {
		num_output: 96
		kernel_size: 3
		stride: 1
		pad: 1
		weight_filler {
			type: "xavier"
		}
		bias_filler {
			type: "constant"
			value: 0
		}
	}
}
layer {
	name: "lfpn_2_moudle_cpm_4_3_one_channel/bn"
	type: "BatchNorm"
	bottom: "lfpn_2_moudle_cpm_4_3_one_channel"
	top: "lfpn_2_moudle_cpm_4_3_one_channel"
	param {
		lr_mult: 0
		decay_mult: 0
	}
	param {
		lr_mult: 0
		decay_mult: 0
	}
	param {
		lr_mult: 0
		decay_mult: 0
	}
}
layer {
	name: "lfpn_2_moudle_cpm_4_3_one_channel/scale"
	type: "Scale"
	bottom: "lfpn_2_moudle_cpm_4_3_one_channel"
	top: "lfpn_2_moudle_cpm_4_3_one_channel"
	param {
		lr_mult: 1.0
		decay_mult: 0.0
	}
	param {
		lr_mult: 2.0
		decay_mult: 0.0
	}
	scale_param {
		filler {
			value: 1
		}
		bias_term: true
		bias_filler {
			value: 0
		}
	}
}
layer {
	name: "lfpn_2_moudle_cpm_4_3_one_channel/relu"
	type: "ReLU"
	bottom: "lfpn_2_moudle_cpm_4_3_one_channel"
	top: "lfpn_2_moudle_cpm_4_3_one_channel"
}
#####
layer{
	name: "lfpn_2_moudle_cpm_4_3_two_channel"
	type: "Convolution"
	bottom: "lfpn_2_moudle_cpm_4_3"
	top: "lfpn_2_moudle_cpm_4_3_two_channel"
	param {
		lr_mult: 1
		decay_mult: 1
	}
	param {
		lr_mult: 2
		decay_mult: 1
	}
	convolution_param {
		num_output: 96
		kernel_size: 3
		stride: 1
		pad: 1
		weight_filler {
			type: "xavier"
		}
		bias_filler {
			type: "constant"
			value: 0
		}
	}
}
layer {
	name: "lfpn_2_moudle_cpm_4_3_two_channel/bn"
	type: "BatchNorm"
	bottom: "lfpn_2_moudle_cpm_4_3_two_channel"
	top: "lfpn_2_moudle_cpm_4_3_two_channel"
	param {
		lr_mult: 0
		decay_mult: 0
	}
	param {
		lr_mult: 0
		decay_mult: 0
	}
	param {
		lr_mult: 0
		decay_mult: 0
	}
}
layer {
	name: "lfpn_2_moudle_cpm_4_3_two_channel/scale"
	type: "Scale"
	bottom: "lfpn_2_moudle_cpm_4_3_two_channel"
	top: "lfpn_2_moudle_cpm_4_3_two_channel"
	param {
		lr_mult: 1.0
		decay_mult: 0.0
	}
	param {
		lr_mult: 2.0
		decay_mult: 0.0
	}
	scale_param {
		filler {
			value: 1
		}
		bias_term: true
		bias_filler {
			value: 0
		}
	}
}
layer {
	name: "lfpn_2_moudle_cpm_4_3_two_channel/relu"
	type: "ReLU"
	bottom: "lfpn_2_moudle_cpm_4_3_two_channel"
	top: "lfpn_2_moudle_cpm_4_3_two_channel"
}

layer{
	name: "lfpn_2_moudle_cpm_4_3_two_channel_2"
	type: "Convolution"
	bottom: "lfpn_2_moudle_cpm_4_3_two_channel"
	top: "lfpn_2_moudle_cpm_4_3_two_channel_2"
	param {
		lr_mult: 1
		decay_mult: 1
	}
	param {
		lr_mult: 2
		decay_mult: 1
	}
	convolution_param {
		num_output: 96
		kernel_size: 3
		stride: 1
		pad: 1
		weight_filler {
			type: "xavier"
		}
		bias_filler {
			type: "constant"
			value: 0
		}
	}
}
layer {
	name: "lfpn_2_moudle_cpm_4_3_two_channel_2/bn"
	type: "BatchNorm"
	bottom: "lfpn_2_moudle_cpm_4_3_two_channel_2"
	top: "lfpn_2_moudle_cpm_4_3_two_channel_2"
	param {
		lr_mult: 0
		decay_mult: 0
	}
	param {
		lr_mult: 0
		decay_mult: 0
	}
	param {
		lr_mult: 0
		decay_mult: 0
	}
}
layer {
	name: "lfpn_2_moudle_cpm_4_3_two_channel_2/scale"
	type: "Scale"
	bottom: "lfpn_2_moudle_cpm_4_3_two_channel_2"
	top: "lfpn_2_moudle_cpm_4_3_two_channel_2"
	param {
		lr_mult: 1.0
		decay_mult: 0.0
	}
	param {
		lr_mult: 2.0
		decay_mult: 0.0
	}
	scale_param {
		filler {
			value: 1
		}
		bias_term: true
		bias_filler {
			value: 0
		}
	}
}
layer {
	name: "lfpn_2_moudle_cpm_4_3_two_channel_2/relu"
	type: "ReLU"
	bottom: "lfpn_2_moudle_cpm_4_3_two_channel_2"
	top: "lfpn_2_moudle_cpm_4_3_two_channel_2"
}
layer {
	name: "dectction_moudle_two"
	type: "Concat"
	bottom: "lfpn_2_moudle_cpm_4_3_one_channel"
	bottom: "lfpn_2_moudle_cpm_4_3_two_channel_2"
	top: "dectction_moudle_two"
}
#######################################################################
#                             modeule three                           #
#######################################################################
##########################LFPN MOUDLE##################################
layer{
	name: "conv_16/expand_lfpn"
	type: "Convolution"
	bottom: "conv_16/expand"
	top: "conv_16/expand_lfpn"
	param {
		lr_mult: 1
		decay_mult: 1
	}
	param {
		lr_mult: 2
		decay_mult: 1
	}
	convolution_param {
		num_output: 384
		kernel_size: 1
		stride: 1
		weight_filler {
			type: "xavier"
		}
		bias_filler {
			type: "constant"
			value: 0
		}
	}
}
layer {
	name: "conv_16/expand_lfpn/bn"
	type: "BatchNorm"
	bottom: "conv_16/expand_lfpn"
	top: "conv_16/expand_lfpn"
	param {
		lr_mult: 0
		decay_mult: 0
	}
	param {
		lr_mult: 0
		decay_mult: 0
	}
	param {
		lr_mult: 0
		decay_mult: 0
	}
}
layer {
	name: "conv_16/expand_lfpn/scale"
	type: "Scale"
	bottom: "conv_16/expand_lfpn"
	top: "conv_16/expand_lfpn"
	param {
		lr_mult: 1.0
		decay_mult: 0.0
	}
	param {
		lr_mult: 2.0
		decay_mult: 0.0
	}
	scale_param {
		filler {
			value: 1
		}
		bias_term: true
		bias_filler {
			value: 0
		}
	}
}
layer {
	name: "conv_16/expand_lfpn/relu"
	type: "ReLU"
	bottom: "conv_16/expand_lfpn"
	top: "conv_16/expand_lfpn"
}

layer{
	name: "conv_16/expand_lfpn/dec"
	type: "Deconvolution"
	bottom: "conv_16/expand_lfpn"
	top: "conv_16/expand_lfpn/dec"
	param {
		lr_mult: 1
		decay_mult: 1
	}
	param {
		lr_mult: 2
		decay_mult: 1
	}
	convolution_param {
		num_output: 384
		kernel_size: 4
		stride: 2
		pad: 1
		weight_filler {
			type: "xavier"
		}
		bias_filler {
			type: "constant"
			value: 0
		}
	}
}
layer {
	name: "conv_16/expand_lfpn/dec/bn"
	type: "BatchNorm"
	bottom: "conv_16/expand_lfpn/dec"
	top: "conv_16/expand_lfpn/dec"
	param {
		lr_mult: 0
		decay_mult: 0
	}
	param {
		lr_mult: 0
		decay_mult: 0
	}
	param {
		lr_mult: 0
		decay_mult: 0
	}
}
layer {
	name: "conv_16/expand_lfpn/dec/scale"
	type: "Scale"
	bottom: "conv_16/expand_lfpn/dec"
	top: "conv_16/expand_lfpn/dec"
	param {
		lr_mult: 1.0
		decay_mult: 0.0
	}
	param {
		lr_mult: 2.0
		decay_mult: 0.0
	}
	scale_param {
		filler {
			value: 1
		}
		bias_term: true
		bias_filler {
			value: 0
		}
	}
}
layer {
	name: "conv_16/expand_lfpn/dec/relu"
	type: "ReLU"
	bottom: "conv_16/expand_lfpn/dec"
	top: "conv_16/expand_lfpn/dec"
}
layer{
	name: "conv_10/expand_lfpn_conv"
	type: "Convolution"
	bottom: "conv_10/expand"
	top: "conv_10/expand_lfpn_conv"
	param {
		lr_mult: 1
		decay_mult: 1
	}
	param {
		lr_mult: 2
		decay_mult: 1
	}
	convolution_param {
		num_output: 384
		kernel_size: 3
		stride: 1
		pad: 1
		weight_filler {
			type: "xavier"
		}
		bias_filler {
			type: "constant"
			value: 0
		}
	}
}
layer {
	name: "conv_10/expand_lfpn_conv/bn"
	type: "BatchNorm"
	bottom: "conv_10/expand_lfpn_conv"
	top: "conv_10/expand_lfpn_conv"
	param {
		lr_mult: 0
		decay_mult: 0
	}
	param {
		lr_mult: 0
		decay_mult: 0
	}
	param {
		lr_mult: 0
		decay_mult: 0
	}
}
layer {
	name: "conv_10/expand_lfpn_conv/scale"
	type: "Scale"
	bottom: "conv_10/expand_lfpn_conv"
	top: "conv_10/expand_lfpn_conv"
	param {
		lr_mult: 1.0
		decay_mult: 0.0
	}
	param {
		lr_mult: 2.0
		decay_mult: 0.0
	}
	scale_param {
		filler {
			value: 1
		}
		bias_term: true
		bias_filler {
			value: 0
		}
	}
}
layer {
	name: "conv_10/expand_lfpn_conv/relu"
	type: "ReLU"
	bottom: "conv_10/expand_lfpn_conv"
	top: "conv_10/expand_lfpn_conv"
}
layer{
	name: "lfpn_3/eltwise"
	type: "Eltwise"
	bottom: "conv_10/expand_lfpn_conv"
	bottom: "conv_16/expand_lfpn/dec"
	top: "lfpn_3_moudle"
	eltwise_param {
		operation: SUM
	}
}
#################context moudle####################
layer{
	name: "lfpn_3_moudle_cpm_5_3"
	type: "Convolution"
	bottom: "lfpn_3_moudle"
	top: "lfpn_3_moudle_cpm_5_3"
	param {
		lr_mult: 1
		decay_mult: 1
	}
	param {
		lr_mult: 2
		decay_mult: 1
	}
	convolution_param {
		num_output: 384
		kernel_size: 3
		stride: 1
		pad: 1
		weight_filler {
			type: "xavier"
		}
		bias_filler {
			type: "constant"
			value: 0
		}
	}
}
layer {
	name: "lfpn_3_moudle_cpm_5_3/bn"
	type: "BatchNorm"
	bottom: "lfpn_3_moudle_cpm_5_3"
	top: "lfpn_3_moudle_cpm_5_3"
	param {
		lr_mult: 0
		decay_mult: 0
	}
	param {
		lr_mult: 0
		decay_mult: 0
	}
	param {
		lr_mult: 0
		decay_mult: 0
	}
}
layer {
	name: "lfpn_3_moudle_cpm_5_3/scale"
	type: "Scale"
	bottom: "lfpn_3_moudle_cpm_5_3"
	top: "lfpn_3_moudle_cpm_5_3"
	param {
		lr_mult: 1.0
		decay_mult: 0.0
	}
	param {
		lr_mult: 2.0
		decay_mult: 0.0
	}
	scale_param {
		filler {
			value: 1
		}
		bias_term: true
		bias_filler {
			value: 0
		}
	}
}
layer {
	name: "lfpn_3_moudle_cpm_5_3/relu"
	type: "ReLU"
	bottom: "lfpn_3_moudle_cpm_5_3"
	top: "lfpn_3_moudle_cpm_5_3"
}
layer{
	name: "lfpn_3_moudle_cpm_5_3_one_channel"
	type: "Convolution"
	bottom: "lfpn_3_moudle_cpm_5_3"
	top: "lfpn_3_moudle_cpm_5_3_one_channel"
	param {
		lr_mult: 1
		decay_mult: 1
	}
	param {
		lr_mult: 2
		decay_mult: 1
	}
	convolution_param {
		num_output: 192
		kernel_size: 3
		stride: 1
		pad: 1
		weight_filler {
			type: "xavier"
		}
		bias_filler {
			type: "constant"
			value: 0
		}
	}
}
layer {
	name: "lfpn_3_moudle_cpm_5_3_one_channel/bn"
	type: "BatchNorm"
	bottom: "lfpn_3_moudle_cpm_5_3_one_channel"
	top: "lfpn_3_moudle_cpm_5_3_one_channel"
	param {
		lr_mult: 0
		decay_mult: 0
	}
	param {
		lr_mult: 0
		decay_mult: 0
	}
	param {
		lr_mult: 0
		decay_mult: 0
	}
}
layer {
	name: "lfpn_3_moudle_cpm_5_3_one_channel/scale"
	type: "Scale"
	bottom: "lfpn_3_moudle_cpm_5_3_one_channel"
	top: "lfpn_3_moudle_cpm_5_3_one_channel"
	param {
		lr_mult: 1.0
		decay_mult: 0.0
	}
	param {
		lr_mult: 2.0
		decay_mult: 0.0
	}
	scale_param {
		filler {
			value: 1
		}
		bias_term: true
		bias_filler {
			value: 0
		}
	}
}
layer {
	name: "lfpn_3_moudle_cpm_5_3_one_channel/relu"
	type: "ReLU"
	bottom: "lfpn_3_moudle_cpm_5_3_one_channel"
	top: "lfpn_3_moudle_cpm_5_3_one_channel"
}
#####
layer{
	name: "lfpn_3_moudle_cpm_5_3_two_channel"
	type: "Convolution"
	bottom: "lfpn_3_moudle_cpm_5_3"
	top: "lfpn_3_moudle_cpm_5_3_two_channel"
	param {
		lr_mult: 1
		decay_mult: 1
	}
	param {
		lr_mult: 2
		decay_mult: 1
	}
	convolution_param {
		num_output: 192
		kernel_size: 3
		stride: 1
		pad: 1
		weight_filler {
			type: "xavier"
		}
		bias_filler {
			type: "constant"
			value: 0
		}
	}
}
layer {
	name: "lfpn_3_moudle_cpm_5_3_two_channel/bn"
	type: "BatchNorm"
	bottom: "lfpn_3_moudle_cpm_5_3_two_channel"
	top: "lfpn_3_moudle_cpm_5_3_two_channel"
	param {
		lr_mult: 0
		decay_mult: 0
	}
	param {
		lr_mult: 0
		decay_mult: 0
	}
	param {
		lr_mult: 0
		decay_mult: 0
	}
}
layer {
	name: "lfpn_3_moudle_cpm_5_3_two_channel/scale"
	type: "Scale"
	bottom: "lfpn_3_moudle_cpm_5_3_two_channel"
	top: "lfpn_3_moudle_cpm_5_3_two_channel"
	param {
		lr_mult: 1.0
		decay_mult: 0.0
	}
	param {
		lr_mult: 2.0
		decay_mult: 0.0
	}
	scale_param {
		filler {
			value: 1
		}
		bias_term: true
		bias_filler {
			value: 0
		}
	}
}
layer {
	name: "lfpn_3_moudle_cpm_5_3_two_channel/relu"
	type: "ReLU"
	bottom: "lfpn_3_moudle_cpm_5_3_two_channel"
	top: "lfpn_3_moudle_cpm_5_3_two_channel"
}

layer{
	name: "lfpn_3_moudle_cpm_5_3_two_channel_2"
	type: "Convolution"
	bottom: "lfpn_3_moudle_cpm_5_3_two_channel"
	top: "lfpn_3_moudle_cpm_5_3_two_channel_2"
	param {
		lr_mult: 1
		decay_mult: 1
	}
	param {
		lr_mult: 2
		decay_mult: 1
	}
	convolution_param {
		num_output: 192
		kernel_size: 3
		stride: 1
		pad: 1
		weight_filler {
			type: "xavier"
		}
		bias_filler {
			type: "constant"
			value: 0
		}
	}
}
layer {
	name: "lfpn_3_moudle_cpm_5_3_two_channel_2/bn"
	type: "BatchNorm"
	bottom: "lfpn_3_moudle_cpm_5_3_two_channel_2"
	top: "lfpn_3_moudle_cpm_5_3_two_channel_2"
	param {
		lr_mult: 0
		decay_mult: 0
	}
	param {
		lr_mult: 0
		decay_mult: 0
	}
	param {
		lr_mult: 0
		decay_mult: 0
	}
}
layer {
	name: "lfpn_3_moudle_cpm_5_3_two_channel_2/scale"
	type: "Scale"
	bottom: "lfpn_3_moudle_cpm_5_3_two_channel_2"
	top: "lfpn_3_moudle_cpm_5_3_two_channel_2"
	param {
		lr_mult: 1.0
		decay_mult: 0.0
	}
	param {
		lr_mult: 2.0
		decay_mult: 0.0
	}
	scale_param {
		filler {
			value: 1
		}
		bias_term: true
		bias_filler {
			value: 0
		}
	}
}
layer {
	name: "lfpn_3_moudle_cpm_5_3_two_channel_2/relu"
	type: "ReLU"
	bottom: "lfpn_3_moudle_cpm_5_3_two_channel_2"
	top: "lfpn_3_moudle_cpm_5_3_two_channel_2"
}
layer {
	name: "dectction_moudle_three"
	type: "Concat"
	bottom: "lfpn_3_moudle_cpm_5_3_one_channel"
	bottom: "lfpn_3_moudle_cpm_5_3_two_channel_2"
	top: "dectction_moudle_three"
}
#######################################################################
#                             modeule four                            #
#######################################################################
#################context moudle####################
layer{
	name: "cpm_moudle_conv_16/expand"
	type: "Convolution"
	bottom: "conv_16/expand"
	top: "cpm_moudle_conv_16/expand"
	param {
		lr_mult: 1
		decay_mult: 1
	}
	param {
		lr_mult: 2
		decay_mult: 1
	}
	convolution_param {
		num_output: 256
		kernel_size: 3
		stride: 1
		pad: 1
		weight_filler {
			type: "xavier"
		}
		bias_filler {
			type: "constant"
			value: 0
		}
	}
}
layer {
	name: "cpm_moudle_conv_16/expand/bn"
	type: "BatchNorm"
	bottom: "cpm_moudle_conv_16/expand"
	top: "cpm_moudle_conv_16/expand"
	param {
		lr_mult: 0
		decay_mult: 0
	}
	param {
		lr_mult: 0
		decay_mult: 0
	}
	param {
		lr_mult: 0
		decay_mult: 0
	}
}
layer {
	name: "cpm_moudle_conv_16/expand/scale"
	type: "Scale"
	bottom: "cpm_moudle_conv_16/expand"
	top: "cpm_moudle_conv_16/expand"
	param {
		lr_mult: 1.0
		decay_mult: 0.0
	}
	param {
		lr_mult: 2.0
		decay_mult: 0.0
	}
	scale_param {
		filler {
			value: 1
		}
		bias_term: true
		bias_filler {
			value: 0
		}
	}
}
layer {
	name: "cpm_moudle_conv_16/expand/relu"
	type: "ReLU"
	bottom: "cpm_moudle_conv_16/expand"
	top: "cpm_moudle_conv_16/expand"
}
layer{
	name: "cpm_moudle_conv_16/expand_one_channel"
	type: "Convolution"
	bottom: "cpm_moudle_conv_16/expand"
	top: "cpm_moudle_conv_16/expand_one_channel"
	param {
		lr_mult: 1
		decay_mult: 1
	}
	param {
		lr_mult: 2
		decay_mult: 1
	}
	convolution_param {
		num_output: 128
		kernel_size: 3
		stride: 1
		pad: 1
		weight_filler {
			type: "xavier"
		}
		bias_filler {
			type: "constant"
			value: 0
		}
	}
}
layer {
	name: "cpm_moudle_conv_16/expand_one_channel/bn"
	type: "BatchNorm"
	bottom: "cpm_moudle_conv_16/expand_one_channel"
	top: "cpm_moudle_conv_16/expand_one_channel"
	param {
		lr_mult: 0
		decay_mult: 0
	}
	param {
		lr_mult: 0
		decay_mult: 0
	}
	param {
		lr_mult: 0
		decay_mult: 0
	}
}
layer {
	name: "cpm_moudle_conv_16/expand_one_channel/scale"
	type: "Scale"
	bottom: "cpm_moudle_conv_16/expand_one_channel"
	top: "cpm_moudle_conv_16/expand_one_channel"
	param {
		lr_mult: 1.0
		decay_mult: 0.0
	}
	param {
		lr_mult: 2.0
		decay_mult: 0.0
	}
	scale_param {
		filler {
			value: 1
		}
		bias_term: true
		bias_filler {
			value: 0
		}
	}
}
layer {
	name: "cpm_moudle_conv_16/expand_one_channel/relu"
	type: "ReLU"
	bottom: "cpm_moudle_conv_16/expand_one_channel"
	top: "cpm_moudle_conv_16/expand_one_channel"
}
#####
layer{
	name: "cpm_moudle_conv_16/expand_two_channel"
	type: "Convolution"
	bottom: "cpm_moudle_conv_16/expand"
	top: "cpm_moudle_conv_16/expand_two_channel"
	param {
		lr_mult: 1
		decay_mult: 1
	}
	param {
		lr_mult: 2
		decay_mult: 1
	}
	convolution_param {
		num_output: 128
		kernel_size: 3
		stride: 1
		pad: 1
		weight_filler {
			type: "xavier"
		}
		bias_filler {
			type: "constant"
			value: 0
		}
	}
}
layer {
	name: "cpm_moudle_conv_16/expand_two_channel/bn"
	type: "BatchNorm"
	bottom: "cpm_moudle_conv_16/expand_two_channel"
	top: "cpm_moudle_conv_16/expand_two_channel"
	param {
		lr_mult: 0
		decay_mult: 0
	}
	param {
		lr_mult: 0
		decay_mult: 0
	}
	param {
		lr_mult: 0
		decay_mult: 0
	}
}
layer {
	name: "cpm_moudle_conv_16/expand_two_channel/scale"
	type: "Scale"
	bottom: "cpm_moudle_conv_16/expand_two_channel"
	top: "cpm_moudle_conv_16/expand_two_channel"
	param {
		lr_mult: 1.0
		decay_mult: 0.0
	}
	param {
		lr_mult: 2.0
		decay_mult: 0.0
	}
	scale_param {
		filler {
			value: 1
		}
		bias_term: true
		bias_filler {
			value: 0
		}
	}
}
layer {
	name: "cpm_moudle_conv_16/expand_two_channel/relu"
	type: "ReLU"
	bottom: "cpm_moudle_conv_16/expand_two_channel"
	top: "cpm_moudle_conv_16/expand_two_channel"
}

layer{
	name: "cpm_moudle_conv_16/expand_two_channel_2"
	type: "Convolution"
	bottom: "cpm_moudle_conv_16/expand_two_channel"
	top: "cpm_moudle_conv_16/expand_two_channel_2"
	param {
		lr_mult: 1
		decay_mult: 1
	}
	param {
		lr_mult: 2
		decay_mult: 1
	}
	convolution_param {
		num_output: 128
		kernel_size: 3
		stride: 1
		pad: 1
		weight_filler {
			type: "xavier"
		}
		bias_filler {
			type: "constant"
			value: 0
		}
	}
}
layer {
	name: "cpm_moudle_conv_16/expand_two_channel_2/bn"
	type: "BatchNorm"
	bottom: "cpm_moudle_conv_16/expand_two_channel_2"
	top: "cpm_moudle_conv_16/expand_two_channel_2"
	param {
		lr_mult: 0
		decay_mult: 0
	}
	param {
		lr_mult: 0
		decay_mult: 0
	}
	param {
		lr_mult: 0
		decay_mult: 0
	}
}
layer {
	name: "cpm_moudle_conv_16/expand_two_channel_2/scale"
	type: "Scale"
	bottom: "cpm_moudle_conv_16/expand_two_channel_2"
	top: "cpm_moudle_conv_16/expand_two_channel_2"
	param {
		lr_mult: 1.0
		decay_mult: 0.0
	}
	param {
		lr_mult: 2.0
		decay_mult: 0.0
	}
	scale_param {
		filler {
			value: 1
		}
		bias_term: true
		bias_filler {
			value: 0
		}
	}
}
layer {
	name: "cpm_moudle_conv_16/expand_two_channel_2/relu"
	type: "ReLU"
	bottom: "cpm_moudle_conv_16/expand_two_channel_2"
	top: "cpm_moudle_conv_16/expand_two_channel_2"
}
layer {
	name: "dectction_moudle_four"
	type: "Concat"
	bottom: "cpm_moudle_conv_16/expand_one_channel"
	bottom: "cpm_moudle_conv_16/expand_two_channel_2"
	top: "dectction_moudle_four"
}
#######################################################################
#                             modeule five                            #
#######################################################################
#################context moudle####################
layer{
	name: "cpm_moudle_layer_19_2_2"
	type: "Convolution"
	bottom: "layer_19_2_2"
	top: "cpm_moudle_layer_19_2_2"
	param {
		lr_mult: 1
		decay_mult: 1
	}
	param {
		lr_mult: 2
		decay_mult: 1
	}
	convolution_param {
		num_output: 256
		kernel_size: 3
		stride: 1
		pad: 1
		weight_filler {
			type: "xavier"
		}
		bias_filler {
			type: "constant"
			value: 0
		}
	}
}
layer {
	name: "cpm_moudle_layer_19_2_2/bn"
	type: "BatchNorm"
	bottom: "cpm_moudle_layer_19_2_2"
	top: "cpm_moudle_layer_19_2_2"
	param {
		lr_mult: 0
		decay_mult: 0
	}
	param {
		lr_mult: 0
		decay_mult: 0
	}
	param {
		lr_mult: 0
		decay_mult: 0
	}
}
layer {
	name: "cpm_moudle_layer_19_2_2/scale"
	type: "Scale"
	bottom: "cpm_moudle_layer_19_2_2"
	top: "cpm_moudle_layer_19_2_2"
	param {
		lr_mult: 1.0
		decay_mult: 0.0
	}
	param {
		lr_mult: 2.0
		decay_mult: 0.0
	}
	scale_param {
		filler {
			value: 1
		}
		bias_term: true
		bias_filler {
			value: 0
		}
	}
}
layer {
	name: "cpm_moudle_layer_19_2_2/relu"
	type: "ReLU"
	bottom: "cpm_moudle_layer_19_2_2"
	top: "cpm_moudle_layer_19_2_2"
}
layer{
	name: "cpm_moudle_layer_19_2_2_one_channel"
	type: "Convolution"
	bottom: "cpm_moudle_layer_19_2_2"
	top: "cpm_moudle_layer_19_2_2_one_channel"
	param {
		lr_mult: 1
		decay_mult: 1
	}
	param {
		lr_mult: 2
		decay_mult: 1
	}
	convolution_param {
		num_output: 128
		kernel_size: 3
		stride: 1
		pad: 1
		weight_filler {
			type: "xavier"
		}
		bias_filler {
			type: "constant"
			value: 0
		}
	}
}
layer {
	name: "cpm_moudle_layer_19_2_2_one_channel/bn"
	type: "BatchNorm"
	bottom: "cpm_moudle_layer_19_2_2_one_channel"
	top: "cpm_moudle_layer_19_2_2_one_channel"
	param {
		lr_mult: 0
		decay_mult: 0
	}
	param {
		lr_mult: 0
		decay_mult: 0
	}
	param {
		lr_mult: 0
		decay_mult: 0
	}
}
layer {
	name: "cpm_moudle_layer_19_2_2_one_channel/scale"
	type: "Scale"
	bottom: "cpm_moudle_layer_19_2_2_one_channel"
	top: "cpm_moudle_layer_19_2_2_one_channel"
	param {
		lr_mult: 1.0
		decay_mult: 0.0
	}
	param {
		lr_mult: 2.0
		decay_mult: 0.0
	}
	scale_param {
		filler {
			value: 1
		}
		bias_term: true
		bias_filler {
			value: 0
		}
	}
}
layer {
	name: "cpm_moudle_layer_19_2_2_one_channel/relu"
	type: "ReLU"
	bottom: "cpm_moudle_layer_19_2_2_one_channel"
	top: "cpm_moudle_layer_19_2_2_one_channel"
}
#####
layer{
	name: "cpm_moudle_layer_19_2_2_two_channel"
	type: "Convolution"
	bottom: "cpm_moudle_layer_19_2_2"
	top: "cpm_moudle_layer_19_2_2_two_channel"
	param {
		lr_mult: 1
		decay_mult: 1
	}
	param {
		lr_mult: 2
		decay_mult: 1
	}
	convolution_param {
		num_output: 128
		kernel_size: 3
		stride: 1
		pad: 1
		weight_filler {
			type: "xavier"
		}
		bias_filler {
			type: "constant"
			value: 0
		}
	}
}
layer {
	name: "cpm_moudle_layer_19_2_2_two_channel/bn"
	type: "BatchNorm"
	bottom: "cpm_moudle_layer_19_2_2_two_channel"
	top: "cpm_moudle_layer_19_2_2_two_channel"
	param {
		lr_mult: 0
		decay_mult: 0
	}
	param {
		lr_mult: 0
		decay_mult: 0
	}
	param {
		lr_mult: 0
		decay_mult: 0
	}
}
layer {
	name: "cpm_moudle_layer_19_2_2_two_channel/scale"
	type: "Scale"
	bottom: "cpm_moudle_layer_19_2_2_two_channel"
	top: "cpm_moudle_layer_19_2_2_two_channel"
	param {
		lr_mult: 1.0
		decay_mult: 0.0
	}
	param {
		lr_mult: 2.0
		decay_mult: 0.0
	}
	scale_param {
		filler {
			value: 1
		}
		bias_term: true
		bias_filler {
			value: 0
		}
	}
}
layer {
	name: "cpm_moudle_layer_19_2_2_two_channel/relu"
	type: "ReLU"
	bottom: "cpm_moudle_layer_19_2_2_two_channel"
	top: "cpm_moudle_layer_19_2_2_two_channel"
}

layer{
	name: "cpm_moudle_layer_19_2_2_two_channel_2"
	type: "Convolution"
	bottom: "cpm_moudle_layer_19_2_2_two_channel"
	top: "cpm_moudle_layer_19_2_2_two_channel_2"
	param {
		lr_mult: 1
		decay_mult: 1
	}
	param {
		lr_mult: 2
		decay_mult: 1
	}
	convolution_param {
		num_output: 256
		kernel_size: 3
		stride: 1
		pad: 1
		weight_filler {
			type: "xavier"
		}
		bias_filler {
			type: "constant"
			value: 0
		}
	}
}
layer {
	name: "cpm_moudle_layer_19_2_2_two_channel_2/bn"
	type: "BatchNorm"
	bottom: "cpm_moudle_layer_19_2_2_two_channel_2"
	top: "cpm_moudle_layer_19_2_2_two_channel_2"
	param {
		lr_mult: 0
		decay_mult: 0
	}
	param {
		lr_mult: 0
		decay_mult: 0
	}
	param {
		lr_mult: 0
		decay_mult: 0
	}
}
layer {
	name: "cpm_moudle_layer_19_2_2_two_channel_2/scale"
	type: "Scale"
	bottom: "cpm_moudle_layer_19_2_2_two_channel_2"
	top: "cpm_moudle_layer_19_2_2_two_channel_2"
	param {
		lr_mult: 1.0
		decay_mult: 0.0
	}
	param {
		lr_mult: 2.0
		decay_mult: 0.0
	}
	scale_param {
		filler {
			value: 1
		}
		bias_term: true
		bias_filler {
			value: 0
		}
	}
}
layer {
	name: "cpm_moudle_layer_19_2_2_two_channel_2/relu"
	type: "ReLU"
	bottom: "cpm_moudle_layer_19_2_2_two_channel_2"
	top: "cpm_moudle_layer_19_2_2_two_channel_2"
}
layer {
	name: "dectction_moudle_five"
	type: "Concat"
	bottom: "cpm_moudle_layer_19_2_2_one_channel"
	bottom: "cpm_moudle_layer_19_2_2_two_channel_2"
	top: "dectction_moudle_five"
}
#######################################################################
#                             modeule six                             #
#######################################################################
#################context moudle####################
layer{
	name: "cpm_moudle_layer_19_2_3"
	type: "Convolution"
	bottom: "layer_19_2_3"
	top: "cpm_moudle_layer_19_2_3"
	param {
		lr_mult: 1
		decay_mult: 1
	}
	param {
		lr_mult: 2
		decay_mult: 1
	}
	convolution_param {
		num_output: 256
		kernel_size: 3
		stride: 1
		pad: 1
		weight_filler {
			type: "xavier"
		}
		bias_filler {
			type: "constant"
			value: 0
		}
	}
}
layer {
	name: "cpm_moudle_layer_19_2_3/bn"
	type: "BatchNorm"
	bottom: "cpm_moudle_layer_19_2_3"
	top: "cpm_moudle_layer_19_2_3"
	param {
		lr_mult: 0
		decay_mult: 0
	}
	param {
		lr_mult: 0
		decay_mult: 0
	}
	param {
		lr_mult: 0
		decay_mult: 0
	}
}
layer {
	name: "cpm_moudle_layer_19_2_3/scale"
	type: "Scale"
	bottom: "cpm_moudle_layer_19_2_3"
	top: "cpm_moudle_layer_19_2_3"
	param {
		lr_mult: 1.0
		decay_mult: 0.0
	}
	param {
		lr_mult: 2.0
		decay_mult: 0.0
	}
	scale_param {
		filler {
			value: 1
		}
		bias_term: true
		bias_filler {
			value: 0
		}
	}
}
layer {
	name: "cpm_moudle_layer_19_2_3/relu"
	type: "ReLU"
	bottom: "cpm_moudle_layer_19_2_3"
	top: "cpm_moudle_layer_19_2_3"
}
layer{
	name: "cpm_moudle_layer_19_2_3_one_channel"
	type: "Convolution"
	bottom: "cpm_moudle_layer_19_2_3"
	top: "cpm_moudle_layer_19_2_3_one_channel"
	param {
		lr_mult: 1
		decay_mult: 1
	}
	param {
		lr_mult: 2
		decay_mult: 1
	}
	convolution_param {
		num_output: 128
		kernel_size: 3
		stride: 1
		pad: 1
		weight_filler {
			type: "xavier"
		}
		bias_filler {
			type: "constant"
			value: 0
		}
	}
}
layer {
	name: "cpm_moudle_layer_19_2_3_one_channel/bn"
	type: "BatchNorm"
	bottom: "cpm_moudle_layer_19_2_3_one_channel"
	top: "cpm_moudle_layer_19_2_3_one_channel"
	param {
		lr_mult: 0
		decay_mult: 0
	}
	param {
		lr_mult: 0
		decay_mult: 0
	}
	param {
		lr_mult: 0
		decay_mult: 0
	}
}
layer {
	name: "cpm_moudle_layer_19_2_3_one_channel/scale"
	type: "Scale"
	bottom: "cpm_moudle_layer_19_2_3_one_channel"
	top: "cpm_moudle_layer_19_2_3_one_channel"
	param {
		lr_mult: 1.0
		decay_mult: 0.0
	}
	param {
		lr_mult: 2.0
		decay_mult: 0.0
	}
	scale_param {
		filler {
			value: 1
		}
		bias_term: true
		bias_filler {
			value: 0
		}
	}
}
layer {
	name: "cpm_moudle_layer_19_2_3_one_channel/relu"
	type: "ReLU"
	bottom: "cpm_moudle_layer_19_2_3_one_channel"
	top: "cpm_moudle_layer_19_2_3_one_channel"
}
#####
layer{
	name: "cpm_moudle_layer_19_2_3_two_channel"
	type: "Convolution"
	bottom: "cpm_moudle_layer_19_2_3"
	top: "cpm_moudle_layer_19_2_3_two_channel"
	param {
		lr_mult: 1
		decay_mult: 1
	}
	param {
		lr_mult: 2
		decay_mult: 1
	}
	convolution_param {
		num_output: 128
		kernel_size: 3
		stride: 1
		pad: 1
		weight_filler {
			type: "xavier"
		}
		bias_filler {
			type: "constant"
			value: 0
		}
	}
}
layer {
	name: "cpm_moudle_layer_19_2_3_two_channel/bn"
	type: "BatchNorm"
	bottom: "cpm_moudle_layer_19_2_3_two_channel"
	top: "cpm_moudle_layer_19_2_3_two_channel"
	param {
		lr_mult: 0
		decay_mult: 0
	}
	param {
		lr_mult: 0
		decay_mult: 0
	}
	param {
		lr_mult: 0
		decay_mult: 0
	}
}
layer {
	name: "cpm_moudle_layer_19_2_3_two_channel/scale"
	type: "Scale"
	bottom: "cpm_moudle_layer_19_2_3_two_channel"
	top: "cpm_moudle_layer_19_2_3_two_channel"
	param {
		lr_mult: 1.0
		decay_mult: 0.0
	}
	param {
		lr_mult: 2.0
		decay_mult: 0.0
	}
	scale_param {
		filler {
			value: 1
		}
		bias_term: true
		bias_filler {
			value: 0
		}
	}
}
layer {
	name: "cpm_moudle_layer_19_2_3_two_channel/relu"
	type: "ReLU"
	bottom: "cpm_moudle_layer_19_2_3_two_channel"
	top: "cpm_moudle_layer_19_2_3_two_channel"
}

layer{
	name: "cpm_moudle_layer_19_2_3_two_channel_2"
	type: "Convolution"
	bottom: "cpm_moudle_layer_19_2_3_two_channel"
	top: "cpm_moudle_layer_19_2_3_two_channel_2"
	param {
		lr_mult: 1
		decay_mult: 1
	}
	param {
		lr_mult: 2
		decay_mult: 1
	}
	convolution_param {
		num_output: 128
		kernel_size: 3
		stride: 1
		pad: 1
		weight_filler {
			type: "xavier"
		}
		bias_filler {
			type: "constant"
			value: 0
		}
	}
}
layer {
	name: "cpm_moudle_layer_19_2_3_two_channel_2/bn"
	type: "BatchNorm"
	bottom: "cpm_moudle_layer_19_2_3_two_channel_2"
	top: "cpm_moudle_layer_19_2_3_two_channel_2"
	param {
		lr_mult: 0
		decay_mult: 0
	}
	param {
		lr_mult: 0
		decay_mult: 0
	}
	param {
		lr_mult: 0
		decay_mult: 0
	}
}
layer {
	name: "cpm_moudle_layer_19_2_3_two_channel_2/scale"
	type: "Scale"
	bottom: "cpm_moudle_layer_19_2_3_two_channel_2"
	top: "cpm_moudle_layer_19_2_3_two_channel_2"
	param {
		lr_mult: 1.0
		decay_mult: 0.0
	}
	param {
		lr_mult: 2.0
		decay_mult: 0.0
	}
	scale_param {
		filler {
			value: 1
		}
		bias_term: true
		bias_filler {
			value: 0
		}
	}
}
layer {
	name: "cpm_moudle_layer_19_2_3_two_channel_2/relu"
	type: "ReLU"
	bottom: "cpm_moudle_layer_19_2_3_two_channel_2"
	top: "cpm_moudle_layer_19_2_3_two_channel_2"
}
layer {
	name: "dectction_moudle_six"
	type: "Concat"
	bottom: "cpm_moudle_layer_19_2_3_one_channel"
	bottom: "cpm_moudle_layer_19_2_3_two_channel_2"
	top: "dectction_moudle_six"
}
############################################################
#######################priorBox moudle one##################
############################################################
layer {
	name: "dectction_moudle_one_priorbox"
	type: "PriorBox"
	bottom: "dectction_moudle_one"
	bottom: "data"
	top: "dectction_moudle_one_priorbox"
	prior_box_param {
		min_size: 16.0
		flip: true
		clip: false
		variance: 0.1
		variance: 0.1
		variance: 0.2
		variance: 0.2
		offset: 0.5
	}
}

layer {
	name: "dectction_moudle_one_loc"
	type: "Convolution"
	bottom: "dectction_moudle_one"
	top: "dectction_moudle_one_loc"
	param {
		lr_mult: 1
		decay_mult: 1
	}
	param {
		lr_mult: 2
		decay_mult: 0
	}
	convolution_param {
		num_output: 4
		pad: 1
		kernel_size: 3
		stride: 1
		bias_term: true
		weight_filler {
			type: "xavier"
		}
		bias_filler {
			type: "constant"
			value: 0
		}
	}
}
layer {
	name: "dectction_moudle_one_loc_perm"
	type: "Permute"
	bottom: "dectction_moudle_one_loc"
	top: "dectction_moudle_one_loc_perm"
	permute_param {
		order: 0
		order: 2
		order: 3
		order: 1
	}
}
layer {
	name: "dectction_moudle_one_loc_flat"
	type: "Flatten"
	bottom: "dectction_moudle_one_loc_perm"
	top: "dectction_moudle_one_loc_flat"
	flatten_param {
		axis: 1
	}
}

layer {
	name: "dectction_moudle_one_conf"
	type: "Convolution"
	bottom: "dectction_moudle_one"
	top: "dectction_moudle_one_conf"
	param {
		lr_mult: 1
		decay_mult: 1
	}
	param {
		lr_mult: 2
		decay_mult: 0
	}
	convolution_param {
		num_output: 6
		pad: 1
		kernel_size: 3
		stride: 1
		bias_term: true
		weight_filler {
			type: "xavier"
		}
		bias_filler {
			type: "constant"
			value: 0
		}
	}
}
layer {
	name: "dectction_moudle_one_conf_slice"
	type: "Slice"
	bottom: "dectction_moudle_one_conf"
	top: "dectction_moudle_one_conf1"
	top: "dectction_moudle_one_conf2"
	top: "dectction_moudle_one_conf3"
	top: "dectction_moudle_one_conf4"
	top: "dectction_moudle_one_conf5"
	top: "dectction_moudle_one_conf6"
	slice_param {
		axis: 1
		slice_point: 1
		slice_point: 2
		slice_point: 3
		slice_point: 4
		slice_point: 5
	}
}
layer {
	name: "dectction_moudle_one_conf_maxout_bg"
	type: "Eltwise"
	bottom: "dectction_moudle_one_conf1"
	bottom: "dectction_moudle_one_conf2"
	bottom: "dectction_moudle_one_conf3"
	top: "dectction_moudle_one_conf_maxout_bg"
	eltwise_param {
		operation: MAX
	}
}
layer {
	name: "dectction_moudle_one_conf_maxout_fg"
	type: "Eltwise"
	bottom: "dectction_moudle_one_conf4"
	bottom: "dectction_moudle_one_conf5"
	bottom: "dectction_moudle_one_conf6"
	top: "dectction_moudle_one_conf_maxout_fg"
	eltwise_param {
		operation: MAX
	}
}
layer {
	name: "dectction_moudle_one_conf_concat"
	type: "Concat"
	bottom: "dectction_moudle_one_conf_maxout_bg"
	bottom: "dectction_moudle_one_conf_maxout_fg"
	top: "dectction_moudle_one_conf_concat"
	concat_param {
		axis: 1
	}
}
layer {
	name: "dectction_moudle_one_conf_concat_perm"
	type: "Permute"
	bottom: "dectction_moudle_one_conf_concat"
	top: "dectction_moudle_one_conf_concat_perm"
	permute_param {
		order: 0
		order: 2
		order: 3
		order: 1
	}
}
layer {
	name: "dectction_moudle_one_conf_concat_flat"
	type: "Flatten"
	bottom: "dectction_moudle_one_conf_concat_perm"
	top: "dectction_moudle_one_conf_concat_flat"
	flatten_param {
		axis: 1
	}
}

layer {
	name: "dectction_moudle_one_blur"
	type: "Convolution"
	bottom: "dectction_moudle_one"
	top: "dectction_moudle_one_blur"
	param {
		lr_mult: 1.0
		decay_mult: 1.0
	}
	param {
		lr_mult: 2.0
		decay_mult: 0.0
	}
	convolution_param {
		num_output: 3
		kernel_size: 1
		weight_filler {
			type: "msra"
		}
		bias_filler {
			type: "constant"
			value: 0.0
		}
	}
}
layer {
	name: "dectction_moudle_one_blur_perm"
	type: "Permute"
	bottom: "dectction_moudle_one_blur"
	top: "dectction_moudle_one_blur_perm"
	permute_param {
		order: 0
		order: 2
		order: 3
		order: 1
	}
}
layer {
	name: "dectction_moudle_one_blur_flat"
	type: "Flatten"
	bottom: "dectction_moudle_one_blur_perm"
	top: "dectction_moudle_one_blur_flat"
	flatten_param {
		axis: 1
	}
}
layer {
	name: "dectction_moudle_one_occlu"
	type: "Convolution"
	bottom: "dectction_moudle_one"
	top: "dectction_moudle_one_occlu"
	param {
		lr_mult: 1.0
		decay_mult: 1.0
	}
	param {
		lr_mult: 2.0
		decay_mult: 0.0
	}
	convolution_param {
		num_output: 3
		kernel_size: 1
		weight_filler {
			type: "msra"
		}
		bias_filler {
			type: "constant"
			value: 0.0
		}
	}
}
layer {
	name: "dectction_moudle_one_occlu_perm"
	type: "Permute"
	bottom: "dectction_moudle_one_occlu"
	top: "dectction_moudle_one_occlu_perm"
	permute_param {
		order: 0
		order: 2
		order: 3
		order: 1
	}
}
layer {
	name: "dectction_moudle_one_occlu_flat"
	type: "Flatten"
	bottom: "dectction_moudle_one_occlu_perm"
	top: "dectction_moudle_one_occlu_flat"
	flatten_param {
		axis: 1
	}
}
############################################################
#######################priorBox moudle two##################
############################################################
layer {
	name: "dectction_moudle_two_priorbox"
	type: "PriorBox"
	bottom: "dectction_moudle_two"
	bottom: "data"
	top: "dectction_moudle_two_priorbox"
	prior_box_param {
		min_size: 32.0
		flip: true
		clip: false
		variance: 0.1
		variance: 0.1
		variance: 0.2
		variance: 0.2
		offset: 0.5
	}
}

layer {
	name: "dectction_moudle_two_loc"
	type: "Convolution"
	bottom: "dectction_moudle_two"
	top: "dectction_moudle_two_loc"
	param {
		lr_mult: 1
		decay_mult: 1
	}
	param {
		lr_mult: 2
		decay_mult: 0
	}
	convolution_param {
		num_output: 4
		pad: 1
		kernel_size: 3
		stride: 1
		bias_term: true
		weight_filler {
			type: "xavier"
		}
		bias_filler {
			type: "constant"
			value: 0
		}
	}
}
layer {
	name: "dectction_moudle_two_loc_perm"
	type: "Permute"
	bottom: "dectction_moudle_two_loc"
	top: "dectction_moudle_two_loc_perm"
	permute_param {
		order: 0
		order: 2
		order: 3
		order: 1
	}
}
layer {
	name: "dectction_moudle_two_loc_flat"
	type: "Flatten"
	bottom: "dectction_moudle_two_loc_perm"
	top: "dectction_moudle_two_loc_flat"
	flatten_param {
		axis: 1
	}
}

layer {
	name: "dectction_moudle_two_conf"
	type: "Convolution"
	bottom: "dectction_moudle_two"
	top: "dectction_moudle_two_conf"
	param {
		lr_mult: 1
		decay_mult: 1
	}
	param {
		lr_mult: 2
		decay_mult: 0
	}
	convolution_param {
		num_output: 6
		pad: 1
		kernel_size: 3
		stride: 1
		bias_term: true
		weight_filler {
			type: "xavier"
		}
		bias_filler {
			type: "constant"
			value: 0
		}
	}
}
layer {
	name: "dectction_moudle_two_conf_slice"
	type: "Slice"
	bottom: "dectction_moudle_two_conf"
	top: "dectction_moudle_two_conf1"
	top: "dectction_moudle_two_conf2"
	top: "dectction_moudle_two_conf3"
	top: "dectction_moudle_two_conf4"
	top: "dectction_moudle_two_conf5"
	top: "dectction_moudle_two_conf6"
	slice_param {
		axis: 1
		slice_point: 1
		slice_point: 2
		slice_point: 3
		slice_point: 4
		slice_point: 5
	}
}
layer {
	name: "dectction_moudle_two_conf_maxout_bg"
	type: "Eltwise"
	bottom: "dectction_moudle_two_conf1"
	bottom: "dectction_moudle_two_conf2"
	bottom: "dectction_moudle_two_conf3"
	top: "dectction_moudle_two_conf_maxout_bg"
	eltwise_param {
		operation: MAX
	}
}
layer {
	name: "dectction_moudle_two_conf_maxout_fg"
	type: "Eltwise"
	bottom: "dectction_moudle_two_conf4"
	bottom: "dectction_moudle_two_conf5"
	bottom: "dectction_moudle_two_conf6"
	top: "dectction_moudle_two_conf_maxout_fg"
	eltwise_param {
		operation: MAX
	}
}
layer {
	name: "dectction_moudle_two_conf_concat"
	type: "Concat"
	bottom: "dectction_moudle_two_conf_maxout_bg"
	bottom: "dectction_moudle_two_conf_maxout_fg"
	top: "dectction_moudle_two_conf_concat"
	concat_param {
		axis: 1
	}
}
layer {
	name: "dectction_moudle_two_conf_concat_perm"
	type: "Permute"
	bottom: "dectction_moudle_two_conf_concat"
	top: "dectction_moudle_two_conf_concat_perm"
	permute_param {
		order: 0
		order: 2
		order: 3
		order: 1
	}
}
layer {
	name: "dectction_moudle_two_conf_concat_flat"
	type: "Flatten"
	bottom: "dectction_moudle_two_conf_concat_perm"
	top: "dectction_moudle_two_conf_concat_flat"
	flatten_param {
		axis: 1
	}
}

layer {
	name: "dectction_moudle_two_blur"
	type: "Convolution"
	bottom: "dectction_moudle_two"
	top: "dectction_moudle_two_blur"
	param {
		lr_mult: 1.0
		decay_mult: 1.0
	}
	param {
		lr_mult: 2.0
		decay_mult: 0.0
	}
	convolution_param {
		num_output: 3
		kernel_size: 1
		weight_filler {
			type: "msra"
		}
		bias_filler {
			type: "constant"
			value: 0.0
		}
	}
}
layer {
	name: "dectction_moudle_two_blur_perm"
	type: "Permute"
	bottom: "dectction_moudle_two_blur"
	top: "dectction_moudle_two_blur_perm"
	permute_param {
		order: 0
		order: 2
		order: 3
		order: 1
	}
}
layer {
	name: "dectction_moudle_two_blur_flat"
	type: "Flatten"
	bottom: "dectction_moudle_two_blur_perm"
	top: "dectction_moudle_two_blur_flat"
	flatten_param {
		axis: 1
	}
}
layer {
	name: "dectction_moudle_two_occlu"
	type: "Convolution"
	bottom: "dectction_moudle_two"
	top: "dectction_moudle_two_occlu"
	param {
		lr_mult: 1.0
		decay_mult: 1.0
	}
	param {
		lr_mult: 2.0
		decay_mult: 0.0
	}
	convolution_param {
		num_output: 3
		kernel_size: 1
		weight_filler {
			type: "msra"
		}
		bias_filler {
			type: "constant"
			value: 0.0
		}
	}
}
layer {
	name: "dectction_moudle_two_occlu_perm"
	type: "Permute"
	bottom: "dectction_moudle_two_occlu"
	top: "dectction_moudle_two_occlu_perm"
	permute_param {
		order: 0
		order: 2
		order: 3
		order: 1
	}
}
layer {
	name: "dectction_moudle_two_occlu_flat"
	type: "Flatten"
	bottom: "dectction_moudle_two_occlu_perm"
	top: "dectction_moudle_two_occlu_flat"
	flatten_param {
		axis: 1
	}
}

############################################################
#######################priorBox moudle three################
############################################################
layer {
	name: "dectction_moudle_three_priorbox"
	type: "PriorBox"
	bottom: "dectction_moudle_three"
	bottom: "data"
	top: "dectction_moudle_three_priorbox"
	prior_box_param {
		min_size: 64.0
		flip: true
		clip: false
		variance: 0.1
		variance: 0.1
		variance: 0.2
		variance: 0.2
		offset: 0.5
	}
}

layer {
	name: "dectction_moudle_three_loc"
	type: "Convolution"
	bottom: "dectction_moudle_three"
	top: "dectction_moudle_three_loc"
	param {
		lr_mult: 1
		decay_mult: 1
	}
	param {
		lr_mult: 2
		decay_mult: 0
	}
	convolution_param {
		num_output: 4
		pad: 1
		kernel_size: 3
		stride: 1
		bias_term: true
		weight_filler {
			type: "xavier"
		}
		bias_filler {
			type: "constant"
			value: 0
		}
	}
}
layer {
	name: "dectction_moudle_three_loc_perm"
	type: "Permute"
	bottom: "dectction_moudle_three_loc"
	top: "dectction_moudle_three_loc_perm"
	permute_param {
		order: 0
		order: 2
		order: 3
		order: 1
	}
}
layer {
	name: "dectction_moudle_three_loc_flat"
	type: "Flatten"
	bottom: "dectction_moudle_three_loc_perm"
	top: "dectction_moudle_three_loc_flat"
	flatten_param {
		axis: 1
	}
}

layer {
	name: "dectction_moudle_three_conf"
	type: "Convolution"
	bottom: "dectction_moudle_three"
	top: "dectction_moudle_three_conf"
	param {
		lr_mult: 1
		decay_mult: 1
	}
	param {
		lr_mult: 2
		decay_mult: 0
	}
	convolution_param {
		num_output: 6
		pad: 1
		kernel_size: 3
		stride: 1
		bias_term: true
		weight_filler {
			type: "xavier"
		}
		bias_filler {
			type: "constant"
			value: 0
		}
	}
}
layer {
	name: "dectction_moudle_three_conf_slice"
	type: "Slice"
	bottom: "dectction_moudle_three_conf"
	top: "dectction_moudle_three_conf1"
	top: "dectction_moudle_three_conf2"
	top: "dectction_moudle_three_conf3"
	top: "dectction_moudle_three_conf4"
	top: "dectction_moudle_three_conf5"
	top: "dectction_moudle_three_conf6"
	slice_param {
		axis: 1
		slice_point: 1
		slice_point: 2
		slice_point: 3
		slice_point: 4
		slice_point: 5
	}
}
layer {
	name: "dectction_moudle_three_conf_maxout_bg"
	type: "Eltwise"
	bottom: "dectction_moudle_three_conf1"
	bottom: "dectction_moudle_three_conf2"
	bottom: "dectction_moudle_three_conf3"
	top: "dectction_moudle_three_conf_maxout_bg"
	eltwise_param {
		operation: MAX
	}
}
layer {
	name: "dectction_moudle_three_conf_maxout_fg"
	type: "Eltwise"
	bottom: "dectction_moudle_three_conf4"
	bottom: "dectction_moudle_three_conf5"
	bottom: "dectction_moudle_three_conf6"
	top: "dectction_moudle_three_conf_maxout_fg"
	eltwise_param {
		operation: MAX
	}
}
layer {
	name: "dectction_moudle_three_conf_concat"
	type: "Concat"
	bottom: "dectction_moudle_three_conf_maxout_bg"
	bottom: "dectction_moudle_three_conf_maxout_fg"
	top: "dectction_moudle_three_conf_concat"
	concat_param {
		axis: 1
	}
}
layer {
	name: "dectction_moudle_three_conf_concat_perm"
	type: "Permute"
	bottom: "dectction_moudle_three_conf_concat"
	top: "dectction_moudle_three_conf_concat_perm"
	permute_param {
		order: 0
		order: 2
		order: 3
		order: 1
	}
}
layer {
	name: "dectction_moudle_three_conf_concat_flat"
	type: "Flatten"
	bottom: "dectction_moudle_three_conf_concat_perm"
	top: "dectction_moudle_three_conf_concat_flat"
	flatten_param {
		axis: 1
	}
}

layer {
	name: "dectction_moudle_three_blur"
	type: "Convolution"
	bottom: "dectction_moudle_three"
	top: "dectction_moudle_three_blur"
	param {
		lr_mult: 1.0
		decay_mult: 1.0
	}
	param {
		lr_mult: 2.0
		decay_mult: 0.0
	}
	convolution_param {
		num_output: 3
		kernel_size: 1
		weight_filler {
			type: "msra"
		}
		bias_filler {
			type: "constant"
			value: 0.0
		}
	}
}
layer {
	name: "dectction_moudle_three_blur_perm"
	type: "Permute"
	bottom: "dectction_moudle_three_blur"
	top: "dectction_moudle_three_blur_perm"
	permute_param {
		order: 0
		order: 2
		order: 3
		order: 1
	}
}
layer {
	name: "dectction_moudle_three_blur_flat"
	type: "Flatten"
	bottom: "dectction_moudle_three_blur_perm"
	top: "dectction_moudle_three_blur_flat"
	flatten_param {
		axis: 1
	}
}
layer {
	name: "dectction_moudle_three_occlu"
	type: "Convolution"
	bottom: "dectction_moudle_three"
	top: "dectction_moudle_three_occlu"
	param {
		lr_mult: 1.0
		decay_mult: 1.0
	}
	param {
		lr_mult: 2.0
		decay_mult: 0.0
	}
	convolution_param {
		num_output: 3
		kernel_size: 1
		weight_filler {
			type: "msra"
		}
		bias_filler {
			type: "constant"
			value: 0.0
		}
	}
}
layer {
	name: "dectction_moudle_three_occlu_perm"
	type: "Permute"
	bottom: "dectction_moudle_three_occlu"
	top: "dectction_moudle_three_occlu_perm"
	permute_param {
		order: 0
		order: 2
		order: 3
		order: 1
	}
}
layer {
	name: "dectction_moudle_three_occlu_flat"
	type: "Flatten"
	bottom: "dectction_moudle_three_occlu_perm"
	top: "dectction_moudle_three_occlu_flat"
	flatten_param {
		axis: 1
	}
}

############################################################
#######################priorBox moudle four ################
############################################################
layer {
	name: "dectction_moudle_four_priorbox"
	type: "PriorBox"
	bottom: "dectction_moudle_four"
	bottom: "data"
	top: "dectction_moudle_four_priorbox"
	prior_box_param {
		min_size: 64.0
		min_size: 128.0
		flip: true
		clip: false
		variance: 0.1
		variance: 0.1
		variance: 0.2
		variance: 0.2
		offset: 0.5
	}
}

layer {
	name: "dectction_moudle_four_loc"
	type: "Convolution"
	bottom: "dectction_moudle_four"
	top: "dectction_moudle_four_loc"
	param {
		lr_mult: 1
		decay_mult: 1
	}
	param {
		lr_mult: 2
		decay_mult: 0
	}
	convolution_param {
		num_output: 8
		pad: 1
		kernel_size: 3
		stride: 1
		bias_term: true
		weight_filler {
			type: "xavier"
		}
		bias_filler {
			type: "constant"
			value: 0
		}
	}
}
layer {
	name: "dectction_moudle_four_loc_perm"
	type: "Permute"
	bottom: "dectction_moudle_four_loc"
	top: "dectction_moudle_four_loc_perm"
	permute_param {
		order: 0
		order: 2
		order: 3
		order: 1
	}
}
layer {
	name: "dectction_moudle_four_loc_flat"
	type: "Flatten"
	bottom: "dectction_moudle_four_loc_perm"
	top: "dectction_moudle_four_loc_flat"
	flatten_param {
		axis: 1
	}
}

layer {
	name: "dectction_moudle_four_conf"
	type: "Convolution"
	bottom: "dectction_moudle_four"
	top: "dectction_moudle_four_conf"
	param {
		lr_mult: 1
		decay_mult: 1
	}
	param {
		lr_mult: 2
		decay_mult: 0
	}
	convolution_param {
		num_output: 4
		pad: 1
		kernel_size: 3
		stride: 1
		bias_term: true
		weight_filler {
			type: "xavier"
		}
		bias_filler {
			type: "constant"
			value: 0
		}
	}
}
layer {
	name: "dectction_moudle_four_conf_concat_perm"
	type: "Permute"
	bottom: "dectction_moudle_four_conf"
	top: "dectction_moudle_four_conf_concat_perm"
	permute_param {
		order: 0
		order: 2
		order: 3
		order: 1
	}
}
layer {
	name: "dectction_moudle_four_conf_concat_flat"
	type: "Flatten"
	bottom: "dectction_moudle_four_conf_concat_perm"
	top: "dectction_moudle_four_conf_concat_flat"
	flatten_param {
		axis: 1
	}
}

layer {
	name: "dectction_moudle_four_blur"
	type: "Convolution"
	bottom: "dectction_moudle_four"
	top: "dectction_moudle_four_blur"
	param {
		lr_mult: 1.0
		decay_mult: 1.0
	}
	param {
		lr_mult: 2.0
		decay_mult: 0.0
	}
	convolution_param {
		num_output: 6
		kernel_size: 1
		weight_filler {
			type: "msra"
		}
		bias_filler {
			type: "constant"
			value: 0.0
		}
	}
}
layer {
	name: "dectction_moudle_four_blur_perm"
	type: "Permute"
	bottom: "dectction_moudle_four_blur"
	top: "dectction_moudle_four_blur_perm"
	permute_param {
		order: 0
		order: 2
		order: 3
		order: 1
	}
}
layer {
	name: "dectction_moudle_four_blur_flat"
	type: "Flatten"
	bottom: "dectction_moudle_four_blur_perm"
	top: "dectction_moudle_four_blur_flat"
	flatten_param {
		axis: 1
	}
}
layer {
	name: "dectction_moudle_four_occlu"
	type: "Convolution"
	bottom: "dectction_moudle_four"
	top: "dectction_moudle_four_occlu"
	param {
		lr_mult: 1.0
		decay_mult: 1.0
	}
	param {
		lr_mult: 2.0
		decay_mult: 0.0
	}
	convolution_param {
		num_output: 6
		kernel_size: 1
		weight_filler {
			type: "msra"
		}
		bias_filler {
			type: "constant"
			value: 0.0
		}
	}
}
layer {
	name: "dectction_moudle_four_occlu_perm"
	type: "Permute"
	bottom: "dectction_moudle_four_occlu"
	top: "dectction_moudle_four_occlu_perm"
	permute_param {
		order: 0
		order: 2
		order: 3
		order: 1
	}
}
layer {
	name: "dectction_moudle_four_occlu_flat"
	type: "Flatten"
	bottom: "dectction_moudle_four_occlu_perm"
	top: "dectction_moudle_four_occlu_flat"
	flatten_param {
		axis: 1
	}
}

############################################################
#######################priorBox moudle five ################
############################################################
layer {
	name: "dectction_moudle_five_priorbox"
	type: "PriorBox"
	bottom: "dectction_moudle_five"
	bottom: "data"
	top: "dectction_moudle_five_priorbox"
	prior_box_param {
		min_size: 128.0
		min_size: 256.0
		flip: true
		clip: false
		variance: 0.1
		variance: 0.1
		variance: 0.2
		variance: 0.2
		offset: 0.5
	}
}

layer {
	name: "dectction_moudle_five_loc"
	type: "Convolution"
	bottom: "dectction_moudle_five"
	top: "dectction_moudle_five_loc"
	param {
		lr_mult: 1
		decay_mult: 1
	}
	param {
		lr_mult: 2
		decay_mult: 0
	}
	convolution_param {
		num_output: 8
		pad: 1
		kernel_size: 3
		stride: 1
		bias_term: true
		weight_filler {
			type: "xavier"
		}
		bias_filler {
			type: "constant"
			value: 0
		}
	}
}
layer {
	name: "dectction_moudle_five_loc_perm"
	type: "Permute"
	bottom: "dectction_moudle_five_loc"
	top: "dectction_moudle_five_loc_perm"
	permute_param {
		order: 0
		order: 2
		order: 3
		order: 1
	}
}
layer {
	name: "dectction_moudle_five_loc_flat"
	type: "Flatten"
	bottom: "dectction_moudle_five_loc_perm"
	top: "dectction_moudle_five_loc_flat"
	flatten_param {
		axis: 1
	}
}

layer {
	name: "dectction_moudle_five_conf"
	type: "Convolution"
	bottom: "dectction_moudle_five"
	top: "dectction_moudle_five_conf"
	param {
		lr_mult: 1
		decay_mult: 1
	}
	param {
		lr_mult: 2
		decay_mult: 0
	}
	convolution_param {
		num_output: 4
		pad: 1
		kernel_size: 3
		stride: 1
		bias_term: true
		weight_filler {
			type: "xavier"
		}
		bias_filler {
			type: "constant"
			value: 0
		}
	}
}
layer {
	name: "dectction_moudle_five_conf_concat_perm"
	type: "Permute"
	bottom: "dectction_moudle_five_conf"
	top: "dectction_moudle_five_conf_concat_perm"
	permute_param {
		order: 0
		order: 2
		order: 3
		order: 1
	}
}
layer {
	name: "dectction_moudle_five_conf_concat_flat"
	type: "Flatten"
	bottom: "dectction_moudle_five_conf_concat_perm"
	top: "dectction_moudle_five_conf_concat_flat"
	flatten_param {
		axis: 1
	}
}

layer {
	name: "dectction_moudle_five_blur"
	type: "Convolution"
	bottom: "dectction_moudle_five"
	top: "dectction_moudle_five_blur"
	param {
		lr_mult: 1.0
		decay_mult: 1.0
	}
	param {
		lr_mult: 2.0
		decay_mult: 0.0
	}
	convolution_param {
		num_output: 6
		kernel_size: 1
		weight_filler {
			type: "msra"
		}
		bias_filler {
			type: "constant"
			value: 0.0
		}
	}
}
layer {
	name: "dectction_moudle_five_blur_perm"
	type: "Permute"
	bottom: "dectction_moudle_five_blur"
	top: "dectction_moudle_five_blur_perm"
	permute_param {
		order: 0
		order: 2
		order: 3
		order: 1
	}
}
layer {
	name: "dectction_moudle_five_blur_flat"
	type: "Flatten"
	bottom: "dectction_moudle_five_blur_perm"
	top: "dectction_moudle_five_blur_flat"
	flatten_param {
		axis: 1
	}
}
layer {
	name: "dectction_moudle_five_occlu"
	type: "Convolution"
	bottom: "dectction_moudle_five"
	top: "dectction_moudle_five_occlu"
	param {
		lr_mult: 1.0
		decay_mult: 1.0
	}
	param {
		lr_mult: 2.0
		decay_mult: 0.0
	}
	convolution_param {
		num_output: 6
		kernel_size: 1
		weight_filler {
			type: "msra"
		}
		bias_filler {
			type: "constant"
			value: 0.0
		}
	}
}
layer {
	name: "dectction_moudle_five_occlu_perm"
	type: "Permute"
	bottom: "dectction_moudle_five_occlu"
	top: "dectction_moudle_five_occlu_perm"
	permute_param {
		order: 0
		order: 2
		order: 3
		order: 1
	}
}
layer {
	name: "dectction_moudle_five_occlu_flat"
	type: "Flatten"
	bottom: "dectction_moudle_five_occlu_perm"
	top: "dectction_moudle_five_occlu_flat"
	flatten_param {
		axis: 1
	}
}
############################################################
#######################priorBox moudle six ################
############################################################
layer {
	name: "dectction_moudle_six_priorbox"
	type: "PriorBox"
	bottom: "dectction_moudle_six"
	bottom: "data"
	top: "dectction_moudle_six_priorbox"
	prior_box_param {
		min_size: 256.0
		min_size: 512.0
		flip: true
		clip: false
		variance: 0.1
		variance: 0.1
		variance: 0.2
		variance: 0.2
		offset: 0.5
	}
}

layer {
	name: "dectction_moudle_six_loc"
	type: "Convolution"
	bottom: "dectction_moudle_six"
	top: "dectction_moudle_six_loc"
	param {
		lr_mult: 1
		decay_mult: 1
	}
	param {
		lr_mult: 2
		decay_mult: 0
	}
	convolution_param {
		num_output: 8
		pad: 1
		kernel_size: 3
		stride: 1
		bias_term: true
		weight_filler {
			type: "xavier"
		}
		bias_filler {
			type: "constant"
			value: 0
		}
	}
}
layer {
	name: "dectction_moudle_six_loc_perm"
	type: "Permute"
	bottom: "dectction_moudle_six_loc"
	top: "dectction_moudle_six_loc_perm"
	permute_param {
		order: 0
		order: 2
		order: 3
		order: 1
	}
}
layer {
	name: "dectction_moudle_six_loc_flat"
	type: "Flatten"
	bottom: "dectction_moudle_six_loc_perm"
	top: "dectction_moudle_six_loc_flat"
	flatten_param {
		axis: 1
	}
}

layer {
	name: "dectction_moudle_six_conf"
	type: "Convolution"
	bottom: "dectction_moudle_six"
	top: "dectction_moudle_six_conf"
	param {
		lr_mult: 1
		decay_mult: 1
	}
	param {
		lr_mult: 2
		decay_mult: 0
	}
	convolution_param {
		num_output: 4
		pad: 1
		kernel_size: 3
		stride: 1
		bias_term: true
		weight_filler {
			type: "xavier"
		}
		bias_filler {
			type: "constant"
			value: 0
		}
	}
}
layer {
	name: "dectction_moudle_six_conf_concat_perm"
	type: "Permute"
	bottom: "dectction_moudle_six_conf"
	top: "dectction_moudle_six_conf_concat_perm"
	permute_param {
		order: 0
		order: 2
		order: 3
		order: 1
	}
}
layer {
	name: "dectction_moudle_six_conf_concat_flat"
	type: "Flatten"
	bottom: "dectction_moudle_six_conf_concat_perm"
	top: "dectction_moudle_six_conf_concat_flat"
	flatten_param {
		axis: 1
	}
}

layer {
	name: "dectction_moudle_six_blur"
	type: "Convolution"
	bottom: "dectction_moudle_six"
	top: "dectction_moudle_six_blur"
	param {
		lr_mult: 1.0
		decay_mult: 1.0
	}
	param {
		lr_mult: 2.0
		decay_mult: 0.0
	}
	convolution_param {
		num_output: 6
		kernel_size: 1
		weight_filler {
			type: "msra"
		}
		bias_filler {
			type: "constant"
			value: 0.0
		}
	}
}
layer {
	name: "dectction_moudle_six_blur_perm"
	type: "Permute"
	bottom: "dectction_moudle_six_blur"
	top: "dectction_moudle_six_blur_perm"
	permute_param {
		order: 0
		order: 2
		order: 3
		order: 1
	}
}
layer {
	name: "dectction_moudle_six_blur_flat"
	type: "Flatten"
	bottom: "dectction_moudle_six_blur_perm"
	top: "dectction_moudle_six_blur_flat"
	flatten_param {
		axis: 1
	}
}
layer {
	name: "dectction_moudle_six_occlu"
	type: "Convolution"
	bottom: "dectction_moudle_six"
	top: "dectction_moudle_six_occlu"
	param {
		lr_mult: 1.0
		decay_mult: 1.0
	}
	param {
		lr_mult: 2.0
		decay_mult: 0.0
	}
	convolution_param {
		num_output: 6
		kernel_size: 1
		weight_filler {
			type: "msra"
		}
		bias_filler {
			type: "constant"
			value: 0.0
		}
	}
}
layer {
	name: "dectction_moudle_six_occlu_perm"
	type: "Permute"
	bottom: "dectction_moudle_six_occlu"
	top: "dectction_moudle_six_occlu_perm"
	permute_param {
		order: 0
		order: 2
		order: 3
		order: 1
	}
}
layer {
	name: "dectction_moudle_six_occlu_flat"
	type: "Flatten"
	bottom: "dectction_moudle_six_occlu_perm"
	top: "dectction_moudle_six_occlu_flat"
	flatten_param {
		axis: 1
	}
}
################################################
layer {
	name: "mbox_priorbox"
	type: "Concat"
	bottom: "dectction_moudle_one_priorbox"
	bottom: "dectction_moudle_two_priorbox"
	bottom: "dectction_moudle_three_priorbox"
	bottom: "dectction_moudle_four_priorbox"
	bottom: "dectction_moudle_five_priorbox"
	bottom: "dectction_moudle_six_priorbox"
	top: "mbox_priorbox"
	concat_param {
		axis: 2
	}
}

layer {
	name: "mbox_loc"
	type: "Concat"
	bottom: "dectction_moudle_one_loc_flat"
	bottom: "dectction_moudle_two_loc_flat"
	bottom: "dectction_moudle_three_loc_flat"
	bottom: "dectction_moudle_four_loc_flat"
	bottom: "dectction_moudle_five_loc_flat"
	bottom: "dectction_moudle_six_loc_flat"
	top: "mbox_loc"
	concat_param {
		axis: 1
	}
}


layer {
	name: "mbox_conf"
	type: "Concat"
	bottom: "dectction_moudle_one_conf_concat_flat"
	bottom: "dectction_moudle_two_conf_concat_flat"
	bottom: "dectction_moudle_three_conf_concat_flat"
	bottom: "dectction_moudle_four_conf_concat_flat"
	bottom: "dectction_moudle_five_conf_concat_flat"
	bottom: "dectction_moudle_six_conf_concat_flat"
	top: "mbox_conf"
	concat_param {
		axis: 1
	}
}
layer {
	name: "mbox_blur"
	type: "Concat"
	bottom: "dectction_moudle_one_blur_flat"
	bottom: "dectction_moudle_two_blur_flat"
	bottom: "dectction_moudle_three_blur_flat"
	bottom: "dectction_moudle_four_blur_flat"
	bottom: "dectction_moudle_five_blur_flat"
	bottom: "dectction_moudle_six_blur_flat"
	top: "mbox_blur"
	concat_param {
		axis: 1
	}
}

layer {
	name: "mbox_occlu"
	type: "Concat"
	bottom: "dectction_moudle_one_occlu_flat"
	bottom: "dectction_moudle_two_occlu_flat"
	bottom: "dectction_moudle_three_occlu_flat"
	bottom: "dectction_moudle_four_occlu_flat"
	bottom: "dectction_moudle_five_occlu_flat"
	bottom: "dectction_moudle_six_occlu_flat"
	top: "mbox_occlu"
	concat_param {
		axis: 1
	}
}

layer {
	name: "mbox_conf_reshape"
	type: "Reshape"
	bottom: "mbox_conf"
	top: "mbox_conf_reshape"
	reshape_param {
		shape {
			dim: 0
			dim: -1
			dim: 2
		}
	}
}
layer {
	name: "mbox_conf_softmax"
	type: "Softmax"
	bottom: "mbox_conf_reshape"
	top: "mbox_conf_softmax"
	softmax_param {
		axis: 2
	}
}
layer {
	name: "mbox_conf_flatten"
	type: "Flatten"
	bottom: "mbox_conf_softmax"
	top: "mbox_conf_flatten"
	flatten_param {
		axis: 1
	}
}
layer {
	name: "mbox_blur_reshape"
	type: "Reshape"
	bottom: "mbox_blur"
	top: "mbox_blur_reshape"
	reshape_param {
		shape {
			dim: 0
			dim: -1
			dim: 3
		}
	}
}
layer {
	name: "mbox_blur_softmax"
	type: "Softmax"
	bottom: "mbox_blur_reshape"
	top: "mbox_blur_softmax"
	softmax_param {
		axis: 2
	}
}
layer {
	name: "mbox_blur_flatten"
	type: "Flatten"
	bottom: "mbox_blur_softmax"
	top: "mbox_blur_flatten"
	flatten_param {
		axis: 1
	}
}
layer {
	name: "mbox_occlu_reshape"
	type: "Reshape"
	bottom: "mbox_occlu"
	top: "mbox_occlu_reshape"
	reshape_param {
		shape {
			dim: 0
			dim: -1
			dim: 3
		}
	}
}
layer {
	name: "mbox_occlu_softmax"
	type: "Softmax"
	bottom: "mbox_occlu_reshape"
	top: "mbox_occlu_softmax"
	softmax_param {
		axis: 2
	}
}
layer {
	name: "mbox_occlu_flatten"
	type: "Flatten"
	bottom: "mbox_occlu_softmax"
	top: "mbox_occlu_flatten"
	flatten_param {
		axis: 1
	}
}

layer {
	name: "detection_out"
	type: "DetectionOutput"
	bottom: "mbox_loc"
	bottom: "mbox_conf_flatten"
	bottom: "mbox_priorbox"
	bottom: "mbox_blur_flatten"
	bottom: "mbox_occlu_flatten"
	top: "detection_out"
	include {
	phase: TEST
	}
	detection_output_param {
		attri_type: FACE
		num_classes: 2
		num_blur: 3
		num_occlusion: 3
		share_location: true
		background_label_id: 0
		nms_param {
			nms_threshold: 0.55
			top_k: 50
		}
		code_type: CENTER_SIZE
		keep_top_k: 50
		confidence_threshold: 0.25
	}
}
