name: "faceDetctor-Prune"
layer {
  name: "data"
  type: "AnnotatedData"
  top: "data"
  top: "label"
  include {
    phase: TEST
  }
  transform_param {
    scale: 0.007843
    mean_value: 103.94
    mean_value: 116.78
    mean_value: 123.68
    resize_param {
      prob: 1.0
      resize_mode: WARP
      height: 640
      width: 640
      interp_mode: LINEAR
    }
  }
  data_param {
    source: "../../../../../dataset/facedata/wider_face/lmdb/wider_face_wider_val_lmdb/"
    batch_size: 1
    backend: LMDB
  }
  annotated_data_param {
    batch_sampler {
    }
    label_map_file: "../labelmap_face.prototxt"
  }
}
layer {
  name: "conv0"
  type: "Convolution"
  bottom: "data"
  top: "conv0"
  param {
    lr_mult: 1.0
    decay_mult: 1.0
  }
  convolution_param {
    num_output: 32
    bias_term: false
    pad: 1
    kernel_size: 3
    weight_filler {
      type: "msra"
    }
  }
}
layer {
  name: "conv0/bn"
  type: "BatchNorm"
  bottom: "conv0"
  top: "conv0"
  param {
    lr_mult: 0.0
    decay_mult: 0.0
  }
  param {
    lr_mult: 0.0
    decay_mult: 0.0
  }
  param {
    lr_mult: 0.0
    decay_mult: 0.0
  }
}
layer {
  name: "conv0/scale"
  type: "Scale"
  bottom: "conv0"
  top: "conv0"
  param {
    lr_mult: 1.0
    decay_mult: 0.0
  }
  param {
    lr_mult: 2.0
    decay_mult: 0.0
  }
  scale_param {
    filler {
      value: 1.0
    }
    bias_term: true
    bias_filler {
      value: 0.0
    }
  }
}
layer {
  name: "conv0/relu"
  type: "PReLU"
  bottom: "conv0"
  top: "conv0"
}
layer {
  name: "conv1/dw"
  type: "Convolution"
  bottom: "conv0"
  top: "conv1/dw"
  param {
    lr_mult: 1.0
    decay_mult: 1.0
  }
  convolution_param {
    num_output: 32
    bias_term: false
    pad: 1
    kernel_size: 3
    stride: 2
    group: 32
    weight_filler {
      type: "msra"
    }
    engine: CAFFE
  }
}
layer {
  name: "conv1/dw/bn"
  type: "BatchNorm"
  bottom: "conv1/dw"
  top: "conv1/dw"
  param {
    lr_mult: 0.0
    decay_mult: 0.0
  }
  param {
    lr_mult: 0.0
    decay_mult: 0.0
  }
  param {
    lr_mult: 0.0
    decay_mult: 0.0
  }
}
layer {
  name: "conv1/dw/scale"
  type: "Scale"
  bottom: "conv1/dw"
  top: "conv1/dw"
  param {
    lr_mult: 1.0
    decay_mult: 0.0
  }
  param {
    lr_mult: 2.0
    decay_mult: 0.0
  }
  scale_param {
    filler {
      value: 1.0
    }
    bias_term: true
    bias_filler {
      value: 0.0
    }
  }
}
layer {
  name: "conv1/dw/relu"
  type: "PReLU"
  bottom: "conv1/dw"
  top: "conv1/dw"
}
layer {
  name: "conv1"
  type: "Convolution"
  bottom: "conv1/dw"
  top: "conv1"
  param {
    lr_mult: 1.0
    decay_mult: 1.0
  }
  convolution_param {
    num_output: 64
    bias_term: false
    kernel_size: 1
    weight_filler {
      type: "msra"
    }
  }
}
layer {
  name: "conv1/bn"
  type: "BatchNorm"
  bottom: "conv1"
  top: "conv1"
  param {
    lr_mult: 0.0
    decay_mult: 0.0
  }
  param {
    lr_mult: 0.0
    decay_mult: 0.0
  }
  param {
    lr_mult: 0.0
    decay_mult: 0.0
  }
}
layer {
  name: "conv1/scale"
  type: "Scale"
  bottom: "conv1"
  top: "conv1"
  param {
    lr_mult: 1.0
    decay_mult: 0.0
  }
  param {
    lr_mult: 2.0
    decay_mult: 0.0
  }
  scale_param {
    filler {
      value: 1.0
    }
    bias_term: true
    bias_filler {
      value: 0.0
    }
  }
}
layer {
  name: "conv1/relu"
  type: "PReLU"
  bottom: "conv1"
  top: "conv1"
}
layer {
  name: "conv2/dw"
  type: "Convolution"
  bottom: "conv1"
  top: "conv2/dw"
  param {
    lr_mult: 1.0
    decay_mult: 1.0
  }
  convolution_param {
    num_output: 64
    bias_term: false
    pad: 1
    kernel_size: 3
    group: 64
    stride: 2
    weight_filler {
      type: "msra"
    }
    engine: CAFFE
  }
}
layer {
  name: "conv2/dw/bn"
  type: "BatchNorm"
  bottom: "conv2/dw"
  top: "conv2/dw"
  param {
    lr_mult: 0.0
    decay_mult: 0.0
  }
  param {
    lr_mult: 0.0
    decay_mult: 0.0
  }
  param {
    lr_mult: 0.0
    decay_mult: 0.0
  }
}
layer {
  name: "conv2/dw/scale"
  type: "Scale"
  bottom: "conv2/dw"
  top: "conv2/dw"
  param {
    lr_mult: 1.0
    decay_mult: 0.0
  }
  param {
    lr_mult: 2.0
    decay_mult: 0.0
  }
  scale_param {
    filler {
      value: 1.0
    }
    bias_term: true
    bias_filler {
      value: 0.0
    }
  }
}
layer {
  name: "conv2/dw/relu"
  type: "PReLU"
  bottom: "conv2/dw"
  top: "conv2/dw"
}
layer {
  name: "conv2"
  type: "Convolution"
  bottom: "conv2/dw"
  top: "conv2"
  param {
    lr_mult: 1.0
    decay_mult: 1.0
  }
  convolution_param {
    num_output: 128
    bias_term: false
    kernel_size: 1
    weight_filler {
      type: "msra"
    }
  }
}
layer {
  name: "conv2/bn"
  type: "BatchNorm"
  bottom: "conv2"
  top: "conv2"
  param {
    lr_mult: 0.0
    decay_mult: 0.0
  }
  param {
    lr_mult: 0.0
    decay_mult: 0.0
  }
  param {
    lr_mult: 0.0
    decay_mult: 0.0
  }
}
layer {
  name: "conv2/scale"
  type: "Scale"
  bottom: "conv2"
  top: "conv2"
  param {
    lr_mult: 1.0
    decay_mult: 0.0
  }
  param {
    lr_mult: 2.0
    decay_mult: 0.0
  }
  scale_param {
    filler {
      value: 1.0
    }
    bias_term: true
    bias_filler {
      value: 0.0
    }
  }
}
layer {
  name: "conv2/relu"
  type: "PReLU"
  bottom: "conv2"
  top: "conv2"
}
layer {
  name: "conv3/dw"
  type: "Convolution"
  bottom: "conv2"
  top: "conv3/dw"
  param {
    lr_mult: 1.0
    decay_mult: 1.0
  }
  convolution_param {
    num_output: 128
    bias_term: false
    pad: 1
    kernel_size: 3
    group: 128
    weight_filler {
      type: "msra"
    }
    engine: CAFFE
  }
}
layer {
  name: "conv3/dw/bn"
  type: "BatchNorm"
  bottom: "conv3/dw"
  top: "conv3/dw"
  param {
    lr_mult: 0.0
    decay_mult: 0.0
  }
  param {
    lr_mult: 0.0
    decay_mult: 0.0
  }
  param {
    lr_mult: 0.0
    decay_mult: 0.0
  }
}
layer {
  name: "conv3/dw/scale"
  type: "Scale"
  bottom: "conv3/dw"
  top: "conv3/dw"
  param {
    lr_mult: 1.0
    decay_mult: 0.0
  }
  param {
    lr_mult: 2.0
    decay_mult: 0.0
  }
  scale_param {
    filler {
      value: 1.0
    }
    bias_term: true
    bias_filler {
      value: 0.0
    }
  }
}
layer {
  name: "conv3/dw/relu"
  type: "PReLU"
  bottom: "conv3/dw"
  top: "conv3/dw"
}
layer {
  name: "conv3"
  type: "Convolution"
  bottom: "conv3/dw"
  top: "conv3"
  param {
    lr_mult: 1.0
    decay_mult: 1.0
  }
  convolution_param {
    num_output: 128
    bias_term: false
    kernel_size: 1
    weight_filler {
      type: "msra"
    }
  }
}
layer {
  name: "conv3/bn"
  type: "BatchNorm"
  bottom: "conv3"
  top: "conv3"
  param {
    lr_mult: 0.0
    decay_mult: 0.0
  }
  param {
    lr_mult: 0.0
    decay_mult: 0.0
  }
  param {
    lr_mult: 0.0
    decay_mult: 0.0
  }
}
layer {
  name: "conv3/scale"
  type: "Scale"
  bottom: "conv3"
  top: "conv3"
  param {
    lr_mult: 1.0
    decay_mult: 0.0
  }
  param {
    lr_mult: 2.0
    decay_mult: 0.0
  }
  scale_param {
    filler {
      value: 1.0
    }
    bias_term: true
    bias_filler {
      value: 0.0
    }
  }
}
layer {
  name: "conv3/relu"
  type: "PReLU"
  bottom: "conv3"
  top: "conv3"
}
layer {
  name: "conv4/dw"
  type: "Convolution"
  bottom: "conv3"
  top: "conv4/dw"
  param {
    lr_mult: 1.0
    decay_mult: 1.0
  }
  convolution_param {
    num_output: 128
    bias_term: false
    pad: 1
    kernel_size: 3
    group: 128
    stride: 2
    weight_filler {
      type: "msra"
    }
    engine: CAFFE
  }
}
layer {
  name: "conv4/dw/bn"
  type: "BatchNorm"
  bottom: "conv4/dw"
  top: "conv4/dw"
  param {
    lr_mult: 0.0
    decay_mult: 0.0
  }
  param {
    lr_mult: 0.0
    decay_mult: 0.0
  }
  param {
    lr_mult: 0.0
    decay_mult: 0.0
  }
}
layer {
  name: "conv4/dw/scale"
  type: "Scale"
  bottom: "conv4/dw"
  top: "conv4/dw"
  param {
    lr_mult: 1.0
    decay_mult: 0.0
  }
  param {
    lr_mult: 2.0
    decay_mult: 0.0
  }
  scale_param {
    filler {
      value: 1.0
    }
    bias_term: true
    bias_filler {
      value: 0.0
    }
  }
}
layer {
  name: "conv4/dw/relu"
  type: "PReLU"
  bottom: "conv4/dw"
  top: "conv4/dw"
}
layer {
  name: "conv4"
  type: "Convolution"
  bottom: "conv4/dw"
  top: "conv4"
  param {
    lr_mult: 1.0
    decay_mult: 1.0
  }
  convolution_param {
    num_output: 256
    bias_term: false
    kernel_size: 1
    weight_filler {
      type: "msra"
    }
  }
}
layer {
  name: "conv4/bn"
  type: "BatchNorm"
  bottom: "conv4"
  top: "conv4"
  param {
    lr_mult: 0.0
    decay_mult: 0.0
  }
  param {
    lr_mult: 0.0
    decay_mult: 0.0
  }
  param {
    lr_mult: 0.0
    decay_mult: 0.0
  }
}
layer {
  name: "conv4/scale"
  type: "Scale"
  bottom: "conv4"
  top: "conv4"
  param {
    lr_mult: 1.0
    decay_mult: 0.0
  }
  param {
    lr_mult: 2.0
    decay_mult: 0.0
  }
  scale_param {
    filler {
      value: 1.0
    }
    bias_term: true
    bias_filler {
      value: 0.0
    }
  }
}
layer {
  name: "conv5/dw"
  type: "Convolution"
  bottom: "conv4"
  top: "conv5/dw"
  param {
    lr_mult: 1.0
    decay_mult: 1.0
  }
  convolution_param {
    num_output: 256
    bias_term: false
    pad: 1
    kernel_size: 3
    group: 256
    weight_filler {
      type: "msra"
    }
    engine: CAFFE
  }
}
layer {
  name: "conv5/dw/bn"
  type: "BatchNorm"
  bottom: "conv5/dw"
  top: "conv5/dw"
  param {
    lr_mult: 0.0
    decay_mult: 0.0
  }
  param {
    lr_mult: 0.0
    decay_mult: 0.0
  }
  param {
    lr_mult: 0.0
    decay_mult: 0.0
  }
}
layer {
  name: "conv5/dw/scale"
  type: "Scale"
  bottom: "conv5/dw"
  top: "conv5/dw"
  param {
    lr_mult: 1.0
    decay_mult: 0.0
  }
  param {
    lr_mult: 2.0
    decay_mult: 0.0
  }
  scale_param {
    filler {
      value: 1.0
    }
    bias_term: true
    bias_filler {
      value: 0.0
    }
  }
}
layer {
  name: "conv5/dw/relu"
  type: "PReLU"
  bottom: "conv5/dw"
  top: "conv5/dw"
}
layer {
  name: "conv5"
  type: "Convolution"
  bottom: "conv5/dw"
  top: "conv5"
  param {
    lr_mult: 1.0
    decay_mult: 1.0
  }
  convolution_param {
    num_output: 256
    bias_term: false
    kernel_size: 1
    weight_filler {
      type: "msra"
    }
  }
}
layer {
  name: "conv5/bn"
  type: "BatchNorm"
  bottom: "conv5"
  top: "conv5"
  param {
    lr_mult: 0.0
    decay_mult: 0.0
  }
  param {
    lr_mult: 0.0
    decay_mult: 0.0
  }
  param {
    lr_mult: 0.0
    decay_mult: 0.0
  }
}
layer {
  name: "conv5/scale"
  type: "Scale"
  bottom: "conv5"
  top: "conv5"
  param {
    lr_mult: 1.0
    decay_mult: 0.0
  }
  param {
    lr_mult: 2.0
    decay_mult: 0.0
  }
  scale_param {
    filler {
      value: 1.0
    }
    bias_term: true
    bias_filler {
      value: 0.0
    }
  }
}
layer {
	name: "conv_one_eltwise"
	type: "Eltwise"
	bottom: "conv5"
	bottom: "conv4"
	top: "conv_one_eltwise"
	eltwise_param {
	operation: SUM
	}
}
layer {
	name: "conv_one_eltwise/relu"
	type: "PReLU"
	bottom: "conv_one_eltwise"
	top: "conv_one_eltwise"
}
layer {
  name: "conv_one_eltwise_128"
  type: "Convolution"
  bottom: "conv_one_eltwise"
  top: "conv_one_eltwise_128"
  param {
    lr_mult: 1.0
    decay_mult: 1.0
  }
  convolution_param {
    num_output: 128
    bias_term: false
    kernel_size: 1
    weight_filler {
      type: "msra"
    }
  }
}
layer {
  name: "conv_one_eltwise_128/bn"
  type: "BatchNorm"
  bottom: "conv_one_eltwise_128"
  top: "conv_one_eltwise_128"
  param {
    lr_mult: 0
    decay_mult: 0
  }
  param {
    lr_mult: 0
    decay_mult: 0
  }
  param {
    lr_mult: 0
    decay_mult: 0
  }
}
layer {
  name: "conv_one_eltwise_128/scale"
  type: "Scale"
  bottom: "conv_one_eltwise_128"
  top: "conv_one_eltwise_128"
  param {
    lr_mult: 1.0
    decay_mult: 0.0
  }
  param {
    lr_mult: 2.0
    decay_mult: 0.0
  }
  scale_param {
    filler {
      value: 1
    }
    bias_term: true
    bias_filler {
      value: 0
    }
  }
}
layer {
  name: "conv_one_eltwise_128/relu"
  type: "PReLU"
  bottom: "conv_one_eltwise_128"
  top: "conv_one_eltwise_128"
}
layer {
  name: "conv6/dw"
  type: "Convolution"
  bottom: "conv_one_eltwise_128"
  top: "conv6/dw"
  param {
    lr_mult: 1.0
    decay_mult: 1.0
  }
  convolution_param {
    num_output: 128
    bias_term: false
    pad: 1
    kernel_size: 3
    group: 128
    stride: 2
    weight_filler {
      type: "msra"
    }
    engine: CAFFE
  }
}
layer {
  name: "conv6/dw/bn"
  type: "BatchNorm"
  bottom: "conv6/dw"
  top: "conv6/dw"
  param {
    lr_mult: 0.0
    decay_mult: 0.0
  }
  param {
    lr_mult: 0.0
    decay_mult: 0.0
  }
  param {
    lr_mult: 0.0
    decay_mult: 0.0
  }
}
layer {
  name: "conv6/dw/scale"
  type: "Scale"
  bottom: "conv6/dw"
  top: "conv6/dw"
  param {
    lr_mult: 1.0
    decay_mult: 0.0
  }
  param {
    lr_mult: 2.0
    decay_mult: 0.0
  }
  scale_param {
    filler {
      value: 1.0
    }
    bias_term: true
    bias_filler {
      value: 0.0
    }
  }
}
layer {
  name: "conv6/dw/relu"
  type: "PReLU"
  bottom: "conv6/dw"
  top: "conv6/dw"
}
layer {
  name: "conv6"
  type: "Convolution"
  bottom: "conv6/dw"
  top: "conv6"
  param {
    lr_mult: 1.0
    decay_mult: 1.0
  }
  convolution_param {
    num_output: 256
    bias_term: false
    kernel_size: 1
    weight_filler {
      type: "msra"
    }
  }
}
layer {
  name: "conv6/bn"
  type: "BatchNorm"
  bottom: "conv6"
  top: "conv6"
  param {
    lr_mult: 0.0
    decay_mult: 0.0
  }
  param {
    lr_mult: 0.0
    decay_mult: 0.0
  }
  param {
    lr_mult: 0.0
    decay_mult: 0.0
  }
}
layer {
  name: "conv6/scale"
  type: "Scale"
  bottom: "conv6"
  top: "conv6"
  param {
    lr_mult: 1.0
    decay_mult: 0.0
  }
  param {
    lr_mult: 2.0
    decay_mult: 0.0
  }
  scale_param {
    filler {
      value: 1.0
    }
    bias_term: true
    bias_filler {
      value: 0.0
    }
  }
}
layer {
  name: "conv7/dw"
  type: "Convolution"
  bottom: "conv6"
  top: "conv7/dw"
  param {
    lr_mult: 1.0
    decay_mult: 1.0
  }
  convolution_param {
    num_output: 256
    bias_term: false
    pad: 1
    kernel_size: 3
    group: 256
    weight_filler {
      type: "msra"
    }
    engine: CAFFE
  }
}
layer {
  name: "conv7/dw/bn"
  type: "BatchNorm"
  bottom: "conv7/dw"
  top: "conv7/dw"
  param {
    lr_mult: 0.0
    decay_mult: 0.0
  }
  param {
    lr_mult: 0.0
    decay_mult: 0.0
  }
  param {
    lr_mult: 0.0
    decay_mult: 0.0
  }
}
layer {
  name: "conv7/dw/scale"
  type: "Scale"
  bottom: "conv7/dw"
  top: "conv7/dw"
  param {
    lr_mult: 1.0
    decay_mult: 0.0
  }
  param {
    lr_mult: 2.0
    decay_mult: 0.0
  }
  scale_param {
    filler {
      value: 1.0
    }
    bias_term: true
    bias_filler {
      value: 0.0
    }
  }
}
layer {
  name: "conv7/dw/relu"
  type: "PReLU"
  bottom: "conv7/dw"
  top: "conv7/dw"
}
layer {
  name: "conv7"
  type: "Convolution"
  bottom: "conv7/dw"
  top: "conv7"
  param {
    lr_mult: 1.0
    decay_mult: 1.0
  }
  convolution_param {
    num_output: 256
    bias_term: false
    kernel_size: 1
    weight_filler {
      type: "msra"
    }
  }
}
layer {
  name: "conv7/bn"
  type: "BatchNorm"
  bottom: "conv7"
  top: "conv7"
  param {
    lr_mult: 0.0
    decay_mult: 0.0
  }
  param {
    lr_mult: 0.0
    decay_mult: 0.0
  }
  param {
    lr_mult: 0.0
    decay_mult: 0.0
  }
}
layer {
  name: "conv7/scale"
  type: "Scale"
  bottom: "conv7"
  top: "conv7"
  param {
    lr_mult: 1.0
    decay_mult: 0.0
  }
  param {
    lr_mult: 2.0
    decay_mult: 0.0
  }
  scale_param {
    filler {
      value: 1.0
    }
    bias_term: true
    bias_filler {
      value: 0.0
    }
  }
}
layer {
	name: "conv_two_eltwise"
	type: "Eltwise"
	bottom: "conv7"
	bottom: "conv6"
	top: "conv_two_eltwise"
	eltwise_param {
	operation: SUM
	}
}
layer {
  name: "conv_two_eltwise/relu"
  type: "PReLU"
  bottom: "conv_two_eltwise"
  top: "conv_two_eltwise"
}
layer {
  name: "conv8/dw"
  type: "Convolution"
  bottom: "conv_two_eltwise"
  top: "conv8/dw"
  param {
    lr_mult: 1.0
    decay_mult: 1.0
  }
  convolution_param {
    num_output: 256
    bias_term: false
    pad: 1
    kernel_size: 3
    group: 256
    weight_filler {
      type: "msra"
    }
    engine: CAFFE
  }
}
layer {
  name: "conv8/dw/bn"
  type: "BatchNorm"
  bottom: "conv8/dw"
  top: "conv8/dw"
  param {
    lr_mult: 0.0
    decay_mult: 0.0
  }
  param {
    lr_mult: 0.0
    decay_mult: 0.0
  }
  param {
    lr_mult: 0.0
    decay_mult: 0.0
  }
}
layer {
  name: "conv8/dw/scale"
  type: "Scale"
  bottom: "conv8/dw"
  top: "conv8/dw"
  param {
    lr_mult: 1.0
    decay_mult: 0.0
  }
  param {
    lr_mult: 2.0
    decay_mult: 0.0
  }
  scale_param {
    filler {
      value: 1.0
    }
    bias_term: true
    bias_filler {
      value: 0.0
    }
  }
}
layer {
  name: "conv8/dw/relu"
  type: "PReLU"
  bottom: "conv8/dw"
  top: "conv8/dw"
}
layer {
  name: "conv8"
  type: "Convolution"
  bottom: "conv8/dw"
  top: "conv8"
  param {
    lr_mult: 1.0
    decay_mult: 1.0
  }
  convolution_param {
    num_output: 256
    bias_term: false
    kernel_size: 1
    weight_filler {
      type: "msra"
    }
  }
}
layer {
  name: "conv8/bn"
  type: "BatchNorm"
  bottom: "conv8"
  top: "conv8"
  param {
    lr_mult: 0.0
    decay_mult: 0.0
  }
  param {
    lr_mult: 0.0
    decay_mult: 0.0
  }
  param {
    lr_mult: 0.0
    decay_mult: 0.0
  }
}
layer {
  name: "conv8/scale"
  type: "Scale"
  bottom: "conv8"
  top: "conv8"
  param {
    lr_mult: 1.0
    decay_mult: 0.0
  }
  param {
    lr_mult: 2.0
    decay_mult: 0.0
  }
  scale_param {
    filler {
      value: 1.0
    }
    bias_term: true
    bias_filler {
      value: 0.0
    }
  }
}
layer {
  name: "conv9/dw"
  type: "Convolution"
  bottom: "conv8"
  top: "conv9/dw"
  param {
    lr_mult: 1.0
    decay_mult: 1.0
  }
  convolution_param {
    num_output: 256
    bias_term: false
    pad: 1
    kernel_size: 3
    group: 256
    weight_filler {
      type: "msra"
    }
    engine: CAFFE
  }
}
layer {
  name: "conv9/dw/bn"
  type: "BatchNorm"
  bottom: "conv9/dw"
  top: "conv9/dw"
  param {
    lr_mult: 0.0
    decay_mult: 0.0
  }
  param {
    lr_mult: 0.0
    decay_mult: 0.0
  }
  param {
    lr_mult: 0.0
    decay_mult: 0.0
  }
}
layer {
  name: "conv9/dw/scale"
  type: "Scale"
  bottom: "conv9/dw"
  top: "conv9/dw"
  param {
    lr_mult: 1.0
    decay_mult: 0.0
  }
  param {
    lr_mult: 2.0
    decay_mult: 0.0
  }
  scale_param {
    filler {
      value: 1.0
    }
    bias_term: true
    bias_filler {
      value: 0.0
    }
  }
}
layer {
  name: "conv9/dw/relu"
  type: "PReLU"
  bottom: "conv9/dw"
  top: "conv9/dw"
}
layer {
  name: "conv9"
  type: "Convolution"
  bottom: "conv9/dw"
  top: "conv9"
  param {
    lr_mult: 1.0
    decay_mult: 1.0
  }
  convolution_param {
    num_output: 256
    bias_term: false
    kernel_size: 1
    weight_filler {
      type: "msra"
    }
  }
}
layer {
  name: "conv9/bn"
  type: "BatchNorm"
  bottom: "conv9"
  top: "conv9"
  param {
    lr_mult: 0.0
    decay_mult: 0.0
  }
  param {
    lr_mult: 0.0
    decay_mult: 0.0
  }
  param {
    lr_mult: 0.0
    decay_mult: 0.0
  }
}
layer {
  name: "conv9/scale"
  type: "Scale"
  bottom: "conv9"
  top: "conv9"
  param {
    lr_mult: 1.0
    decay_mult: 0.0
  }
  param {
    lr_mult: 2.0
    decay_mult: 0.0
  }
  scale_param {
    filler {
      value: 1.0
    }
    bias_term: true
    bias_filler {
      value: 0.0
    }
  }
}
layer {
	name: "conv_three_eltwise"
	type: "Eltwise"
	bottom: "conv9"
	bottom: "conv8"
	top: "conv_three_eltwise"
	eltwise_param {
	operation: SUM
	}
}
layer {
  name: "conv_three_eltwise/relu"
  type: "PReLU"
  bottom: "conv_three_eltwise"
  top: "conv_three_eltwise"
}
layer {
  name: "conv10/dw"
  type: "Convolution"
  bottom: "conv_three_eltwise"
  top: "conv10/dw"
  param {
    lr_mult: 1.0
    decay_mult: 1.0
  }
  convolution_param {
    num_output: 256
    bias_term: false
    pad: 1
    kernel_size: 3
    group: 256
    weight_filler {
      type: "msra"
    }
    engine: CAFFE
  }
}
layer {
  name: "conv10/dw/bn"
  type: "BatchNorm"
  bottom: "conv10/dw"
  top: "conv10/dw"
  param {
    lr_mult: 0.0
    decay_mult: 0.0
  }
  param {
    lr_mult: 0.0
    decay_mult: 0.0
  }
  param {
    lr_mult: 0.0
    decay_mult: 0.0
  }
}
layer {
  name: "conv10/dw/scale"
  type: "Scale"
  bottom: "conv10/dw"
  top: "conv10/dw"
  param {
    lr_mult: 1.0
    decay_mult: 0.0
  }
  param {
    lr_mult: 2.0
    decay_mult: 0.0
  }
  scale_param {
    filler {
      value: 1.0
    }
    bias_term: true
    bias_filler {
      value: 0.0
    }
  }
}
layer {
  name: "conv10/dw/relu"
  type: "PReLU"
  bottom: "conv10/dw"
  top: "conv10/dw"
}
layer {
  name: "conv10"
  type: "Convolution"
  bottom: "conv10/dw"
  top: "conv10"
  param {
    lr_mult: 1.0
    decay_mult: 1.0
  }
  convolution_param {
    num_output: 256
    bias_term: false
    kernel_size: 1
    weight_filler {
      type: "msra"
    }
  }
}
layer {
  name: "conv10/bn"
  type: "BatchNorm"
  bottom: "conv10"
  top: "conv10"
  param {
    lr_mult: 0.0
    decay_mult: 0.0
  }
  param {
    lr_mult: 0.0
    decay_mult: 0.0
  }
  param {
    lr_mult: 0.0
    decay_mult: 0.0
  }
}
layer {
  name: "conv10/scale"
  type: "Scale"
  bottom: "conv10"
  top: "conv10"
  param {
    lr_mult: 1.0
    decay_mult: 0.0
  }
  param {
    lr_mult: 2.0
    decay_mult: 0.0
  }
  scale_param {
    filler {
      value: 1.0
    }
    bias_term: true
    bias_filler {
      value: 0.0
    }
  }
}
layer {
  name: "conv11/dw"
  type: "Convolution"
  bottom: "conv10"
  top: "conv11/dw"
  param {
    lr_mult: 1.0
    decay_mult: 1.0
  }
  convolution_param {
    num_output: 256
    bias_term: false
    pad: 1
    kernel_size: 3
    group: 256
    weight_filler {
      type: "msra"
    }
    engine: CAFFE
  }
}
layer {
  name: "conv11/dw/bn"
  type: "BatchNorm"
  bottom: "conv11/dw"
  top: "conv11/dw"
  param {
    lr_mult: 0.0
    decay_mult: 0.0
  }
  param {
    lr_mult: 0.0
    decay_mult: 0.0
  }
  param {
    lr_mult: 0.0
    decay_mult: 0.0
  }
}
layer {
  name: "conv11/dw/scale"
  type: "Scale"
  bottom: "conv11/dw"
  top: "conv11/dw"
  param {
    lr_mult: 1.0
    decay_mult: 0.0
  }
  param {
    lr_mult: 2.0
    decay_mult: 0.0
  }
  scale_param {
    filler {
      value: 1.0
    }
    bias_term: true
    bias_filler {
      value: 0.0
    }
  }
}
layer {
  name: "conv11/dw/relu"
  type: "PReLU"
  bottom: "conv11/dw"
  top: "conv11/dw"
}
layer {
  name: "conv11"
  type: "Convolution"
  bottom: "conv11/dw"
  top: "conv11"
  param {
    lr_mult: 1.0
    decay_mult: 1.0
  }
  convolution_param {
    num_output: 256
    bias_term: false
    kernel_size: 1
    weight_filler {
      type: "msra"
    }
  }
}
layer {
  name: "conv11/bn"
  type: "BatchNorm"
  bottom: "conv11"
  top: "conv11"
  param {
    lr_mult: 0.0
    decay_mult: 0.0
  }
  param {
    lr_mult: 0.0
    decay_mult: 0.0
  }
  param {
    lr_mult: 0.0
    decay_mult: 0.0
  }
}
layer {
  name: "conv11/scale"
  type: "Scale"
  bottom: "conv11"
  top: "conv11"
  param {
    lr_mult: 1.0
    decay_mult: 0.0
  }
  param {
    lr_mult: 2.0
    decay_mult: 0.0
  }
  scale_param {
    filler {
      value: 1.0
    }
    bias_term: true
    bias_filler {
      value: 0.0
    }
  }
}
layer {
	name: "conv_four_eltwise"
	type: "Eltwise"
	bottom: "conv11"
	bottom: "conv10"
	top: "conv_four_eltwise"
	eltwise_param {
	operation: SUM
	}
}
layer {
  name: "conv_four_eltwise/relu"
  type: "PReLU"
  bottom: "conv_four_eltwise"
  top: "conv_four_eltwise"
}
layer {
  name: "conv_four_eltwise_128"
  type: "Convolution"
  bottom: "conv_four_eltwise"
  top: "conv_four_eltwise_128"
  param {
    lr_mult: 1.0
    decay_mult: 1.0
  }
  convolution_param {
    num_output: 128
    bias_term: false
    kernel_size: 1
    weight_filler {
      type: "msra"
    }
  }
}
layer {
  name: "conv_four_eltwise_128/bn"
  type: "BatchNorm"
  bottom: "conv_four_eltwise_128"
  top: "conv_four_eltwise_128"
  param {
    lr_mult: 0
    decay_mult: 0
  }
  param {
    lr_mult: 0
    decay_mult: 0
  }
  param {
    lr_mult: 0
    decay_mult: 0
  }
}
layer {
  name: "conv_four_eltwise_128/scale"
  type: "Scale"
  bottom: "conv_four_eltwise_128"
  top: "conv_four_eltwise_128"
  param {
    lr_mult: 1.0
    decay_mult: 0.0
  }
  param {
    lr_mult: 2.0
    decay_mult: 0.0
  }
  scale_param {
    filler {
      value: 1
    }
    bias_term: true
    bias_filler {
      value: 0
    }
  }
}
layer {
  name: "conv_four_eltwise_128/relu"
  type: "PReLU"
  bottom: "conv_four_eltwise_128"
  top: "conv_four_eltwise_128"
}
layer {
  name: "conv12/dw"
  type: "Convolution"
  bottom: "conv_four_eltwise_128"
  top: "conv12/dw"
  param {
    lr_mult: 1.0
    decay_mult: 1.0
  }
  convolution_param {
    num_output: 128
    bias_term: false
    pad: 1
    kernel_size: 3
    group: 128
    stride: 2
    weight_filler {
      type: "msra"
    }
    engine: CAFFE
  }
}
layer {
  name: "conv12/dw/bn"
  type: "BatchNorm"
  bottom: "conv12/dw"
  top: "conv12/dw"
  param {
    lr_mult: 0.0
    decay_mult: 0.0
  }
  param {
    lr_mult: 0.0
    decay_mult: 0.0
  }
  param {
    lr_mult: 0.0
    decay_mult: 0.0
  }
}
layer {
  name: "conv12/dw/scale"
  type: "Scale"
  bottom: "conv12/dw"
  top: "conv12/dw"
  param {
    lr_mult: 1.0
    decay_mult: 0.0
  }
  param {
    lr_mult: 2.0
    decay_mult: 0.0
  }
  scale_param {
    filler {
      value: 1.0
    }
    bias_term: true
    bias_filler {
      value: 0.0
    }
  }
}
layer {
  name: "conv12/dw/relu"
  type: "PReLU"
  bottom: "conv12/dw"
  top: "conv12/dw"
}
layer {
  name: "conv12"
  type: "Convolution"
  bottom: "conv12/dw"
  top: "conv12"
  param {
    lr_mult: 1.0
    decay_mult: 1.0
  }
  convolution_param {
    num_output: 256
    bias_term: false
    kernel_size: 1
    weight_filler {
      type: "msra"
    }
  }
}
layer {
  name: "conv12/bn"
  type: "BatchNorm"
  bottom: "conv12"
  top: "conv12"
  param {
    lr_mult: 0.0
    decay_mult: 0.0
  }
  param {
    lr_mult: 0.0
    decay_mult: 0.0
  }
  param {
    lr_mult: 0.0
    decay_mult: 0.0
  }
}
layer {
  name: "conv12/scale"
  type: "Scale"
  bottom: "conv12"
  top: "conv12"
  param {
    lr_mult: 1.0
    decay_mult: 0.0
  }
  param {
    lr_mult: 2.0
    decay_mult: 0.0
  }
  scale_param {
    filler {
      value: 1.0
    }
    bias_term: true
    bias_filler {
      value: 0.0
    }
  }
}

layer {
  name: "conv13/dw"
  type: "Convolution"
  bottom: "conv12"
  top: "conv13/dw"
  param {
    lr_mult: 1.0
    decay_mult: 1.0
  }
  convolution_param {
    num_output: 256
    bias_term: false
    pad: 1
    kernel_size: 3
    group: 256
    weight_filler {
      type: "msra"
    }
    engine: CAFFE
  }
}
layer {
  name: "conv13/dw/bn"
  type: "BatchNorm"
  bottom: "conv13/dw"
  top: "conv13/dw"
  param {
    lr_mult: 0.0
    decay_mult: 0.0
  }
  param {
    lr_mult: 0.0
    decay_mult: 0.0
  }
  param {
    lr_mult: 0.0
    decay_mult: 0.0
  }
}
layer {
  name: "conv13/dw/scale"
  type: "Scale"
  bottom: "conv13/dw"
  top: "conv13/dw"
  param {
    lr_mult: 1.0
    decay_mult: 0.0
  }
  param {
    lr_mult: 2.0
    decay_mult: 0.0
  }
  scale_param {
    filler {
      value: 1.0
    }
    bias_term: true
    bias_filler {
      value: 0.0
    }
  }
}
layer {
  name: "conv13/dw/relu"
  type: "PReLU"
  bottom: "conv13/dw"
  top: "conv13/dw"
}
layer {
  name: "conv13"
  type: "Convolution"
  bottom: "conv13/dw"
  top: "conv13"
  param {
    lr_mult: 1.0
    decay_mult: 1.0
  }
  convolution_param {
    num_output: 256
    bias_term: false
    kernel_size: 1
    weight_filler {
      type: "msra"
    }
  }
}
layer {
  name: "conv13/bn"
  type: "BatchNorm"
  bottom: "conv13"
  top: "conv13"
  param {
    lr_mult: 0.0
    decay_mult: 0.0
  }
  param {
    lr_mult: 0.0
    decay_mult: 0.0
  }
  param {
    lr_mult: 0.0
    decay_mult: 0.0
  }
}
layer {
  name: "conv13/scale"
  type: "Scale"
  bottom: "conv13"
  top: "conv13"
  param {
    lr_mult: 1.0
    decay_mult: 0.0
  }
  param {
    lr_mult: 2.0
    decay_mult: 0.0
  }
  scale_param {
    filler {
      value: 1.0
    }
    bias_term: true
    bias_filler {
      value: 0.0
    }
  }
}
layer {
	name: "conv_five_eltwise"
	type: "Eltwise"
	bottom: "conv13"
	bottom: "conv12"
	top: "conv_five_eltwise"
	eltwise_param {
	operation: SUM
	}
}
layer {
  name: "conv_five_eltwise/relu"
  type: "PReLU"
  bottom: "conv_five_eltwise"
  top: "conv_five_eltwise"
}
layer {
  name: "conv14_1"
  type: "Convolution"
  bottom: "conv_five_eltwise"
  top: "conv14_1"
  param {
    lr_mult: 1.0
    decay_mult: 1.0
  }
  convolution_param {
    num_output: 128
    bias_term: false
    kernel_size: 1
    weight_filler {
      type: "msra"
    }
  }
}
layer {
  name: "conv14_1/bn"
  type: "BatchNorm"
  bottom: "conv14_1"
  top: "conv14_1"
  param {
    lr_mult: 0
    decay_mult: 0
  }
  param {
    lr_mult: 0
    decay_mult: 0
  }
  param {
    lr_mult: 0
    decay_mult: 0
  }
}
layer {
  name: "conv14_1/scale"
  type: "Scale"
  bottom: "conv14_1"
  top: "conv14_1"
  param {
    lr_mult: 1.0
    decay_mult: 0.0
  }
  param {
    lr_mult: 2.0
    decay_mult: 0.0
  }
  scale_param {
    filler {
      value: 1
    }
    bias_term: true
    bias_filler {
      value: 0
    }
  }
}
layer {
  name: "conv14_1/relu"
  type: "PReLU"
  bottom: "conv14_1"
  top: "conv14_1"
}
layer {
  name: "conv14_2"
  type: "Convolution"
  bottom: "conv14_1"
  top: "conv14_2"
  param {
    lr_mult: 1.0
    decay_mult: 1.0
  }
  convolution_param {
    num_output: 256
    bias_term: false
    pad: 1
    kernel_size: 3
    stride: 2
    weight_filler {
      type: "msra"
    }
  }
}
layer {
  name: "conv14_2/bn"
  type: "BatchNorm"
  bottom: "conv14_2"
  top: "conv14_2"
  param {
    lr_mult: 0
    decay_mult: 0
  }
  param {
    lr_mult: 0
    decay_mult: 0
  }
  param {
    lr_mult: 0
    decay_mult: 0
  }
}
layer {
  name: "conv14_2/scale"
  type: "Scale"
  bottom: "conv14_2"
  top: "conv14_2"
  param {
    lr_mult: 1.0
    decay_mult: 0.0
  }
  param {
    lr_mult: 2.0
    decay_mult: 0.0
  }
  scale_param {
    filler {
      value: 1
    }
    bias_term: true
    bias_filler {
      value: 0
    }
  }
}
layer {
  name: "conv14_2/relu"
  type: "PReLU"
  bottom: "conv14_2"
  top: "conv14_2"
}
layer {
  name: "conv15_1"
  type: "Convolution"
  bottom: "conv14_2"
  top: "conv15_1"
  param {
    lr_mult: 1.0
    decay_mult: 1.0
  }
  convolution_param {
    num_output: 128
    bias_term: false
    kernel_size: 1
    weight_filler {
      type: "msra"
    }
  }
}
layer {
  name: "conv15_1/bn"
  type: "BatchNorm"
  bottom: "conv15_1"
  top: "conv15_1"
  param {
    lr_mult: 0
    decay_mult: 0
  }
  param {
    lr_mult: 0
    decay_mult: 0
  }
  param {
    lr_mult: 0
    decay_mult: 0
  }
}
layer {
  name: "conv15_1/scale"
  type: "Scale"
  bottom: "conv15_1"
  top: "conv15_1"
  param {
    lr_mult: 1.0
    decay_mult: 0.0
  }
  param {
    lr_mult: 2.0
    decay_mult: 0.0
  }
  scale_param {
    filler {
      value: 1
    }
    bias_term: true
    bias_filler {
      value: 0
    }
  }
}
layer {
  name: "conv15_1/relu"
  type: "PReLU"
  bottom: "conv15_1"
  top: "conv15_1"
}
layer {
  name: "conv15_2"
  type: "Convolution"
  bottom: "conv15_1"
  top: "conv15_2"
  param {
    lr_mult: 1.0
    decay_mult: 1.0
  }
  convolution_param {
    num_output: 256
    bias_term: false
    pad: 1
    kernel_size: 3
    stride: 2
    weight_filler {
      type: "msra"
    }
  }
}
layer {
  name: "conv15_2/bn"
  type: "BatchNorm"
  bottom: "conv15_2"
  top: "conv15_2"
  param {
    lr_mult: 0
    decay_mult: 0
  }
  param {
    lr_mult: 0
    decay_mult: 0
  }
  param {
    lr_mult: 0
    decay_mult: 0
  }
}
layer {
  name: "conv15_2/scale"
  type: "Scale"
  bottom: "conv15_2"
  top: "conv15_2"
  param {
    lr_mult: 1.0
    decay_mult: 0.0
  }
  param {
    lr_mult: 2.0
    decay_mult: 0.0
  }
  scale_param {
    filler {
      value: 1
    }
    bias_term: true
    bias_filler {
      value: 0
    }
  }
}
layer {
  name: "conv15_2/relu"
  type: "PReLU"
  bottom: "conv15_2"
  top: "conv15_2"
}

#######################################################################
#                             modeule one                             #
#######################################################################
##########################LFPN MOUDLE#######################


#################context moudle####################
layer{
	name: "lfpn_1_moudle_cpm_3_3"
	type: "Convolution"
	bottom: "conv3"
	top: "lfpn_1_moudle_cpm_3_3"
	param {
		lr_mult: 1
		decay_mult: 1
	}
	convolution_param {
		num_output: 128
		bias_term: false
		kernel_size: 3
		pad: 1
		weight_filler {
			type: "msra"
		}
	}
}
layer {
	name: "lfpn_1_moudle_cpm_3_3/bn"
	type: "BatchNorm"
	bottom: "lfpn_1_moudle_cpm_3_3"
	top: "lfpn_1_moudle_cpm_3_3"
	param {
		lr_mult: 0
		decay_mult: 0
	}
	param {
		lr_mult: 0
		decay_mult: 0
	}
	param {
		lr_mult: 0
		decay_mult: 0
	}
}
layer {
	name: "lfpn_1_moudle_cpm_3_3/scale"
	type: "Scale"
	bottom: "lfpn_1_moudle_cpm_3_3"
	top: "lfpn_1_moudle_cpm_3_3"
	param {
		lr_mult: 1.0
		decay_mult: 0.0
	}
	param {
		lr_mult: 2.0
		decay_mult: 0.0
	}
	scale_param {
		filler {
			value: 1
		}
		bias_term: true
		bias_filler {
			value: 0
		}
	}
}
layer{
	name: "lfpn_1_moudle_cpm_3_3_one_channel"
	type: "Convolution"
	bottom: "lfpn_1_moudle_cpm_3_3"
	top: "lfpn_1_moudle_cpm_3_3_one_channel"
	param {
		lr_mult: 1
		decay_mult: 1
	}
	convolution_param {
		num_output: 128
		kernel_size: 3
        	pad: 1
		bias_term: false
		weight_filler {
			type: "msra"
		}
	}
}
layer {
	name: "lfpn_1_moudle_cpm_3_3_one_channel/bn"
	type: "BatchNorm"
	bottom: "lfpn_1_moudle_cpm_3_3_one_channel"
	top: "lfpn_1_moudle_cpm_3_3_one_channel"
	param {
		lr_mult: 0
		decay_mult: 0
	}
	param {
		lr_mult: 0
		decay_mult: 0
	}
	param {
		lr_mult: 0
		decay_mult: 0
	}
}
layer {
	name: "lfpn_1_moudle_cpm_3_3_one_channel/scale"
	type: "Scale"
	bottom: "lfpn_1_moudle_cpm_3_3_one_channel"
	top: "lfpn_1_moudle_cpm_3_3_one_channel"
	param {
		lr_mult: 1.0
		decay_mult: 0.0
	}
	param {
		lr_mult: 2.0
		decay_mult: 0.0
	}
	scale_param {
		filler {
			value: 1
		}
		bias_term: true
		bias_filler {
			value: 0
		}
	}
}
layer {
	name: "lfpn_1_moudle_cpm_3_3_one_channel/relu"
	type: "ReLU"
	bottom: "lfpn_1_moudle_cpm_3_3_one_channel"
	top: "lfpn_1_moudle_cpm_3_3_one_channel"
}
layer{
	name: "lfpn_1_moudle_cpm_3_3_1_channel"
	type: "Convolution"
	bottom: "lfpn_1_moudle_cpm_3_3_one_channel"
	top: "lfpn_1_moudle_cpm_3_3_1_channel"
	param {
		lr_mult: 1
		decay_mult: 1
	}
	convolution_param {
		num_output: 128
		kernel_size: 3
        	pad: 1
		bias_term: false
		weight_filler {
			type: "msra"
		}
	}
}
layer {
	name: "lfpn_1_moudle_cpm_3_3_1_channel/bn"
	type: "BatchNorm"
	bottom: "lfpn_1_moudle_cpm_3_3_1_channel"
	top: "lfpn_1_moudle_cpm_3_3_1_channel"
	param {
		lr_mult: 0
		decay_mult: 0
	}
	param {
		lr_mult: 0
		decay_mult: 0
	}
	param {
		lr_mult: 0
		decay_mult: 0
	}
}
layer {
	name: "lfpn_1_moudle_cpm_3_3_1_channel/scale"
	type: "Scale"
	bottom: "lfpn_1_moudle_cpm_3_3_1_channel"
	top: "lfpn_1_moudle_cpm_3_3_1_channel"
	param {
		lr_mult: 1.0
		decay_mult: 0.0
	}
	param {
		lr_mult: 2.0
		decay_mult: 0.0
	}
	scale_param {
		filler {
			value: 1
		}
		bias_term: true
		bias_filler {
			value: 0
		}
	}
}
layer{
	name: "detector_module_one"
	type: "Eltwise"
	bottom: "lfpn_1_moudle_cpm_3_3_1_channel"
	bottom: "lfpn_1_moudle_cpm_3_3"
	top: "detector_module_one"
	eltwise_param {
		operation: SUM
	}
}
#######################################################################
#                             modeule two                             #
#######################################################################

#################context moudle####################
layer{
	name: "lfpn_2_moudle_cpm_4_3"
	type: "Convolution"
	bottom: "conv_one_eltwise"
	top: "lfpn_2_moudle_cpm_4_3"
	param {
		lr_mult: 1
		decay_mult: 1
	}
	convolution_param {
		num_output: 256
		bias_term: false
		kernel_size: 3
		pad: 1
		weight_filler {
			type: "msra"
		}
	}
}
layer {
	name: "lfpn_2_moudle_cpm_4_3/bn"
	type: "BatchNorm"
	bottom: "lfpn_2_moudle_cpm_4_3"
	top: "lfpn_2_moudle_cpm_4_3"
	param {
		lr_mult: 0
		decay_mult: 0
	}
	param {
		lr_mult: 0
		decay_mult: 0
	}
	param {
		lr_mult: 0
		decay_mult: 0
	}
}
layer {
	name: "lfpn_2_moudle_cpm_4_3/scale"
	type: "Scale"
	bottom: "lfpn_2_moudle_cpm_4_3"
	top: "lfpn_2_moudle_cpm_4_3"
	param {
		lr_mult: 1.0
		decay_mult: 0.0
	}
	param {
		lr_mult: 2.0
		decay_mult: 0.0
	}
	scale_param {
		filler {
			value: 1
		}
		bias_term: true
		bias_filler {
			value: 0
		}
	}
}
layer{
	name: "lfpn_2_moudle_cpm_4_3_one_channel"
	type: "Convolution"
	bottom: "lfpn_2_moudle_cpm_4_3"
	top: "lfpn_2_moudle_cpm_4_3_one_channel"
	param {
		lr_mult: 1
		decay_mult: 1
	}
	convolution_param {
		num_output: 256
		kernel_size: 3
        	pad: 1
		bias_term: false
		weight_filler {
			type: "msra"
		}
	}
}
layer {
	name: "lfpn_2_moudle_cpm_4_3_one_channel/bn"
	type: "BatchNorm"
	bottom: "lfpn_2_moudle_cpm_4_3_one_channel"
	top: "lfpn_2_moudle_cpm_4_3_one_channel"
	param {
		lr_mult: 0
		decay_mult: 0
	}
	param {
		lr_mult: 0
		decay_mult: 0
	}
	param {
		lr_mult: 0
		decay_mult: 0
	}
}
layer {
	name: "lfpn_2_moudle_cpm_4_3_one_channel/scale"
	type: "Scale"
	bottom: "lfpn_2_moudle_cpm_4_3_one_channel"
	top: "lfpn_2_moudle_cpm_4_3_one_channel"
	param {
		lr_mult: 1.0
		decay_mult: 0.0
	}
	param {
		lr_mult: 2.0
		decay_mult: 0.0
	}
	scale_param {
		filler {
			value: 1
		}
		bias_term: true
		bias_filler {
			value: 0
		}
	}
}
layer {
	name: "lfpn_2_moudle_cpm_4_3_one_channel/relu"
	type: "ReLU"
	bottom: "lfpn_2_moudle_cpm_4_3_one_channel"
	top: "lfpn_2_moudle_cpm_4_3_one_channel"
}
layer{
	name: "lfpn_2_moudle_cpm_4_3_1_channel"
	type: "Convolution"
	bottom: "lfpn_2_moudle_cpm_4_3_one_channel"
	top: "lfpn_2_moudle_cpm_4_3_1_channel"
	param {
		lr_mult: 1
		decay_mult: 1
	}
	convolution_param {
		num_output: 256
		kernel_size: 3
        	pad: 1
		bias_term: false
		weight_filler {
			type: "msra"
		}
	}
}
layer {
	name: "lfpn_2_moudle_cpm_4_3_1_channel/bn"
	type: "BatchNorm"
	bottom: "lfpn_2_moudle_cpm_4_3_1_channel"
	top: "lfpn_2_moudle_cpm_4_3_1_channel"
	param {
		lr_mult: 0
		decay_mult: 0
	}
	param {
		lr_mult: 0
		decay_mult: 0
	}
	param {
		lr_mult: 0
		decay_mult: 0
	}
}
layer {
	name: "lfpn_2_moudle_cpm_4_3_1_channel/scale"
	type: "Scale"
	bottom: "lfpn_2_moudle_cpm_4_3_1_channel"
	top: "lfpn_2_moudle_cpm_4_3_1_channel"
	param {
		lr_mult: 1.0
		decay_mult: 0.0
	}
	param {
		lr_mult: 2.0
		decay_mult: 0.0
	}
	scale_param {
		filler {
			value: 1
		}
		bias_term: true
		bias_filler {
			value: 0
		}
	}
}
layer{
	name: "detector_module_two"
	type: "Eltwise"
	bottom: "lfpn_2_moudle_cpm_4_3_1_channel"
	bottom: "lfpn_2_moudle_cpm_4_3"
	top: "detector_module_two"
	eltwise_param {
		operation: SUM
	}
}
##########first prior-box layer#########
layer {
  name: "conv_mbox_loc_module"
  type: "Convolution"
  bottom: "detector_module_one"
  top: "conv_mbox_loc_module"
  param {
    lr_mult: 1.0
    decay_mult: 1.0
  }
  param {
    lr_mult: 2.0
    decay_mult: 0.0
  }
  convolution_param {
    num_output: 4
    kernel_size: 1
    weight_filler {
      type: "msra"
    }
    bias_filler {
      type: "constant"
      value: 0.0
    }
  }
}
layer {
  name: "conv_mbox_loc_module_perm"
  type: "Permute"
  bottom: "conv_mbox_loc_module"
  top: "conv_mbox_loc_module_perm"
  permute_param {
    order: 0
    order: 2
    order: 3
    order: 1
  }
}
layer {
  name: "conv_mbox_loc_module_flat"
  type: "Flatten"
  bottom: "conv_mbox_loc_module_perm"
  top: "conv_mbox_loc_module_flat"
  flatten_param {
    axis: 1
  }
}
layer {
  name: "conv_mbox_loc_module_conf"
  type: "Convolution"
  bottom: "detector_module_one"
  top: "conv_mbox_loc_module_conf"
  param {
    lr_mult: 1.0
    decay_mult: 1.0
  }
  param {
    lr_mult: 2.0
    decay_mult: 0.0
  }
  convolution_param {
    num_output: 2
    kernel_size: 1
    weight_filler {
      type: "msra"
    }
    bias_filler {
      type: "constant"
      value: 0.0
    }
  }
}
layer {
  name: "conv_mbox_loc_module_conf_perm"
  type: "Permute"
  bottom: "conv_mbox_loc_module_conf"
  top: "conv_mbox_loc_module_conf_perm"
  permute_param {
    order: 0
    order: 2
    order: 3
    order: 1
  }
}
layer {
  name: "conv_mbox_loc_module_conf_flat"
  type: "Flatten"
  bottom: "conv_mbox_loc_module_conf_perm"
  top: "conv_mbox_loc_module_conf_flat"
  flatten_param {
    axis: 1
  }
}
layer {
  name: "conv_mbox_priorbox"
  type: "PriorBox"
  bottom: "detector_module_one"
  bottom: "data"
  top: "conv_mbox_priorbox"
  prior_box_param {
    min_size: 16.0
    step: 4
    flip: true
    clip: false
    variance: 0.10000000149011612
    variance: 0.10000000149011612
    variance: 0.20000000298023224
    variance: 0.20000000298023224
    offset: 0.5
  }
}
#############two prior layer############
layer {
  name: "conv_mbox_loc_module_two"
  type: "Convolution"
  bottom: "detector_module_two"
  top: "conv_mbox_loc_module_two"
  param {
    lr_mult: 1.0
    decay_mult: 1.0
  }
  param {
    lr_mult: 2.0
    decay_mult: 0.0
  }
  convolution_param {
    num_output: 4
    kernel_size: 1
    weight_filler {
      type: "msra"
    }
    bias_filler {
      type: "constant"
      value: 0.0
    }
  }
}
layer {
  name: "conv_mbox_loc_module_two_perm"
  type: "Permute"
  bottom: "conv_mbox_loc_module_two"
  top: "conv_mbox_loc_module_two_perm"
  permute_param {
    order: 0
    order: 2
    order: 3
    order: 1
  }
}
layer {
  name: "conv_mbox_loc_module_two_flat"
  type: "Flatten"
  bottom: "conv_mbox_loc_module_two_perm"
  top: "conv_mbox_loc_module_two_flat"
  flatten_param {
    axis: 1
  }
}
layer {
  name: "conv_mbox_loc_module_two_conf"
  type: "Convolution"
  bottom: "detector_module_two"
  top: "conv_mbox_loc_module_two_conf"
  param {
    lr_mult: 1.0
    decay_mult: 1.0
  }
  param {
    lr_mult: 2.0
    decay_mult: 0.0
  }
  convolution_param {
    num_output: 2
    kernel_size: 1
    weight_filler {
      type: "msra"
    }
    bias_filler {
      type: "constant"
      value: 0.0
    }
  }
}
layer {
  name: "conv_mbox_loc_module_two_conf_perm"
  type: "Permute"
  bottom: "conv_mbox_loc_module_two_conf"
  top: "conv_mbox_loc_module_two_conf_perm"
  permute_param {
    order: 0
    order: 2
    order: 3
    order: 1
  }
}
layer {
  name: "conv_mbox_loc_module_two_conf_flat"
  type: "Flatten"
  bottom: "conv_mbox_loc_module_two_conf_perm"
  top: "conv_mbox_loc_module_two_conf_flat"
  flatten_param {
    axis: 1
  }
}
layer {
  name: "conv_mbox_priorbox_two"
  type: "PriorBox"
  bottom: "detector_module_two"
  bottom: "data"
  top: "conv_mbox_priorbox_two"
  prior_box_param {
    min_size: 32.0
    step: 8
    flip: true
    clip: false
    variance: 0.10000000149011612
    variance: 0.10000000149011612
    variance: 0.20000000298023224
    variance: 0.20000000298023224
    offset: 0.5
  }
}
#############third prior layer############
layer {
  name: "conv_mbox_loc_module_three"
  type: "Convolution"
  bottom: "conv_four_eltwise"
  top: "conv_mbox_loc_module_three"
  param {
    lr_mult: 1.0
    decay_mult: 1.0
  }
  param {
    lr_mult: 2.0
    decay_mult: 0.0
  }
  convolution_param {
    num_output: 4
    kernel_size: 1
    weight_filler {
      type: "msra"
    }
    bias_filler {
      type: "constant"
      value: 0.0
    }
  }
}
layer {
  name: "conv_mbox_loc_module_three_perm"
  type: "Permute"
  bottom: "conv_mbox_loc_module_three"
  top: "conv_mbox_loc_module_three_perm"
  permute_param {
    order: 0
    order: 2
    order: 3
    order: 1
  }
}
layer {
  name: "conv_mbox_loc_module_three_flat"
  type: "Flatten"
  bottom: "conv_mbox_loc_module_three_perm"
  top: "conv_mbox_loc_module_three_flat"
  flatten_param {
    axis: 1
  }
}
layer {
  name: "conv_mbox_loc_module_three_conf"
  type: "Convolution"
  bottom: "conv_four_eltwise"
  top: "conv_mbox_loc_module_three_conf"
  param {
    lr_mult: 1.0
    decay_mult: 1.0
  }
  param {
    lr_mult: 2.0
    decay_mult: 0.0
  }
  convolution_param {
    num_output: 2
    kernel_size: 1
    weight_filler {
      type: "msra"
    }
    bias_filler {
      type: "constant"
      value: 0.0
    }
  }
}
layer {
  name: "conv_mbox_loc_module_three_conf_perm"
  type: "Permute"
  bottom: "conv_mbox_loc_module_three_conf"
  top: "conv_mbox_loc_module_three_conf_perm"
  permute_param {
    order: 0
    order: 2
    order: 3
    order: 1
  }
}
layer {
  name: "conv_mbox_loc_module_three_conf_flat"
  type: "Flatten"
  bottom: "conv_mbox_loc_module_three_conf_perm"
  top: "conv_mbox_loc_module_three_conf_flat"
  flatten_param {
    axis: 1
  }
}
layer {
  name: "conv_mbox_priorbox_three"
  type: "PriorBox"
  bottom: "conv_four_eltwise"
  bottom: "data"
  top: "conv_mbox_priorbox_three"
  prior_box_param {
    min_size: 64
    step: 16
    flip: true
    clip: false
    variance: 0.10000000149011612
    variance: 0.10000000149011612
    variance: 0.20000000298023224
    variance: 0.20000000298023224
    offset: 0.5
  }
}
#############fourth prior layer############
layer {
  name: "conv_mbox_loc_module_four"
  type: "Convolution"
  bottom: "conv_five_eltwise"
  top: "conv_mbox_loc_module_four"
  param {
    lr_mult: 1.0
    decay_mult: 1.0
  }
  param {
    lr_mult: 2.0
    decay_mult: 0.0
  }
  convolution_param {
    num_output: 4
    kernel_size: 1
    weight_filler {
      type: "msra"
    }
    bias_filler {
      type: "constant"
      value: 0.0
    }
  }
}
layer {
  name: "conv_mbox_loc_module_four_perm"
  type: "Permute"
  bottom: "conv_mbox_loc_module_four"
  top: "conv_mbox_loc_module_four_perm"
  permute_param {
    order: 0
    order: 2
    order: 3
    order: 1
  }
}
layer {
  name: "conv_mbox_loc_module_four_flat"
  type: "Flatten"
  bottom: "conv_mbox_loc_module_four_perm"
  top: "conv_mbox_loc_module_four_flat"
  flatten_param {
    axis: 1
  }
}
layer {
  name: "conv_mbox_loc_module_four_conf"
  type: "Convolution"
  bottom: "conv_five_eltwise"
  top: "conv_mbox_loc_module_four_conf"
  param {
    lr_mult: 1.0
    decay_mult: 1.0
  }
  param {
    lr_mult: 2.0
    decay_mult: 0.0
  }
  convolution_param {
    num_output: 2
    kernel_size: 1
    weight_filler {
      type: "msra"
    }
    bias_filler {
      type: "constant"
      value: 0.0
    }
  }
}
layer {
  name: "conv_mbox_loc_module_four_conf_perm"
  type: "Permute"
  bottom: "conv_mbox_loc_module_four_conf"
  top: "conv_mbox_loc_module_four_conf_perm"
  permute_param {
    order: 0
    order: 2
    order: 3
    order: 1
  }
}
layer {
  name: "conv_mbox_loc_module_four_conf_flat"
  type: "Flatten"
  bottom: "conv_mbox_loc_module_four_conf_perm"
  top: "conv_mbox_loc_module_four_conf_flat"
  flatten_param {
    axis: 1
  }
}
layer {
  name: "conv_mbox_priorbox_four"
  type: "PriorBox"
  bottom: "conv_five_eltwise"
  bottom: "data"
  top: "conv_mbox_priorbox_four"
  prior_box_param {
    min_size: 128
    step: 32
    flip: true
    clip: false
    variance: 0.10000000149011612
    variance: 0.10000000149011612
    variance: 0.20000000298023224
    variance: 0.20000000298023224
    offset: 0.5
  }
}

#############fifth prior layer############
layer {
  name: "conv_mbox_loc_module_five"
  type: "Convolution"
  bottom: "conv14_2"
  top: "conv_mbox_loc_module_five"
  param {
    lr_mult: 1.0
    decay_mult: 1.0
  }
  param {
    lr_mult: 2.0
    decay_mult: 0.0
  }
  convolution_param {
    num_output: 4
    kernel_size: 1
    weight_filler {
      type: "msra"
    }
    bias_filler {
      type: "constant"
      value: 0.0
    }
  }
}
layer {
  name: "conv_mbox_loc_module_five_perm"
  type: "Permute"
  bottom: "conv_mbox_loc_module_five"
  top: "conv_mbox_loc_module_five_perm"
  permute_param {
    order: 0
    order: 2
    order: 3
    order: 1
  }
}
layer {
  name: "conv_mbox_loc_module_five_flat"
  type: "Flatten"
  bottom: "conv_mbox_loc_module_five_perm"
  top: "conv_mbox_loc_module_five_flat"
  flatten_param {
    axis: 1
  }
}
layer {
  name: "conv_mbox_loc_module_five_conf"
  type: "Convolution"
  bottom: "conv14_2"
  top: "conv_mbox_loc_module_five_conf"
  param {
    lr_mult: 1.0
    decay_mult: 1.0
  }
  param {
    lr_mult: 2.0
    decay_mult: 0.0
  }
  convolution_param {
    num_output: 2
    kernel_size: 1
    weight_filler {
      type: "msra"
    }
    bias_filler {
      type: "constant"
      value: 0.0
    }
  }
}
layer {
  name: "conv_mbox_loc_module_five_conf_perm"
  type: "Permute"
  bottom: "conv_mbox_loc_module_five_conf"
  top: "conv_mbox_loc_module_five_conf_perm"
  permute_param {
    order: 0
    order: 2
    order: 3
    order: 1
  }
}
layer {
  name: "conv_mbox_loc_module_five_conf_flat"
  type: "Flatten"
  bottom: "conv_mbox_loc_module_five_conf_perm"
  top: "conv_mbox_loc_module_five_conf_flat"
  flatten_param {
    axis: 1
  }
}
layer {
  name: "conv_mbox_priorbox_five"
  type: "PriorBox"
  bottom: "conv14_2"
  bottom: "data"
  top: "conv_mbox_priorbox_five"
  prior_box_param {
    min_size: 256
    step: 64
    flip: true
    clip: false
    variance: 0.10000000149011612
    variance: 0.10000000149011612
    variance: 0.20000000298023224
    variance: 0.20000000298023224
    offset: 0.5
  }
}

#############six prior layer############
layer {
  name: "conv_mbox_loc_module_six"
  type: "Convolution"
  bottom: "conv15_2"
  top: "conv_mbox_loc_module_six"
  param {
    lr_mult: 1.0
    decay_mult: 1.0
  }
  param {
    lr_mult: 2.0
    decay_mult: 0.0
  }
  convolution_param {
    num_output: 4
    kernel_size: 1
    weight_filler {
      type: "msra"
    }
    bias_filler {
      type: "constant"
      value: 0.0
    }
  }
}
layer {
  name: "conv_mbox_loc_module_six_perm"
  type: "Permute"
  bottom: "conv_mbox_loc_module_six"
  top: "conv_mbox_loc_module_six_perm"
  permute_param {
    order: 0
    order: 2
    order: 3
    order: 1
  }
}
layer {
  name: "conv_mbox_loc_module_six_flat"
  type: "Flatten"
  bottom: "conv_mbox_loc_module_six_perm"
  top: "conv_mbox_loc_module_six_flat"
  flatten_param {
    axis: 1
  }
}
layer {
  name: "conv_mbox_loc_module_six_conf"
  type: "Convolution"
  bottom: "conv15_2"
  top: "conv_mbox_loc_module_six_conf"
  param {
    lr_mult: 1.0
    decay_mult: 1.0
  }
  param {
    lr_mult: 2.0
    decay_mult: 0.0
  }
  convolution_param {
    num_output: 2
    kernel_size: 1
    weight_filler {
      type: "msra"
    }
    bias_filler {
      type: "constant"
      value: 0.0
    }
  }
}
layer {
  name: "conv_mbox_loc_module_six_conf_perm"
  type: "Permute"
  bottom: "conv_mbox_loc_module_six_conf"
  top: "conv_mbox_loc_module_six_conf_perm"
  permute_param {
    order: 0
    order: 2
    order: 3
    order: 1
  }
}
layer {
  name: "conv_mbox_loc_module_six_conf_flat"
  type: "Flatten"
  bottom: "conv_mbox_loc_module_six_conf_perm"
  top: "conv_mbox_loc_module_six_conf_flat"
  flatten_param {
    axis: 1
  }
}
layer {
  name: "conv_mbox_priorbox_six"
  type: "PriorBox"
  bottom: "conv15_2"
  bottom: "data"
  top: "conv_mbox_priorbox_six"
  prior_box_param {
    min_size: 512
    step: 128
    flip: true
    clip: false
    variance: 0.10000000149011612
    variance: 0.10000000149011612
    variance: 0.20000000298023224
    variance: 0.20000000298023224
    offset: 0.5
  }
}
########################
layer {
  name: "mbox_loc"
  type: "Concat"
  bottom: "conv_mbox_loc_module_flat"
  bottom: "conv_mbox_loc_module_two_flat"
  bottom: "conv_mbox_loc_module_three_flat"
  bottom: "conv_mbox_loc_module_four_flat"
  bottom: "conv_mbox_loc_module_five_flat"
  bottom: "conv_mbox_loc_module_six_flat"
  top: "mbox_loc"
  concat_param {
    axis: 1
  }
}
layer {
  name: "mbox_conf"
  type: "Concat"
  bottom: "conv_mbox_loc_module_conf_flat"
  bottom: "conv_mbox_loc_module_two_conf_flat"
  bottom: "conv_mbox_loc_module_three_conf_flat"
  bottom: "conv_mbox_loc_module_four_conf_flat"
  bottom: "conv_mbox_loc_module_five_conf_flat"
  bottom: "conv_mbox_loc_module_six_conf_flat"
  top: "mbox_conf"
  concat_param {
    axis: 1
  }
}
layer {
  name: "mbox_priorbox"
  type: "Concat"
  bottom: "conv_mbox_priorbox"
  bottom: "conv_mbox_priorbox_two"
  bottom: "conv_mbox_priorbox_three"
  bottom: "conv_mbox_priorbox_four"
  bottom: "conv_mbox_priorbox_five"
  bottom: "conv_mbox_priorbox_six"
  top: "mbox_priorbox"
  concat_param {
    axis: 2
  }
}
########################
layer {
  name: "mbox_conf_reshape"
  type: "Reshape"
  bottom: "mbox_conf"
  top: "mbox_conf_reshape"
  reshape_param {
    shape {
      dim: 0
      dim: -1
      dim: 2
    }
  }
}
layer {
  name: "mbox_conf_softmax"
  type: "Softmax"
  bottom: "mbox_conf_reshape"
  top: "mbox_conf_softmax"
  softmax_param {
    axis: 2
  }
}
layer {
  name: "mbox_conf_flatten"
  type: "Flatten"
  bottom: "mbox_conf_softmax"
  top: "mbox_conf_flatten"
  flatten_param {
    axis: 1
  }
}
layer {
  name: "detection_out"
  type: "DetectionOutput"
  bottom: "mbox_loc"
  bottom: "mbox_conf_flatten"
  bottom: "mbox_priorbox"
  top: "detection_out"
  include {
    phase: TEST
  }
  detection_output_param {
    num_classes: 2
    share_location: true
    background_label_id: 0
    nms_param {
      nms_threshold: 0.44999998807907104
      top_k: 400
    }
    code_type: CENTER_SIZE
    keep_top_k: 200
    confidence_threshold: 0.009999999776482582
  }
}
layer {
  name: "detection_eval"
  type: "DetectionEvaluate"
  bottom: "detection_out"
  bottom: "label"
  top: "detection_eval"
  include {
    phase: TEST
  }
  detection_evaluate_param {
    num_classes: 2
    background_label_id: 0
    overlap_threshold: 0.5
    evaluate_difficult_gt: false
  }
}
