name: "deep_face_attribute"
layer {
	name: "data"
	type: "faceAttributeData"
	top: "data"
	top: "label"
	include {
		phase: TEST
	}
	transform_param {
		scale: 0.007843
		mean_value: 127.5
		mean_value: 127.5
		mean_value: 127.5
		resize_param {
			prob: 1.0
			resize_mode: WARP
			height: 128
			width: 128
			interp_mode: LINEAR
		}
	}
	data_param {
		source: "../../../../../dataset/facedata/umdface/lmdb/umdface_testing_umdface_pose_lmdb/"
		batch_size: 4
		backend: LMDB
	}
}
layer {
	name: "conv_0"
	type: "Convolution"
	bottom: "data"
	top: "conv_0"
	param {
		lr_mult: 1
		decay_mult: 1
	}
	param {
		lr_mult: 2
		decay_mult: 0
	}
	convolution_param {
		num_output: 16
		kernel_size: 3
		stride: 1
		pad: 1
		weight_filler {
			type: "xavier"
		}
		bias_filler {
			type: "constant"
			value: 0
		}
	}
}
layer {
	name: "conv_0/bn"
	type: "BatchNorm"
	bottom: "conv_0"
	top: "conv_0"
	param {
		lr_mult: 0
		decay_mult: 0
	}
	param {
		lr_mult: 0
		decay_mult: 0
	}
	param {
		lr_mult: 0
		decay_mult: 0
	}
}
layer {
	name: "conv_0/scale"
	type: "Scale"
	bottom: "conv_0"
	top: "conv_0"
	param {
		lr_mult: 1.0
		decay_mult: 0.0
	}
	param {
		lr_mult: 2.0
		decay_mult: 0.0
	}
	scale_param {
		filler {
			value: 1
		}
		bias_term: true
		bias_filler {
			value: 0
		}
	}
}
layer {
	name: "conv_0/relu"
	type: "PReLU"
	bottom: "conv_0"
	top: "conv_0"
}
layer {
	name: "conv_1"
	type: "Convolution"
	bottom: "conv_0"
	top: "conv_1"
	param {
		lr_mult: 1
		decay_mult: 1
	}
	param {
		lr_mult: 2
		decay_mult: 0
	}
	convolution_param {
		num_output: 32
		kernel_size: 3
		stride: 2
		pad: 1
		weight_filler {
			type: "xavier"
		}
		bias_filler {
			type: "constant"
			value: 0
		}
	}
}
layer {
	name: "conv_1/bn"
	type: "BatchNorm"
	bottom: "conv_1"
	top: "conv_1"
	param {
		lr_mult: 0
		decay_mult: 0
	}
	param {
		lr_mult: 0
		decay_mult: 0
	}
	param {
		lr_mult: 0
		decay_mult: 0
	}
}
layer {
	name: "conv_1/scale"
	type: "Scale"
	bottom: "conv_1"
	top: "conv_1"
	param {
		lr_mult: 1.0
		decay_mult: 0.0
	}
	param {
		lr_mult: 2.0
		decay_mult: 0.0
	}
	scale_param {
		filler {
			value: 1
		}
		bias_term: true
		bias_filler {
			value: 0
		}
	}
}

layer {
	name: "conv_1_1"
	type: "Convolution"
	bottom: "conv_1"
	top: "conv_1_1"
	param {
		lr_mult: 1
		decay_mult: 1
	}
	param {
		lr_mult: 2
		decay_mult: 0
	}
	convolution_param {
		num_output: 32
		kernel_size: 3
		stride: 1
		pad: 1
		weight_filler {
			type: "xavier"
		}
		bias_filler {
			type: "constant"
			value: 0
		}
	}
}
layer {
	name: "conv_1_1/bn"
	type: "BatchNorm"
	bottom: "conv_1_1"
	top: "conv_1_1"
	param {
		lr_mult: 0
		decay_mult: 0
	}
	param {
		lr_mult: 0
		decay_mult: 0
	}
	param {
		lr_mult: 0
		decay_mult: 0
	}
}
layer {
	name: "conv_1_1/scale"
	type: "Scale"
	bottom: "conv_1_1"
	top: "conv_1_1"
	param {
		lr_mult: 1.0
		decay_mult: 0.0
	}
	param {
		lr_mult: 2.0
		decay_mult: 0.0
	}
	scale_param {
		filler {
			value: 1
		}
		bias_term: true
		bias_filler {
			value: 0
		}
	}
}
layer {
	name: "conv_one_eltwise"
	type: "Eltwise"
	bottom: "conv_1_1"
	bottom: "conv_1"
	top: "conv_one_eltwise"
	eltwise_param {
	operation: SUM
	}
}
layer {
	name: "conv_one_eltwise/relu"
	type: "PReLU"
	bottom: "conv_one_eltwise"
	top: "conv_one_eltwise"
}

layer {
	name: "conv_2"
	type: "Convolution"
	bottom: "conv_one_eltwise"
	top: "conv_2"
	param {
		lr_mult: 1
		decay_mult: 1
	}
	param {
		lr_mult: 2
		decay_mult: 0
	}
	convolution_param {
		num_output: 64
		kernel_size: 3
		stride: 2
		pad: 1
		weight_filler {
			type: "xavier"
		}
		bias_filler {
			type: "constant"
			value: 0
		}
	}
}
layer {
	name: "conv_2/bn"
	type: "BatchNorm"
	bottom: "conv_2"
	top: "conv_2"
	param {
		lr_mult: 0
		decay_mult: 0
	}
	param {
		lr_mult: 0
		decay_mult: 0
	}
	param {
		lr_mult: 0
		decay_mult: 0
	}
}
layer {
	name: "conv_2/scale"
	type: "Scale"
	bottom: "conv_2"
	top: "conv_2"
	param {
		lr_mult: 1.0
		decay_mult: 0.0
	}
	param {
		lr_mult: 2.0
		decay_mult: 0.0
	}
	scale_param {
		filler {
			value: 1
		}
		bias_term: true
		bias_filler {
			value: 0
		}
	}
}


######################RESNET#########################
layer {
	name: "conv_2_2"
	type: "Convolution"
	bottom: "conv_2"
	top: "conv_2_2"
	param {
		lr_mult: 1
		decay_mult: 1
	}
	param {
		lr_mult: 2
		decay_mult: 0
	}
	convolution_param {
		num_output: 64
		kernel_size: 3
		stride: 1
		pad: 1
		weight_filler {
			type: "xavier"
		}
		bias_filler {
			type: "constant"
			value: 0
		}
	}
}
layer {
	name: "conv_2_2/bn"
	type: "BatchNorm"
	bottom: "conv_2_2"
	top: "conv_2_2"
	param {
		lr_mult: 0
		decay_mult: 0
	}
	param {
		lr_mult: 0
		decay_mult: 0
	}
	param {
		lr_mult: 0
		decay_mult: 0
	}
}
layer {
	name: "conv_2_2/scale"
	type: "Scale"
	bottom: "conv_2_2"
	top: "conv_2_2"
	param {
		lr_mult: 1.0
		decay_mult: 0.0
	}
	param {
		lr_mult: 2.0
		decay_mult: 0.0
	}
	scale_param {
		filler {
			value: 1
		}
		bias_term: true
		bias_filler {
			value: 0
		}
	}
}

layer{
	name: "conv_two_eltwise"
	type: "Eltwise"
	bottom: "conv_2_2"
	bottom: "conv_2"
	top: "conv_two_eltwise"
	eltwise_param {
		operation: SUM
	}
}
layer {
	name: "conv_two_eltwise/relu"
	type: "PReLU"
	bottom: "conv_two_eltwise"
	top: "conv_two_eltwise"
}
###
layer {
	name: "conv_2_4"
	type: "Convolution"
	bottom: "conv_two_eltwise"
	top: "conv_2_4"
	param {
		lr_mult: 1
		decay_mult: 1
	}
	param {
		lr_mult: 2
		decay_mult: 0
	}
	convolution_param {
		num_output: 128
		kernel_size: 3
		stride: 2
		pad: 1
		weight_filler {
			type: "xavier"
		}
		bias_filler {
			type: "constant"
			value: 0
		}
	}
}

layer {
	name: "conv_2_4/bn"
	type: "BatchNorm"
	bottom: "conv_2_4"
	top: "conv_2_4"
	param {
		lr_mult: 0
		decay_mult: 0
	}
	param {
		lr_mult: 0
		decay_mult: 0
	}
	param {
		lr_mult: 0
		decay_mult: 0
	}
}
layer {
	name: "conv_2_4/scale"
	type: "Scale"
	bottom: "conv_2_4"
	top: "conv_2_4"
	param {
		lr_mult: 1.0
		decay_mult: 0.0
	}
	param {
		lr_mult: 2.0
		decay_mult: 0.0
	}
	scale_param {
		filler {
			value: 1
		}
		bias_term: true
		bias_filler {
			value: 0
		}
	}
}

###
layer {
	name: "conv_3_2"
	type: "Convolution"
	bottom: "conv_2_4"
	top: "conv_3_2"
	param {
		lr_mult: 1
		decay_mult: 1
	}
	param {
	lr_mult: 2
	decay_mult: 1
	}
	convolution_param {
		num_output: 128
		kernel_size: 3
		stride: 1
		pad: 1
		weight_filler {
			type: "xavier"
		}
		bias_filler {
			type: "constant"
			value: 0
		}
	}
}
layer {
	name: "conv_3_2/bn"
	type: "BatchNorm"
	bottom: "conv_3_2"
	top: "conv_3_2"
	param {
		lr_mult: 0
		decay_mult: 0
	}
	param {
		lr_mult: 0
		decay_mult: 0
	}
	param {
		lr_mult: 0
		decay_mult: 0
	}
}
layer {
	name: "conv_3_2/scale"
	type: "Scale"
	bottom: "conv_3_2"
	top: "conv_3_2"
	param {
		lr_mult: 1.0
		decay_mult: 0.0
	}
	param {
		lr_mult: 2.0
		decay_mult: 0.0
	}
	scale_param {
		filler {
			value: 1
		}
		bias_term: true
		bias_filler {
			value: 0
		}
	}
}
layer {
	name: "conv_three_eltwise"
	type: "Eltwise"
	bottom: "conv_3_2"
	bottom: "conv_2_4"
	top: "conv_three_eltwise"
	eltwise_param {
	operation: SUM
	}
}
layer {
	name: "conv_three_eltwise/relu"
	type: "PReLU"
	bottom: "conv_three_eltwise"
	top: "conv_three_eltwise"
}
###########################
layer {
	name: "conv_4_1_1"
	type: "Convolution"
	bottom: "conv_three_eltwise"
	top: "conv_4_1_1"
	param {
		lr_mult: 1
		decay_mult: 1
	}
	param {
		lr_mult: 2
		decay_mult: 0
	}
	convolution_param {
		num_output: 256
		kernel_size: 3
		stride: 2
		pad: 0
		weight_filler {
			type: "xavier"
		}
		bias_filler {
			type: "constant"
			value: 0
		}
	}
}
layer {
	name: "conv_4_1_1/bn"
	type: "BatchNorm"
	bottom: "conv_4_1_1"
	top: "conv_4_1_1"
	param {
		lr_mult: 0
		decay_mult: 0
	}
	param {
		lr_mult: 0
		decay_mult: 0
	}
	param {
		lr_mult: 0
		decay_mult: 0
	}
}
layer {
	name: "conv_4_1_1/scale"
	type: "Scale"
	bottom: "conv_4_1_1"
	top: "conv_4_1_1"
	param {
		lr_mult: 1.0
		decay_mult: 0.0
	}
	param {
		lr_mult: 2.0
		decay_mult: 0.0
	}
	scale_param {
		filler {
			value: 1
		}
		bias_term: true
		bias_filler {
			value: 0
		}
	}
}
layer {
	name: "conv_4_1_1/relu"
	type: "PReLU"
	bottom: "conv_4_1_1"
	top: "conv_4_1_1"
}
####
layer {
	name: "conv_4_1_2"
	type: "Convolution"
	bottom: "conv_4_1_1"
	top: "conv_4_1_2"
	param {
		lr_mult: 1
		decay_mult: 1
	}
	param {
		lr_mult: 2
		decay_mult: 0
	}
	convolution_param {
		num_output: 256
		kernel_size: 3
        pad: 0
		weight_filler {
			type: "xavier"
		}
		bias_filler {
			type: "constant"
			value: 0
		}
	}
}
layer {
	name: "conv_4_1_2/bn"
	type: "BatchNorm"
	bottom: "conv_4_1_2"
	top: "conv_4_1_2"
	param {
		lr_mult: 0
		decay_mult: 0
	}
	param {
		lr_mult: 0
		decay_mult: 0
	}
	param {
		lr_mult: 0
		decay_mult: 0
	}
}
layer {
	name: "conv_4_1_2/scale"
	type: "Scale"
	bottom: "conv_4_1_2"
	top: "conv_4_1_2"
	param {
		lr_mult: 1.0
		decay_mult: 0.0
	}
	param {
		lr_mult: 2.0
		decay_mult: 0.0
	}
	scale_param {
		filler {
			value: 1
		}
		bias_term: true
		bias_filler {
			value: 0
		}
	}
}
layer {
	name: "conv_4_1_2/relu"
	type: "PReLU"
	bottom: "conv_4_1_2"
	top: "conv_4_1_2"
}
layer {
	name: "conv_4_1_3"
	type: "Convolution"
	bottom: "conv_4_1_2"
	top: "conv_4_1_3"
	param {
		lr_mult: 1
		decay_mult: 1
	}
	param {
		lr_mult: 2
		decay_mult: 0
	}
	convolution_param {
		num_output: 512
		kernel_size: 3
		stride: 2
		pad: 0
		weight_filler {
			type: "xavier"
		}
		bias_filler {
			type: "constant"
			value: 0
		}
	}
}
layer {
	name: "conv_4_1_3/bn"
	type: "BatchNorm"
	bottom: "conv_4_1_3"
	top: "conv_4_1_3"
	param {
		lr_mult: 0
		decay_mult: 0
	}
	param {
		lr_mult: 0
		decay_mult: 0
	}
	param {
		lr_mult: 0
		decay_mult: 0
	}
}
layer {
	name: "conv_4_1_3/scale"
	type: "Scale"
	bottom: "conv_4_1_3"
	top: "conv_4_1_3"
	param {
		lr_mult: 1.0
		decay_mult: 0.0
	}
	param {
		lr_mult: 2.0
		decay_mult: 0.0
	}
	scale_param {
		filler {
			value: 1
		}
		bias_term: true
		bias_filler {
			value: 0
		}
	}
}
layer {
	name: "conv_4_1_3/relu"
	type: "PReLU"
	bottom: "conv_4_1_3"
	top: "conv_4_1_3"
}
####
layer {
	name: "conv_4_2_1"
	type: "Convolution"
	bottom: "conv_three_eltwise"
	top: "conv_4_2_1"
	param {
		lr_mult: 1
		decay_mult: 1
	}
	param {
		lr_mult: 2
		decay_mult: 0
	}
	convolution_param {
		num_output: 256
		kernel_size: 3
		stride: 2
		pad: 0
		weight_filler {
			type: "xavier"
		}
		bias_filler {
			type: "constant"
			value: 0
		}
	}
}
layer {
	name: "conv_4_2_1/bn"
	type: "BatchNorm"
	bottom: "conv_4_2_1"
	top: "conv_4_2_1"
	param {
		lr_mult: 0
		decay_mult: 0
	}
	param {
		lr_mult: 0
		decay_mult: 0
	}
	param {
		lr_mult: 0
		decay_mult: 0
	}
}
layer {
	name: "conv_4_2_1/scale"
	type: "Scale"
	bottom: "conv_4_2_1"
	top: "conv_4_2_1"
	param {
		lr_mult: 1.0
		decay_mult: 0.0
	}
	param {
		lr_mult: 2.0
		decay_mult: 0.0
	}
	scale_param {
		filler {
			value: 1
		}
		bias_term: true
		bias_filler {
			value: 0
		}
	}
}
layer {
	name: "conv_4_2_1/relu"
	type: "PReLU"
	bottom: "conv_4_2_1"
	top: "conv_4_2_1"
}
####
layer {
	name: "conv_4_2_2"
	type: "Convolution"
	bottom: "conv_4_2_1"
	top: "conv_4_2_2"
	param {
		lr_mult: 1
		decay_mult: 1
	}
	param {
		lr_mult: 2
		decay_mult: 0
	}
	convolution_param {
		num_output: 256
		kernel_size: 3
        pad: 0
		weight_filler {
			type: "xavier"
		}
		bias_filler {
			type: "constant"
			value: 0
		}
	}
}
layer {
	name: "conv_4_2_2/bn"
	type: "BatchNorm"
	bottom: "conv_4_2_2"
	top: "conv_4_2_2"
	param {
		lr_mult: 0
		decay_mult: 0
	}
	param {
		lr_mult: 0
		decay_mult: 0
	}
	param {
		lr_mult: 0
		decay_mult: 0
	}
}
layer {
	name: "conv_4_2_2/scale"
	type: "Scale"
	bottom: "conv_4_2_2"
	top: "conv_4_2_2"
	param {
		lr_mult: 1.0
		decay_mult: 0.0
	}
	param {
		lr_mult: 2.0
		decay_mult: 0.0
	}
	scale_param {
		filler {
			value: 1
		}
		bias_term: true
		bias_filler {
			value: 0
		}
	}
}
layer {
	name: "conv_4_2_2/relu"
	type: "PReLU"
	bottom: "conv_4_2_2"
	top: "conv_4_2_2"
}

layer {
	name: "conv_4_3_1"
	type: "Convolution"
	bottom: "conv_three_eltwise"
	top: "conv_4_3_1"
	param {
		lr_mult: 1
		decay_mult: 1
	}
	param {
		lr_mult: 2
		decay_mult: 0
	}
	convolution_param {
		num_output: 256
		kernel_size: 3
		stride: 2
		pad: 0
		weight_filler {
			type: "xavier"
		}
		bias_filler {
			type: "constant"
			value: 0
		}
	}
}
layer {
	name: "conv_4_3_1/bn"
	type: "BatchNorm"
	bottom: "conv_4_3_1"
	top: "conv_4_3_1"
	param {
		lr_mult: 0
		decay_mult: 0
	}
	param {
		lr_mult: 0
		decay_mult: 0
	}
	param {
		lr_mult: 0
		decay_mult: 0
	}
}
layer {
	name: "conv_4_3_1/scale"
	type: "Scale"
	bottom: "conv_4_3_1"
	top: "conv_4_3_1"
	param {
		lr_mult: 1.0
		decay_mult: 0.0
	}
	param {
		lr_mult: 2.0
		decay_mult: 0.0
	}
	scale_param {
		filler {
			value: 1
		}
		bias_term: true
		bias_filler {
			value: 0
		}
	}
}
layer {
	name: "conv_4_3_1/relu"
	type: "PReLU"
	bottom: "conv_4_3_1"
	top: "conv_4_3_1"
}
####
layer {
	name: "conv_4_3_2"
	type: "Convolution"
	bottom: "conv_4_3_1"
	top: "conv_4_3_2"
	param {
		lr_mult: 1
		decay_mult: 1
	}
	param {
		lr_mult: 2
		decay_mult: 0
	}
	convolution_param {
		num_output: 256
		kernel_size: 3
        stride: 1
		weight_filler {
			type: "xavier"
		}
		bias_filler {
			type: "constant"
			value: 0
		}
	}
}
layer {
	name: "conv_4_3_2/bn"
	type: "BatchNorm"
	bottom: "conv_4_3_2"
	top: "conv_4_3_2"
	param {
		lr_mult: 0
		decay_mult: 0
	}
	param {
		lr_mult: 0
		decay_mult: 0
	}
	param {
		lr_mult: 0
		decay_mult: 0
	}
}
layer {
	name: "conv_4_3_2/scale"
	type: "Scale"
	bottom: "conv_4_3_2"
	top: "conv_4_3_2"
	param {
		lr_mult: 1.0
		decay_mult: 0.0
	}
	param {
		lr_mult: 2.0
		decay_mult: 0.0
	}
	scale_param {
		filler {
			value: 1
		}
		bias_term: true
		bias_filler {
			value: 0
		}
	}
}
layer {
	name: "conv_4_3_2/relu"
	type: "PReLU"
	bottom: "conv_4_3_2"
	top: "conv_4_3_2"
}
####
layer {
	name: "conv_4_3_3"
	type: "Convolution"
	bottom: "conv_4_3_2"
	top: "conv_4_3_3"
	param {
		lr_mult: 1
		decay_mult: 1
	}
	param {
		lr_mult: 2
		decay_mult: 0
	}
	convolution_param {
		num_output: 512
		kernel_size: 3
		stride: 2
		pad: 0
		weight_filler {
			type: "xavier"
		}
		bias_filler {
			type: "constant"
			value: 0
		}
	}
}
layer {
	name: "conv_4_3_3/bn"
	type: "BatchNorm"
	bottom: "conv_4_3_3"
	top: "conv_4_3_3"
	param {
		lr_mult: 0
		decay_mult: 0
	}
	param {
		lr_mult: 0
		decay_mult: 0
	}
	param {
		lr_mult: 0
		decay_mult: 0
	}
}
layer {
	name: "conv_4_3_3/scale"
	type: "Scale"
	bottom: "conv_4_3_3"
	top: "conv_4_3_3"
	param {
		lr_mult: 1.0
		decay_mult: 0.0
	}
	param {
		lr_mult: 2.0
		decay_mult: 0.0
	}
	scale_param {
		filler {
			value: 1
		}
		bias_term: true
		bias_filler {
			value: 0
		}
	}
}
layer {
	name: "conv_4_3_3/relu"
	type: "PReLU"
	bottom: "conv_4_3_3"
	top: "conv_4_3_3"
}
####

layer {
	name: "conv6_gender_fds"
	type: "InnerProduct"
	bottom: "conv_4_2_2"
	top: "conv6_gender_fds"
	param {
		lr_mult: 1
		decay_mult: 1
	}
	param {
		lr_mult: 2
		decay_mult: 1
	}
	inner_product_param {
		#kernel_size: 1
		num_output: 32
		weight_filler {
			type: "xavier"
		}
		bias_filler {
			type: "constant"
			value: 0
		}
	}
}
layer {
	name: "conv6_gender_fds/relu"
	type: "PReLU"
	bottom: "conv6_gender_fds"
	top: "conv6_gender_fds"
}

layer {
	name: "conv6_gender"
	type: "InnerProduct"
	bottom: "conv6_gender_fds"
	top: "conv6_gender"
	param {
		lr_mult: 1
		decay_mult: 1
	}
	param {
		lr_mult: 2
		decay_mult: 0
	}
	inner_product_param {
		num_output: 2
		weight_filler {
			type: "xavier"
		}
		bias_filler {
			type: "constant"
			value: 0
		}
	}
}

layer {
	name: "conv6_landmark_fds"
	type: "InnerProduct"
	bottom: "conv_4_3_3"
	top: "conv6_landmark_fds"
	param {
		lr_mult: 1
		decay_mult: 1
	}
	param {
		lr_mult: 2
		decay_mult: 1
	}
	inner_product_param {
		#kernel_size: 1
		num_output: 128
		weight_filler {
			type: "xavier"
		}
		bias_filler {
			type: "constant"
			value: 0
		}
	}
}
layer {
	name: "conv6_landmark_fds/relu"
	type: "PReLU"
	bottom: "conv6_landmark_fds"
	top: "conv6_landmark_fds"
}
layer {
	name: "conv6_landmark"
	type: "InnerProduct"
	bottom: "conv6_landmark_fds"
	top: "conv6_landmark"
	param {
		lr_mult: 1
		decay_mult: 1
	}
	param {
		lr_mult: 2
		decay_mult: 0
	}
	inner_product_param {
		num_output: 10
		weight_filler {
			type: "xavier"
		}
		bias_filler {
			type: "constant"
			value: 0
		}
	}
}
layer {
	name: "conv6_angle_fds"
	type: "InnerProduct"
	bottom: "conv_4_1_3"
	top: "conv6_angle_fds"
	param {
		lr_mult: 1
		decay_mult: 1
	}
	param {
		lr_mult: 2
		decay_mult: 1
	}
	inner_product_param {
		#kernel_size: 1
		num_output: 128
		weight_filler {
			type: "xavier"
		}
		bias_filler {
			type: "constant"
			value: 0
		}
	}
}
layer {
	name: "conv6_angle_fds/relu"
	type: "PReLU"
	bottom: "conv6_angle_fds"
	top: "conv6_angle_fds"
}
layer {
	name: "conv6_angle"
	type: "InnerProduct"
	bottom: "conv6_angle_fds"
	top: "conv6_angle"
	param {
		lr_mult: 1
		decay_mult: 1
	}
	param {
		lr_mult: 2
		decay_mult: 1
	}
	inner_product_param {
		#kernel_size: 1
		num_output: 3
		weight_filler {
			type: "xavier"
		}
		bias_filler {
			type: "constant"
			value: 0
		}
	}
}
layer {
	name: "conv6_gender"
	type: "Softmax"
	bottom: "conv6_gender"
	top: "conv6_gender"
	softmax_param {
		axis: 1
	}
}


layer {
	name: "multiface_output"
	type: "Concat"
	bottom: "conv6_landmark"
    bottom: "conv6_angle"
	bottom: "conv6_gender"
	top: "multiface_output"
	concat_param {
		axis: 1
	}
	include {
		phase: TEST
	}
}
layer{
	name: "faceeval_output"
	type: "FaceAttriEvaluate"
	bottom: "multiface_output"
	bottom: "label"
	top: "faceeval_output"
	include {
		phase: TEST
	}
	face_evaluate_param{
		facetype: FACEATTRIBUTE
		facepoints: 5
		num_gender: 2
	}
}
