name: "deepano_face_landmarknet"
layer {
  name: "data"
  type: "faceAnnoData"
  top: "data"
  top: "label"
  transform_param {
    mirror: false
    mean_value: 127.5
    scale: 0.0078125
    crop_size: 48
  }
  include {
    phase: TEST
  }
  data_param {
    source: "train_lmdb48"
    batch_size: 64
    backend: LMDB
  }
}
layer {
  name: "conv1"
  type: "Convolution"
  bottom: "data"
  top: "conv1"
  param {
    lr_mult: 1
    decay_mult: 1
  }
  param {
    lr_mult: 2
    decay_mult: 1
  }
  convolution_param {
    num_output: 32
    kernel_size: 3
    stride: 1
     weight_filler {
      type: "xavier"
	}
    bias_filler {
      type: "constant"
      value: 0
    }
  }
}
layer {
  name: "prelu1"
  type: "PReLU"
  bottom: "conv1"
  top: "conv1"
}
layer {
  name: "pool1"
  type: "Pooling"
  bottom: "conv1"
  top: "pool1"
  pooling_param {
    pool: MAX
    kernel_size: 3
    stride: 2
  }
}
layer {
  name: "conv2"
  type: "Convolution"
  bottom: "pool1"
  top: "conv2"
  param {
    lr_mult: 1
    decay_mult: 1
  }
  param {
    lr_mult: 2
    decay_mult: 1
  }
  convolution_param {
    num_output: 64
    kernel_size: 3
    stride: 1
     weight_filler {
      type: "xavier"
	}
    bias_filler {
      type: "constant"
      value: 0
    }
  }
}

layer {
  name: "prelu2"
  type: "PReLU"
  bottom: "conv2"
  top: "conv2"
}
layer {
  name: "pool2"
  type: "Pooling"
  bottom: "conv2"
  top: "pool2"
  pooling_param {
    pool: MAX
    kernel_size: 3
    stride: 2
  }
}

layer {
  name: "conv3"
  type: "Convolution"
  bottom: "pool2"
  top: "conv3"
  param {
    lr_mult: 1
    decay_mult: 1
  }
  param {
    lr_mult: 2
    decay_mult: 1
  }
  convolution_param {
	num_output: 64
	kernel_size: 3
    weight_filler {
      type: "xavier"
	}
    bias_filler {
      type: "constant"
      value: 0
    }
  }
}
layer {
  name: "prelu3"
  type: "PReLU"
  bottom: "conv3"
  top: "conv3"
}
layer {
  name: "pool3"
  type: "Pooling"
  bottom: "conv3"
  top: "pool3"
  pooling_param {
    pool: MAX
    kernel_size: 2
    stride: 2
  }
}
layer {
  name: "conv4"
  type: "Convolution"
  bottom: "pool3"
  top: "conv4"
  param {
    lr_mult: 1
    decay_mult: 1
  }
  param {
    lr_mult: 2
    decay_mult: 1
  }
  convolution_param {
	num_output: 128
	kernel_size: 2
    weight_filler {
      type: "xavier"
	}
    bias_filler {
      type: "constant"
      value: 0
    }
  }
}
layer {
  name: "prelu4"
  type: "PReLU"
  bottom: "conv4"
  top: "conv4"
}


layer {
  name: "conv5"
  type: "InnerProduct"
  bottom: "conv4"
  top: "conv5"
  param {
    lr_mult: 1
    decay_mult: 1
  }
  param {
    lr_mult: 2
    decay_mult: 1
  }
  inner_product_param {
	#kernel_size: 3
	num_output: 256
    weight_filler {
      type: "xavier"
	}
    bias_filler {
      type: "constant"
      value: 0
    }
  }
}

layer {
  name: "drop5"
  type: "Dropout"
  bottom: "conv5"
  top: "conv5"
  dropout_param {
    dropout_ratio: 0.25
  }
}
layer {
  name: "prelu5"
  type: "PReLU"
  bottom: "conv5"
  top: "conv5"
}

layer {
  name: "conv6_gender"
  type: "InnerProduct"
  bottom: "conv5"
  top: "conv6_gender"
  param {
    lr_mult: 1
    decay_mult: 1
  }
  param {
    lr_mult: 2
    decay_mult: 1
  }
  inner_product_param {
    #kernel_size: 1
	num_output: 2
    weight_filler {
      type: "xavier"
	}
    bias_filler {
      type: "constant"
      value: 0
    }
  }
}
layer {
  name: "conv6_glasses"
  type: "InnerProduct"
  bottom: "conv5"
  top: "conv6_glasses"
  param {
    lr_mult: 1
    decay_mult: 1
  }
  param {
    lr_mult: 2
    decay_mult: 1
  }
  inner_product_param {
    #kernel_size: 1
	num_output: 2
    weight_filler {
      type: "xavier"
	}
    bias_filler {
      type: "constant"
      value: 0
    }
  }
}
layer {
  name: "conv6_headpose"
  type: "InnerProduct"
  bottom: "conv5"
  top: "conv6_headpose"
  param {
    lr_mult: 1
    decay_mult: 1
  }
  param {
    lr_mult: 2
    decay_mult: 1
  }
  inner_product_param {
    #kernel_size: 1
	num_output: 5
    weight_filler {
      type: "xavier"
	}
    bias_filler {
      type: "constant"
      value: 0
    }
  }
}

layer {
  name: "conv6_landmark"
  type: "InnerProduct"
  bottom: "conv5"
  top: "conv6_landmark"
  param {
    lr_mult: 1
    decay_mult: 1
  }
  param {
    lr_mult: 2
    decay_mult: 1
  }
  inner_product_param {
  	#kernel_size: 1
	num_output: 10
    weight_filler {
      type: "xavier"
	}
    bias_filler {
      type: "constant"
      value: 0
    }
  }
}
layer {
  name: "multiface_output"
  type: "Concat"
  bottom: "conv6_landmark"
  bottom: "conv6_gender"
  bottom: "conv6_glasses"
  bottom: "conv6_headpose"
  top: "multiface_output"
  concat_param {
		axis: 1
  }
}
