name: "CenterGridFace_test"
layer {
  name: "data"
  type: "AnnotatedData"
  top: "data"
  top: "label"
  include {
    phase: TEST
  }
  transform_param {
    scale: 0.007842999882996082
    mean_value: 103.94000244140625
    mean_value: 116.77999877929688
    mean_value: 123.68000030517578
    resize_param {
      prob: 1.0
      resize_mode: WARP
      height: 320
      width: 320
      interp_mode: LINEAR
    }
  }
  annotated_data_param {
    label_map_file: "../labelmap.prototxt"
    yoloformat: false
    crop_type: CROP_JITTER
    has_landmarks: false
  }
  data_param {
    source: "../../../../../dataset/facedata/wider_face_32/lmdb/wider_face_wider_val_lmdb/"
    batch_size: 1
    backend: LMDB
  }
}
layer {
  name: "conv_0"
  type: "Convolution"
  bottom: "data"
  top: "conv_0"
  param {
    lr_mult: 1.0
    decay_mult: 1.0
  }
  convolution_param {
    num_output: 32
    bias_term: false
    pad: 0
    kernel_size: 3
    stride: 2
    weight_filler {
      type: "msra"
    }
  }
}
layer {
  name: "conv_0_bn"
  type: "BatchNorm"
  bottom: "conv_0"
  top: "conv_0"
  param {
    lr_mult: 0.0
    decay_mult: 0.0
  }
  param {
    lr_mult: 0.0
    decay_mult: 0.0
  }
  param {
    lr_mult: 0.0
    decay_mult: 0.0
  }
  batch_norm_param {
    use_global_stats: true
    eps: 0.0010000000474974513
  }
}
layer {
  name: "conv_0_scale"
  type: "Scale"
  bottom: "conv_0"
  top: "conv_0"
  param {
    lr_mult: 0.0
    decay_mult: 0.0
  }
  param {
    lr_mult: 0.0
    decay_mult: 0.0
  }
  scale_param {
    filler {
      value: 1.0
    }
    bias_term: true
    bias_filler {
      value: 0.0
    }
  }
}
layer {
  name: "conv_0_relu6"
  type: "ReLU6"
  bottom: "conv_0"
  top: "conv_0"
}
layer {
  name: "conv_0_0/conv_s1"
  type: "Convolution"
  bottom: "conv_0"
  top: "conv_0_0/conv_s1"
  param {
    lr_mult: 1.0
    decay_mult: 1.0
  }
  convolution_param {
    num_output: 32
    bias_term: false
    pad: 1
    kernel_size: 3
    stride: 1
    weight_filler {
      type: "msra"
    }
  }
}
layer {
  name: "conv_0_0/conv_s1_bn"
  type: "BatchNorm"
  bottom: "conv_0_0/conv_s1"
  top: "conv_0_0/conv_s1"
  param {
    lr_mult: 0.0
    decay_mult: 0.0
  }
  param {
    lr_mult: 0.0
    decay_mult: 0.0
  }
  param {
    lr_mult: 0.0
    decay_mult: 0.0
  }
  batch_norm_param {
    use_global_stats: true
    eps: 0.0010000000474974513
  }
}
layer {
  name: "conv_0_0/conv_s1_scale"
  type: "Scale"
  bottom: "conv_0_0/conv_s1"
  top: "conv_0_0/conv_s1"
  param {
    lr_mult: 0.0
    decay_mult: 0.0
  }
  param {
    lr_mult: 0.0
    decay_mult: 0.0
  }
  scale_param {
    filler {
      value: 1.0
    }
    bias_term: true
    bias_filler {
      value: 0.0
    }
  }
}
layer {
  name: "conv_0_0/conv_s1_relu6"
  type: "ReLU6"
  bottom: "conv_0_0/conv_s1"
  top: "conv_0_0/conv_s1"
}
layer {
  name: "conv_0_0/linear"
  type: "Convolution"
  bottom: "conv_0_0/conv_s1"
  top: "conv_0_0/linear"
  param {
    lr_mult: 1.0
    decay_mult: 1.0
  }
  convolution_param {
    num_output: 16
    bias_term: false
    pad: 0
    kernel_size: 1
    stride: 1
    weight_filler {
      type: "msra"
    }
  }
}
layer {
  name: "conv_0_0/linear_bn"
  type: "BatchNorm"
  bottom: "conv_0_0/linear"
  top: "conv_0_0/linear"
  param {
    lr_mult: 0.0
    decay_mult: 0.0
  }
  param {
    lr_mult: 0.0
    decay_mult: 0.0
  }
  param {
    lr_mult: 0.0
    decay_mult: 0.0
  }
  batch_norm_param {
    use_global_stats: true
    eps: 0.0010000000474974513
  }
}
layer {
  name: "conv_0_0/linear_scale"
  type: "Scale"
  bottom: "conv_0_0/linear"
  top: "conv_0_0/linear"
  param {
    lr_mult: 0.0
    decay_mult: 0.0
  }
  param {
    lr_mult: 0.0
    decay_mult: 0.0
  }
  scale_param {
    filler {
      value: 1.0
    }
    bias_term: true
    bias_filler {
      value: 0.0
    }
  }
}
layer {
  name: "conv_0_0/linear_relu6"
  type: "ReLU6"
  bottom: "conv_0_0/linear"
  top: "conv_0_0/linear"
}
layer {
  name: "conv_1_0/conv_s2"
  type: "Convolution"
  bottom: "conv_0_0/linear"
  top: "conv_1_0/conv_s2"
  param {
    lr_mult: 1.0
    decay_mult: 1.0
  }
  convolution_param {
    num_output: 48
    bias_term: false
    pad: 0
    kernel_size: 3
    stride: 2
    weight_filler {
      type: "msra"
    }
  }
}
layer {
  name: "conv_1_0/conv_s2_bn"
  type: "BatchNorm"
  bottom: "conv_1_0/conv_s2"
  top: "conv_1_0/conv_s2"
  param {
    lr_mult: 0.0
    decay_mult: 0.0
  }
  param {
    lr_mult: 0.0
    decay_mult: 0.0
  }
  param {
    lr_mult: 0.0
    decay_mult: 0.0
  }
  batch_norm_param {
    use_global_stats: true
    eps: 0.0010000000474974513
  }
}
layer {
  name: "conv_1_0/conv_s2_scale"
  type: "Scale"
  bottom: "conv_1_0/conv_s2"
  top: "conv_1_0/conv_s2"
  param {
    lr_mult: 0.0
    decay_mult: 0.0
  }
  param {
    lr_mult: 0.0
    decay_mult: 0.0
  }
  scale_param {
    filler {
      value: 1.0
    }
    bias_term: true
    bias_filler {
      value: 0.0
    }
  }
}
layer {
  name: "conv_1_0/conv_s2_relu6"
  type: "ReLU6"
  bottom: "conv_1_0/conv_s2"
  top: "conv_1_0/conv_s2"
}
layer {
  name: "conv_1_0/linear"
  type: "Convolution"
  bottom: "conv_1_0/conv_s2"
  top: "conv_1_0/linear"
  param {
    lr_mult: 1.0
    decay_mult: 1.0
  }
  convolution_param {
    num_output: 24
    bias_term: false
    pad: 0
    kernel_size: 1
    stride: 1
    weight_filler {
      type: "msra"
    }
  }
}
layer {
  name: "conv_1_0/linear_bn"
  type: "BatchNorm"
  bottom: "conv_1_0/linear"
  top: "conv_1_0/linear"
  param {
    lr_mult: 0.0
    decay_mult: 0.0
  }
  param {
    lr_mult: 0.0
    decay_mult: 0.0
  }
  param {
    lr_mult: 0.0
    decay_mult: 0.0
  }
  batch_norm_param {
    use_global_stats: true
    eps: 0.0010000000474974513
  }
}
layer {
  name: "conv_1_0/linear_scale"
  type: "Scale"
  bottom: "conv_1_0/linear"
  top: "conv_1_0/linear"
  param {
    lr_mult: 0.0
    decay_mult: 0.0
  }
  param {
    lr_mult: 0.0
    decay_mult: 0.0
  }
  scale_param {
    filler {
      value: 1.0
    }
    bias_term: true
    bias_filler {
      value: 0.0
    }
  }
}
layer {
  name: "conv_1_1/conv_s1"
  type: "Convolution"
  bottom: "conv_1_0/linear"
  top: "conv_1_1/conv_s1"
  param {
    lr_mult: 1.0
    decay_mult: 1.0
  }
  convolution_param {
    num_output: 72
    bias_term: false
    pad: 1
    kernel_size: 3
    stride: 1
    weight_filler {
      type: "msra"
    }
  }
}
layer {
  name: "conv_1_1/conv_s1_bn"
  type: "BatchNorm"
  bottom: "conv_1_1/conv_s1"
  top: "conv_1_1/conv_s1"
  param {
    lr_mult: 0.0
    decay_mult: 0.0
  }
  param {
    lr_mult: 0.0
    decay_mult: 0.0
  }
  param {
    lr_mult: 0.0
    decay_mult: 0.0
  }
  batch_norm_param {
    use_global_stats: true
    eps: 0.0010000000474974513
  }
}
layer {
  name: "conv_1_1/conv_s1_scale"
  type: "Scale"
  bottom: "conv_1_1/conv_s1"
  top: "conv_1_1/conv_s1"
  param {
    lr_mult: 0.0
    decay_mult: 0.0
  }
  param {
    lr_mult: 0.0
    decay_mult: 0.0
  }
  scale_param {
    filler {
      value: 1.0
    }
    bias_term: true
    bias_filler {
      value: 0.0
    }
  }
}
layer {
  name: "conv_1_1/conv_s1_relu6"
  type: "ReLU6"
  bottom: "conv_1_1/conv_s1"
  top: "conv_1_1/conv_s1"
}
layer {
  name: "conv_1_1/linear"
  type: "Convolution"
  bottom: "conv_1_1/conv_s1"
  top: "conv_1_1/linear"
  param {
    lr_mult: 1.0
    decay_mult: 1.0
  }
  convolution_param {
    num_output: 24
    bias_term: false
    pad: 0
    kernel_size: 1
    stride: 1
    weight_filler {
      type: "msra"
    }
  }
}
layer {
  name: "conv_1_1/linear_bn"
  type: "BatchNorm"
  bottom: "conv_1_1/linear"
  top: "conv_1_1/linear"
  param {
    lr_mult: 0.0
    decay_mult: 0.0
  }
  param {
    lr_mult: 0.0
    decay_mult: 0.0
  }
  param {
    lr_mult: 0.0
    decay_mult: 0.0
  }
  batch_norm_param {
    use_global_stats: true
    eps: 0.0010000000474974513
  }
}
layer {
  name: "conv_1_1/linear_scale"
  type: "Scale"
  bottom: "conv_1_1/linear"
  top: "conv_1_1/linear"
  param {
    lr_mult: 0.0
    decay_mult: 0.0
  }
  param {
    lr_mult: 0.0
    decay_mult: 0.0
  }
  scale_param {
    filler {
      value: 1.0
    }
    bias_term: true
    bias_filler {
      value: 0.0
    }
  }
}
layer {
  name: "Res_Sum_1_1"
  type: "Eltwise"
  bottom: "conv_1_0/linear"
  bottom: "conv_1_1/linear"
  top: "Res_Sum_1_1"
}
layer {
  name: "conv_2_0/conv_s2"
  type: "Convolution"
  bottom: "Res_Sum_1_1"
  top: "conv_2_0/conv_s2"
  param {
    lr_mult: 1.0
    decay_mult: 1.0
  }
  convolution_param {
    num_output: 72
    bias_term: false
    pad: 0
    kernel_size: 3
    stride: 2
    weight_filler {
      type: "msra"
    }
  }
}
layer {
  name: "conv_2_0/conv_s2_bn"
  type: "BatchNorm"
  bottom: "conv_2_0/conv_s2"
  top: "conv_2_0/conv_s2"
  param {
    lr_mult: 0.0
    decay_mult: 0.0
  }
  param {
    lr_mult: 0.0
    decay_mult: 0.0
  }
  param {
    lr_mult: 0.0
    decay_mult: 0.0
  }
  batch_norm_param {
    use_global_stats: true
    eps: 0.0010000000474974513
  }
}
layer {
  name: "conv_2_0/conv_s2_scale"
  type: "Scale"
  bottom: "conv_2_0/conv_s2"
  top: "conv_2_0/conv_s2"
  param {
    lr_mult: 0.0
    decay_mult: 0.0
  }
  param {
    lr_mult: 0.0
    decay_mult: 0.0
  }
  scale_param {
    filler {
      value: 1.0
    }
    bias_term: true
    bias_filler {
      value: 0.0
    }
  }
}
layer {
  name: "conv_2_0/conv_s2_relu6"
  type: "ReLU6"
  bottom: "conv_2_0/conv_s2"
  top: "conv_2_0/conv_s2"
}
layer {
  name: "conv_2_0/linear"
  type: "Convolution"
  bottom: "conv_2_0/conv_s2"
  top: "conv_2_0/linear"
  param {
    lr_mult: 1.0
    decay_mult: 1.0
  }
  convolution_param {
    num_output: 32
    bias_term: false
    pad: 0
    kernel_size: 1
    stride: 1
    weight_filler {
      type: "msra"
    }
  }
}
layer {
  name: "conv_2_0/linear_bn"
  type: "BatchNorm"
  bottom: "conv_2_0/linear"
  top: "conv_2_0/linear"
  param {
    lr_mult: 0.0
    decay_mult: 0.0
  }
  param {
    lr_mult: 0.0
    decay_mult: 0.0
  }
  param {
    lr_mult: 0.0
    decay_mult: 0.0
  }
  batch_norm_param {
    use_global_stats: true
    eps: 0.0010000000474974513
  }
}
layer {
  name: "conv_2_0/linear_scale"
  type: "Scale"
  bottom: "conv_2_0/linear"
  top: "conv_2_0/linear"
  param {
    lr_mult: 0.0
    decay_mult: 0.0
  }
  param {
    lr_mult: 0.0
    decay_mult: 0.0
  }
  scale_param {
    filler {
      value: 1.0
    }
    bias_term: true
    bias_filler {
      value: 0.0
    }
  }
}
layer {
  name: "conv_2_1/conv_s1"
  type: "Convolution"
  bottom: "conv_2_0/linear"
  top: "conv_2_1/conv_s1"
  param {
    lr_mult: 1.0
    decay_mult: 1.0
  }
  convolution_param {
    num_output: 96
    bias_term: false
    pad: 1
    kernel_size: 3
    stride: 1
    weight_filler {
      type: "msra"
    }
  }
}
layer {
  name: "conv_2_1/conv_s1_bn"
  type: "BatchNorm"
  bottom: "conv_2_1/conv_s1"
  top: "conv_2_1/conv_s1"
  param {
    lr_mult: 0.0
    decay_mult: 0.0
  }
  param {
    lr_mult: 0.0
    decay_mult: 0.0
  }
  param {
    lr_mult: 0.0
    decay_mult: 0.0
  }
  batch_norm_param {
    use_global_stats: true
    eps: 0.0010000000474974513
  }
}
layer {
  name: "conv_2_1/conv_s1_scale"
  type: "Scale"
  bottom: "conv_2_1/conv_s1"
  top: "conv_2_1/conv_s1"
  param {
    lr_mult: 0.0
    decay_mult: 0.0
  }
  param {
    lr_mult: 0.0
    decay_mult: 0.0
  }
  scale_param {
    filler {
      value: 1.0
    }
    bias_term: true
    bias_filler {
      value: 0.0
    }
  }
}
layer {
  name: "conv_2_1/conv_s1_relu6"
  type: "ReLU6"
  bottom: "conv_2_1/conv_s1"
  top: "conv_2_1/conv_s1"
}
layer {
  name: "conv_2_1/linear"
  type: "Convolution"
  bottom: "conv_2_1/conv_s1"
  top: "conv_2_1/linear"
  param {
    lr_mult: 1.0
    decay_mult: 1.0
  }
  convolution_param {
    num_output: 32
    bias_term: false
    pad: 0
    kernel_size: 1
    stride: 1
    weight_filler {
      type: "msra"
    }
  }
}
layer {
  name: "conv_2_1/linear_bn"
  type: "BatchNorm"
  bottom: "conv_2_1/linear"
  top: "conv_2_1/linear"
  param {
    lr_mult: 0.0
    decay_mult: 0.0
  }
  param {
    lr_mult: 0.0
    decay_mult: 0.0
  }
  param {
    lr_mult: 0.0
    decay_mult: 0.0
  }
  batch_norm_param {
    use_global_stats: true
    eps: 0.0010000000474974513
  }
}
layer {
  name: "conv_2_1/linear_scale"
  type: "Scale"
  bottom: "conv_2_1/linear"
  top: "conv_2_1/linear"
  param {
    lr_mult: 0.0
    decay_mult: 0.0
  }
  param {
    lr_mult: 0.0
    decay_mult: 0.0
  }
  scale_param {
    filler {
      value: 1.0
    }
    bias_term: true
    bias_filler {
      value: 0.0
    }
  }
}
layer {
  name: "Res_Sum_2_1"
  type: "Eltwise"
  bottom: "conv_2_0/linear"
  bottom: "conv_2_1/linear"
  top: "Res_Sum_2_1"
}
layer {
  name: "conv_3_0/conv_s2"
  type: "Convolution"
  bottom: "Res_Sum_2_1"
  top: "conv_3_0/conv_s2"
  param {
    lr_mult: 1.0
    decay_mult: 1.0
  }
  convolution_param {
    num_output: 96
    bias_term: false
    pad: 0
    kernel_size: 3
    stride: 2
    weight_filler {
      type: "msra"
    }
  }
}
layer {
  name: "conv_3_0/conv_s2_bn"
  type: "BatchNorm"
  bottom: "conv_3_0/conv_s2"
  top: "conv_3_0/conv_s2"
  param {
    lr_mult: 0.0
    decay_mult: 0.0
  }
  param {
    lr_mult: 0.0
    decay_mult: 0.0
  }
  param {
    lr_mult: 0.0
    decay_mult: 0.0
  }
  batch_norm_param {
    use_global_stats: true
    eps: 0.0010000000474974513
  }
}
layer {
  name: "conv_3_0/conv_s2_scale"
  type: "Scale"
  bottom: "conv_3_0/conv_s2"
  top: "conv_3_0/conv_s2"
  param {
    lr_mult: 0.0
    decay_mult: 0.0
  }
  param {
    lr_mult: 0.0
    decay_mult: 0.0
  }
  scale_param {
    filler {
      value: 1.0
    }
    bias_term: true
    bias_filler {
      value: 0.0
    }
  }
}
layer {
  name: "conv_3_0/conv_s2_relu6"
  type: "ReLU6"
  bottom: "conv_3_0/conv_s2"
  top: "conv_3_0/conv_s2"
}
layer {
  name: "conv_3_0/linear"
  type: "Convolution"
  bottom: "conv_3_0/conv_s2"
  top: "conv_3_0/linear"
  param {
    lr_mult: 1.0
    decay_mult: 1.0
  }
  convolution_param {
    num_output: 64
    bias_term: false
    pad: 0
    kernel_size: 1
    stride: 1
    weight_filler {
      type: "msra"
    }
  }
}
layer {
  name: "conv_3_0/linear_bn"
  type: "BatchNorm"
  bottom: "conv_3_0/linear"
  top: "conv_3_0/linear"
  param {
    lr_mult: 0.0
    decay_mult: 0.0
  }
  param {
    lr_mult: 0.0
    decay_mult: 0.0
  }
  param {
    lr_mult: 0.0
    decay_mult: 0.0
  }
  batch_norm_param {
    use_global_stats: true
    eps: 0.0010000000474974513
  }
}
layer {
  name: "conv_3_0/linear_scale"
  type: "Scale"
  bottom: "conv_3_0/linear"
  top: "conv_3_0/linear"
  param {
    lr_mult: 0.0
    decay_mult: 0.0
  }
  param {
    lr_mult: 0.0
    decay_mult: 0.0
  }
  scale_param {
    filler {
      value: 1.0
    }
    bias_term: true
    bias_filler {
      value: 0.0
    }
  }
}
layer {
  name: "conv_3_1/conv_s1"
  type: "Convolution"
  bottom: "conv_3_0/linear"
  top: "conv_3_1/conv_s1"
  param {
    lr_mult: 1.0
    decay_mult: 1.0
  }
  convolution_param {
    num_output: 192
    bias_term: false
    pad: 1
    kernel_size: 3
    stride: 1
    weight_filler {
      type: "msra"
    }
  }
}
layer {
  name: "conv_3_1/conv_s1_bn"
  type: "BatchNorm"
  bottom: "conv_3_1/conv_s1"
  top: "conv_3_1/conv_s1"
  param {
    lr_mult: 0.0
    decay_mult: 0.0
  }
  param {
    lr_mult: 0.0
    decay_mult: 0.0
  }
  param {
    lr_mult: 0.0
    decay_mult: 0.0
  }
  batch_norm_param {
    use_global_stats: true
    eps: 0.0010000000474974513
  }
}
layer {
  name: "conv_3_1/conv_s1_scale"
  type: "Scale"
  bottom: "conv_3_1/conv_s1"
  top: "conv_3_1/conv_s1"
  param {
    lr_mult: 0.0
    decay_mult: 0.0
  }
  param {
    lr_mult: 0.0
    decay_mult: 0.0
  }
  scale_param {
    filler {
      value: 1.0
    }
    bias_term: true
    bias_filler {
      value: 0.0
    }
  }
}
layer {
  name: "conv_3_1/conv_s1_relu6"
  type: "ReLU6"
  bottom: "conv_3_1/conv_s1"
  top: "conv_3_1/conv_s1"
}
layer {
  name: "conv_3_1/linear"
  type: "Convolution"
  bottom: "conv_3_1/conv_s1"
  top: "conv_3_1/linear"
  param {
    lr_mult: 1.0
    decay_mult: 1.0
  }
  convolution_param {
    num_output: 64
    bias_term: false
    pad: 0
    kernel_size: 1
    stride: 1
    weight_filler {
      type: "msra"
    }
  }
}
layer {
  name: "conv_3_1/linear_bn"
  type: "BatchNorm"
  bottom: "conv_3_1/linear"
  top: "conv_3_1/linear"
  param {
    lr_mult: 0.0
    decay_mult: 0.0
  }
  param {
    lr_mult: 0.0
    decay_mult: 0.0
  }
  param {
    lr_mult: 0.0
    decay_mult: 0.0
  }
  batch_norm_param {
    use_global_stats: true
    eps: 0.0010000000474974513
  }
}
layer {
  name: "conv_3_1/linear_scale"
  type: "Scale"
  bottom: "conv_3_1/linear"
  top: "conv_3_1/linear"
  param {
    lr_mult: 0.0
    decay_mult: 0.0
  }
  param {
    lr_mult: 0.0
    decay_mult: 0.0
  }
  scale_param {
    filler {
      value: 1.0
    }
    bias_term: true
    bias_filler {
      value: 0.0
    }
  }
}
layer {
  name: "Res_Sum_3_1"
  type: "Eltwise"
  bottom: "conv_3_0/linear"
  bottom: "conv_3_1/linear"
  top: "Res_Sum_3_1"
}
layer {
  name: "conv_4_0/conv_s2"
  type: "Convolution"
  bottom: "Res_Sum_3_1"
  top: "conv_4_0/conv_s2"
  param {
    lr_mult: 1.0
    decay_mult: 1.0
  }
  convolution_param {
    num_output: 192
    bias_term: false
    pad: 0
    kernel_size: 3
    stride: 2
    weight_filler {
      type: "msra"
    }
  }
}
layer {
  name: "conv_4_0/conv_s2_bn"
  type: "BatchNorm"
  bottom: "conv_4_0/conv_s2"
  top: "conv_4_0/conv_s2"
  param {
    lr_mult: 0.0
    decay_mult: 0.0
  }
  param {
    lr_mult: 0.0
    decay_mult: 0.0
  }
  param {
    lr_mult: 0.0
    decay_mult: 0.0
  }
  batch_norm_param {
    use_global_stats: true
    eps: 0.0010000000474974513
  }
}
layer {
  name: "conv_4_0/conv_s2_scale"
  type: "Scale"
  bottom: "conv_4_0/conv_s2"
  top: "conv_4_0/conv_s2"
  param {
    lr_mult: 0.0
    decay_mult: 0.0
  }
  param {
    lr_mult: 0.0
    decay_mult: 0.0
  }
  scale_param {
    filler {
      value: 1.0
    }
    bias_term: true
    bias_filler {
      value: 0.0
    }
  }
}
layer {
  name: "conv_4_0/conv_s2_relu6"
  type: "ReLU6"
  bottom: "conv_4_0/conv_s2"
  top: "conv_4_0/conv_s2"
}
layer {
  name: "conv_4_0/linear"
  type: "Convolution"
  bottom: "conv_4_0/conv_s2"
  top: "conv_4_0/linear"
  param {
    lr_mult: 1.0
    decay_mult: 1.0
  }
  convolution_param {
    num_output: 128
    bias_term: false
    pad: 0
    kernel_size: 1
    stride: 1
    weight_filler {
      type: "msra"
    }
  }
}
layer {
  name: "conv_4_0/linear_bn"
  type: "BatchNorm"
  bottom: "conv_4_0/linear"
  top: "conv_4_0/linear"
  param {
    lr_mult: 0.0
    decay_mult: 0.0
  }
  param {
    lr_mult: 0.0
    decay_mult: 0.0
  }
  param {
    lr_mult: 0.0
    decay_mult: 0.0
  }
  batch_norm_param {
    use_global_stats: true
    eps: 0.0010000000474974513
  }
}
layer {
  name: "conv_4_0/linear_scale"
  type: "Scale"
  bottom: "conv_4_0/linear"
  top: "conv_4_0/linear"
  param {
    lr_mult: 0.0
    decay_mult: 0.0
  }
  param {
    lr_mult: 0.0
    decay_mult: 0.0
  }
  scale_param {
    filler {
      value: 1.0
    }
    bias_term: true
    bias_filler {
      value: 0.0
    }
  }
}
layer {
  name: "conv_4_1/conv_s1"
  type: "Convolution"
  bottom: "conv_4_0/linear"
  top: "conv_4_1/conv_s1"
  param {
    lr_mult: 1.0
    decay_mult: 1.0
  }
  convolution_param {
    num_output: 384
    bias_term: false
    pad: 1
    kernel_size: 3
    stride: 1
    weight_filler {
      type: "msra"
    }
  }
}
layer {
  name: "conv_4_1/conv_s1_bn"
  type: "BatchNorm"
  bottom: "conv_4_1/conv_s1"
  top: "conv_4_1/conv_s1"
  param {
    lr_mult: 0.0
    decay_mult: 0.0
  }
  param {
    lr_mult: 0.0
    decay_mult: 0.0
  }
  param {
    lr_mult: 0.0
    decay_mult: 0.0
  }
  batch_norm_param {
    use_global_stats: true
    eps: 0.0010000000474974513
  }
}
layer {
  name: "conv_4_1/conv_s1_scale"
  type: "Scale"
  bottom: "conv_4_1/conv_s1"
  top: "conv_4_1/conv_s1"
  param {
    lr_mult: 0.0
    decay_mult: 0.0
  }
  param {
    lr_mult: 0.0
    decay_mult: 0.0
  }
  scale_param {
    filler {
      value: 1.0
    }
    bias_term: true
    bias_filler {
      value: 0.0
    }
  }
}
layer {
  name: "conv_4_1/conv_s1_relu6"
  type: "ReLU6"
  bottom: "conv_4_1/conv_s1"
  top: "conv_4_1/conv_s1"
}
layer {
  name: "conv_4_1/linear"
  type: "Convolution"
  bottom: "conv_4_1/conv_s1"
  top: "conv_4_1/linear"
  param {
    lr_mult: 1.0
    decay_mult: 1.0
  }
  convolution_param {
    num_output: 128
    bias_term: false
    pad: 0
    kernel_size: 1
    stride: 1
    weight_filler {
      type: "msra"
    }
  }
}
layer {
  name: "conv_4_1/linear_bn"
  type: "BatchNorm"
  bottom: "conv_4_1/linear"
  top: "conv_4_1/linear"
  param {
    lr_mult: 0.0
    decay_mult: 0.0
  }
  param {
    lr_mult: 0.0
    decay_mult: 0.0
  }
  param {
    lr_mult: 0.0
    decay_mult: 0.0
  }
  batch_norm_param {
    use_global_stats: true
    eps: 0.0010000000474974513
  }
}
layer {
  name: "conv_4_1/linear_scale"
  type: "Scale"
  bottom: "conv_4_1/linear"
  top: "conv_4_1/linear"
  param {
    lr_mult: 0.0
    decay_mult: 0.0
  }
  param {
    lr_mult: 0.0
    decay_mult: 0.0
  }
  scale_param {
    filler {
      value: 1.0
    }
    bias_term: true
    bias_filler {
      value: 0.0
    }
  }
}
layer {
  name: "Res_Sum_4_1"
  type: "Eltwise"
  bottom: "conv_4_0/linear"
  bottom: "conv_4_1/linear"
  top: "Res_Sum_4_1"
}
layer {
  name: "conv_3x3_24_0"
  type: "Convolution"
  bottom: "Res_Sum_1_1"
  top: "conv_3x3_24_0"
  param {
    lr_mult: 1.0
    decay_mult: 1.0
  }
  convolution_param {
    num_output: 24
    bias_term: false
    pad: 1
    kernel_size: 3
    stride: 1
    weight_filler {
      type: "msra"
    }
  }
}
layer {
  name: "conv_3x3_24_0_bn"
  type: "BatchNorm"
  bottom: "conv_3x3_24_0"
  top: "conv_3x3_24_0"
  param {
    lr_mult: 0.0
    decay_mult: 0.0
  }
  param {
    lr_mult: 0.0
    decay_mult: 0.0
  }
  param {
    lr_mult: 0.0
    decay_mult: 0.0
  }
  batch_norm_param {
    moving_average_fraction: 0.9990000128746033
    eps: 0.0010000000474974513
  }
}
layer {
  name: "conv_3x3_24_0_scale"
  type: "Scale"
  bottom: "conv_3x3_24_0"
  top: "conv_3x3_24_0"
  param {
    lr_mult: 1.0
    decay_mult: 0.0
  }
  param {
    lr_mult: 2.0
    decay_mult: 0.0
  }
  scale_param {
    filler {
      value: 1.0
    }
    bias_term: true
    bias_filler {
      value: 0.0
    }
  }
}
layer {
  name: "conv_3x3_24_0_relu6"
  type: "ReLU6"
  bottom: "conv_3x3_24_0"
  top: "conv_3x3_24_0"
}
layer {
  name: "conv_3x3_out_24_0"
  type: "Convolution"
  bottom: "conv_3x3_24_0"
  top: "conv_3x3_out_24_0"
  param {
    lr_mult: 1.0
    decay_mult: 1.0
  }
  convolution_param {
    num_output: 24
    bias_term: false
    pad: 1
    kernel_size: 3
    stride: 1
    weight_filler {
      type: "msra"
    }
  }
}
layer {
  name: "conv_3x3_out_24_0_bn"
  type: "BatchNorm"
  bottom: "conv_3x3_out_24_0"
  top: "conv_3x3_out_24_0"
  param {
    lr_mult: 0.0
    decay_mult: 0.0
  }
  param {
    lr_mult: 0.0
    decay_mult: 0.0
  }
  param {
    lr_mult: 0.0
    decay_mult: 0.0
  }
  batch_norm_param {
    moving_average_fraction: 0.9990000128746033
    eps: 0.0010000000474974513
  }
}
layer {
  name: "conv_3x3_out_24_0_scale"
  type: "Scale"
  bottom: "conv_3x3_out_24_0"
  top: "conv_3x3_out_24_0"
  param {
    lr_mult: 1.0
    decay_mult: 0.0
  }
  param {
    lr_mult: 2.0
    decay_mult: 0.0
  }
  scale_param {
    filler {
      value: 1.0
    }
    bias_term: true
    bias_filler {
      value: 0.0
    }
  }
}
layer {
  name: "conv_3x3_out_24_0_relu6"
  type: "ReLU6"
  bottom: "conv_3x3_out_24_0"
  top: "conv_3x3_out_24_0"
}
layer {
  name: "Det_1x1_out_24_0"
  type: "Convolution"
  bottom: "conv_3x3_out_24_0"
  top: "Det_1x1_out_24_0"
  param {
    lr_mult: 1.0
    decay_mult: 1.0
  }
  convolution_param {
    num_output: 6
    bias_term: false
    pad: 0
    kernel_size: 1
    stride: 1
    weight_filler {
      type: "msra"
    }
  }
}
layer {
  name: "conv_3x3_32_1"
  type: "Convolution"
  bottom: "Res_Sum_2_1"
  top: "conv_3x3_32_1"
  param {
    lr_mult: 1.0
    decay_mult: 1.0
  }
  convolution_param {
    num_output: 32
    bias_term: false
    pad: 1
    kernel_size: 3
    stride: 1
    weight_filler {
      type: "msra"
    }
  }
}
layer {
  name: "conv_3x3_32_1_bn"
  type: "BatchNorm"
  bottom: "conv_3x3_32_1"
  top: "conv_3x3_32_1"
  param {
    lr_mult: 0.0
    decay_mult: 0.0
  }
  param {
    lr_mult: 0.0
    decay_mult: 0.0
  }
  param {
    lr_mult: 0.0
    decay_mult: 0.0
  }
  batch_norm_param {
    moving_average_fraction: 0.9990000128746033
    eps: 0.0010000000474974513
  }
}
layer {
  name: "conv_3x3_32_1_scale"
  type: "Scale"
  bottom: "conv_3x3_32_1"
  top: "conv_3x3_32_1"
  param {
    lr_mult: 1.0
    decay_mult: 0.0
  }
  param {
    lr_mult: 2.0
    decay_mult: 0.0
  }
  scale_param {
    filler {
      value: 1.0
    }
    bias_term: true
    bias_filler {
      value: 0.0
    }
  }
}
layer {
  name: "conv_3x3_32_1_relu6"
  type: "ReLU6"
  bottom: "conv_3x3_32_1"
  top: "conv_3x3_32_1"
}
layer {
  name: "conv_3x3_out_32_1"
  type: "Convolution"
  bottom: "conv_3x3_32_1"
  top: "conv_3x3_out_32_1"
  param {
    lr_mult: 1.0
    decay_mult: 1.0
  }
  convolution_param {
    num_output: 24
    bias_term: false
    pad: 1
    kernel_size: 3
    stride: 1
    weight_filler {
      type: "msra"
    }
  }
}
layer {
  name: "conv_3x3_out_32_1_bn"
  type: "BatchNorm"
  bottom: "conv_3x3_out_32_1"
  top: "conv_3x3_out_32_1"
  param {
    lr_mult: 0.0
    decay_mult: 0.0
  }
  param {
    lr_mult: 0.0
    decay_mult: 0.0
  }
  param {
    lr_mult: 0.0
    decay_mult: 0.0
  }
  batch_norm_param {
    moving_average_fraction: 0.9990000128746033
    eps: 0.0010000000474974513
  }
}
layer {
  name: "conv_3x3_out_32_1_scale"
  type: "Scale"
  bottom: "conv_3x3_out_32_1"
  top: "conv_3x3_out_32_1"
  param {
    lr_mult: 1.0
    decay_mult: 0.0
  }
  param {
    lr_mult: 2.0
    decay_mult: 0.0
  }
  scale_param {
    filler {
      value: 1.0
    }
    bias_term: true
    bias_filler {
      value: 0.0
    }
  }
}
layer {
  name: "conv_3x3_out_32_1_relu6"
  type: "ReLU6"
  bottom: "conv_3x3_out_32_1"
  top: "conv_3x3_out_32_1"
}
layer {
  name: "Det_1x1_out_32_1"
  type: "Convolution"
  bottom: "conv_3x3_out_32_1"
  top: "Det_1x1_out_32_1"
  param {
    lr_mult: 1.0
    decay_mult: 1.0
  }
  convolution_param {
    num_output: 6
    bias_term: false
    pad: 0
    kernel_size: 1
    stride: 1
    weight_filler {
      type: "msra"
    }
  }
}
layer {
  name: "conv_3x3_64_2"
  type: "Convolution"
  bottom: "Res_Sum_3_1"
  top: "conv_3x3_64_2"
  param {
    lr_mult: 1.0
    decay_mult: 1.0
  }
  convolution_param {
    num_output: 64
    bias_term: false
    pad: 1
    kernel_size: 3
    stride: 1
    weight_filler {
      type: "msra"
    }
  }
}
layer {
  name: "conv_3x3_64_2_bn"
  type: "BatchNorm"
  bottom: "conv_3x3_64_2"
  top: "conv_3x3_64_2"
  param {
    lr_mult: 0.0
    decay_mult: 0.0
  }
  param {
    lr_mult: 0.0
    decay_mult: 0.0
  }
  param {
    lr_mult: 0.0
    decay_mult: 0.0
  }
  batch_norm_param {
    moving_average_fraction: 0.9990000128746033
    eps: 0.0010000000474974513
  }
}
layer {
  name: "conv_3x3_64_2_scale"
  type: "Scale"
  bottom: "conv_3x3_64_2"
  top: "conv_3x3_64_2"
  param {
    lr_mult: 1.0
    decay_mult: 0.0
  }
  param {
    lr_mult: 2.0
    decay_mult: 0.0
  }
  scale_param {
    filler {
      value: 1.0
    }
    bias_term: true
    bias_filler {
      value: 0.0
    }
  }
}
layer {
  name: "conv_3x3_64_2_relu6"
  type: "ReLU6"
  bottom: "conv_3x3_64_2"
  top: "conv_3x3_64_2"
}
layer {
  name: "conv_3x3_out_64_2"
  type: "Convolution"
  bottom: "conv_3x3_64_2"
  top: "conv_3x3_out_64_2"
  param {
    lr_mult: 1.0
    decay_mult: 1.0
  }
  convolution_param {
    num_output: 24
    bias_term: false
    pad: 1
    kernel_size: 3
    stride: 1
    weight_filler {
      type: "msra"
    }
  }
}
layer {
  name: "conv_3x3_out_64_2_bn"
  type: "BatchNorm"
  bottom: "conv_3x3_out_64_2"
  top: "conv_3x3_out_64_2"
  param {
    lr_mult: 0.0
    decay_mult: 0.0
  }
  param {
    lr_mult: 0.0
    decay_mult: 0.0
  }
  param {
    lr_mult: 0.0
    decay_mult: 0.0
  }
  batch_norm_param {
    moving_average_fraction: 0.9990000128746033
    eps: 0.0010000000474974513
  }
}
layer {
  name: "conv_3x3_out_64_2_scale"
  type: "Scale"
  bottom: "conv_3x3_out_64_2"
  top: "conv_3x3_out_64_2"
  param {
    lr_mult: 1.0
    decay_mult: 0.0
  }
  param {
    lr_mult: 2.0
    decay_mult: 0.0
  }
  scale_param {
    filler {
      value: 1.0
    }
    bias_term: true
    bias_filler {
      value: 0.0
    }
  }
}
layer {
  name: "conv_3x3_out_64_2_relu6"
  type: "ReLU6"
  bottom: "conv_3x3_out_64_2"
  top: "conv_3x3_out_64_2"
}
layer {
  name: "Det_1x1_out_64_2"
  type: "Convolution"
  bottom: "conv_3x3_out_64_2"
  top: "Det_1x1_out_64_2"
  param {
    lr_mult: 1.0
    decay_mult: 1.0
  }
  convolution_param {
    num_output: 6
    bias_term: false
    pad: 0
    kernel_size: 1
    stride: 1
    weight_filler {
      type: "msra"
    }
  }
}
layer {
  name: "conv_3x3_128_3"
  type: "Convolution"
  bottom: "Res_Sum_4_1"
  top: "conv_3x3_128_3"
  param {
    lr_mult: 1.0
    decay_mult: 1.0
  }
  convolution_param {
    num_output: 128
    bias_term: false
    pad: 1
    kernel_size: 3
    stride: 1
    weight_filler {
      type: "msra"
    }
  }
}
layer {
  name: "conv_3x3_128_3_bn"
  type: "BatchNorm"
  bottom: "conv_3x3_128_3"
  top: "conv_3x3_128_3"
  param {
    lr_mult: 0.0
    decay_mult: 0.0
  }
  param {
    lr_mult: 0.0
    decay_mult: 0.0
  }
  param {
    lr_mult: 0.0
    decay_mult: 0.0
  }
  batch_norm_param {
    moving_average_fraction: 0.9990000128746033
    eps: 0.0010000000474974513
  }
}
layer {
  name: "conv_3x3_128_3_scale"
  type: "Scale"
  bottom: "conv_3x3_128_3"
  top: "conv_3x3_128_3"
  param {
    lr_mult: 1.0
    decay_mult: 0.0
  }
  param {
    lr_mult: 2.0
    decay_mult: 0.0
  }
  scale_param {
    filler {
      value: 1.0
    }
    bias_term: true
    bias_filler {
      value: 0.0
    }
  }
}
layer {
  name: "conv_3x3_128_3_relu6"
  type: "ReLU6"
  bottom: "conv_3x3_128_3"
  top: "conv_3x3_128_3"
}
layer {
  name: "conv_3x3_out_128_3"
  type: "Convolution"
  bottom: "conv_3x3_128_3"
  top: "conv_3x3_out_128_3"
  param {
    lr_mult: 1.0
    decay_mult: 1.0
  }
  convolution_param {
    num_output: 24
    bias_term: false
    pad: 1
    kernel_size: 3
    stride: 1
    weight_filler {
      type: "msra"
    }
  }
}
layer {
  name: "conv_3x3_out_128_3_bn"
  type: "BatchNorm"
  bottom: "conv_3x3_out_128_3"
  top: "conv_3x3_out_128_3"
  param {
    lr_mult: 0.0
    decay_mult: 0.0
  }
  param {
    lr_mult: 0.0
    decay_mult: 0.0
  }
  param {
    lr_mult: 0.0
    decay_mult: 0.0
  }
  batch_norm_param {
    moving_average_fraction: 0.9990000128746033
    eps: 0.0010000000474974513
  }
}
layer {
  name: "conv_3x3_out_128_3_scale"
  type: "Scale"
  bottom: "conv_3x3_out_128_3"
  top: "conv_3x3_out_128_3"
  param {
    lr_mult: 1.0
    decay_mult: 0.0
  }
  param {
    lr_mult: 2.0
    decay_mult: 0.0
  }
  scale_param {
    filler {
      value: 1.0
    }
    bias_term: true
    bias_filler {
      value: 0.0
    }
  }
}
layer {
  name: "conv_3x3_out_128_3_relu6"
  type: "ReLU6"
  bottom: "conv_3x3_out_128_3"
  top: "conv_3x3_out_128_3"
}
layer {
  name: "Det_1x1_out_128_3"
  type: "Convolution"
  bottom: "conv_3x3_out_128_3"
  top: "Det_1x1_out_128_3"
  param {
    lr_mult: 1.0
    decay_mult: 1.0
  }
  convolution_param {
    num_output: 6
    bias_term: false
    pad: 0
    kernel_size: 1
    stride: 1
    weight_filler {
      type: "msra"
    }
  }
}
layer {
  name: "detection_out"
  type: "CenterGridOutput"
  bottom: "Det_1x1_out_24_0"
  bottom: "Det_1x1_out_32_1"
  bottom: "Det_1x1_out_64_2"
  bottom: "Det_1x1_out_128_3"
  top: "detection_out"
  include {
    phase: TEST
  }
  detection_output_param {
    num_classes: 2
    share_location: true
    keep_top_k: 1000
    confidence_threshold: 0.0500000596046448
    bias_scale: 17
    bias_scale: 48
    bias_scale: 96
    bias_scale: 219
    nms_thresh: 0.30000001192092896
    class_type: SOFTMAX
    has_lm: false
    net_height: 320
    net_width: 320
  }
}
layer {
  name: "detection_eval"
  type: "DetectionEvaluate"
  bottom: "detection_out"
  bottom: "label"
  top: "detection_eval"
  include {
    phase: TEST
  }
  detection_evaluate_param {
    num_classes: 2
    background_label_id: 0
    overlap_threshold: 0.5000000596046448
    evaluate_difficult_gt: false
  }
}

